NN/analysis/result/dfa/W1_151_0.npy (npy, 314128 bytes, 1 tensors)

array f4 [785, 100]
-0.023045132 0.02645664 -0.035327412 -0.0106728 0.00037835166 0.014940865 0.029278975 0.01567816
-0.033784732 0.013488278 0.020553064 0.015284691 -0.029590175 0.018007927 0.009946354 -0.0044546127
-0.003268063 0.021552429 0.02262561 -0.006658742 -0.01498024 0.013402328 0.013534963 0.008882284
0.032321777 0.02133745 -0.0085555315 -0.016537761 -0.026500558 0.024740517 0.0016963147 0.0091008395
0.01171834 0.031782564 0.007123258 -0.026879456 -0.028926518 -0.02529932 -0.027675783 -0.018277688
0.019615497 0.014285769 0.024501514 0.02896664 -0.0010275841 0.018655643 -0.00956526 -0.022361884
-0.006602552 0.008064944 -0.022321522 -0.022604432 -0.016677339 0.005214639 0.030914586 -0.018867273
0.008773532 0.0016927198 0.011937737 -0.02371176 0.0034370497 -0.02344089 0.028517675 0.024023168
0.03144626 -0.00785269 -0.011395497 0.021836597 0.00024902076 -0.0004578568 -0.029172286 0.017459419
-0.024107048 -0.025716502 -0.024649229 -0.0055821873 0.030405048 -0.0125292465 -0.022298038 -0.031756617
0.02706838 0.01418937 0.026801366 -0.020656697 0.009622037 -0.011396766 0.023886025 -0.013548622
0.023570139 -0.028024709 0.021777306 -0.0014362857 0.012090147 2.5529414e-05 -0.014139311 -0.028113341
0.024904832 -0.011592405 0.0282791 -0.03147111 -0.026056997 -0.01927743 -0.027705858 0.012942776
-0.015166054 0.022479042 0.030982357 -0.021123862 -0.009024775 -0.027171612 -0.03042836 0.022655062
-0.0270687 0.02859607 0.031112071 -0.015964067 -0.011909971 -0.015777256 -0.011201484 -0.019432537
0.023161948 -0.026598055 0.026152324 0.004885938 -0.035116564 0.031944077 -0.022866055 0.025061548
-0.022571156 0.0238914 -0.0276598 -0.006618116 -0.014719784 0.008465257 0.009663984 -0.003767617
-0.007060852 -0.025453892 0.0232073 -0.030679509 -0.003096614 -0.0046092365 -0.010616984 0.02217288
-0.016775975 0.01644151 -0.032978263 0.019709751 0.0031358674 -0.007573664 -0.031321272 -0.02829207
-0.015375581 0.032893125 0.02492014 0.031017806 0.030692067 0.0013720989 -0.0339406 0.02787016
-0.009792728 0.030668866 0.032584343 0.013881914 0.0043167397 0.025893662 -0.0011856817 0.0066535734
0.014854185 -0.034973778 -0.025445675 0.017659936 0.013751719 -0.004684763 0.0059855506 -0.019621084
0.010400839 -0.0025629997 -0.0039421916 -0.008676853 0.032552566 0.019582536 -0.027422046 -0.02579661
7.179007e-05 0.03182592 -0.029063813 0.012046322 -0.017947173 -0.021549499 0.0031090379 -0.027838206
-0.021306686 0.020114575 0.033170175 0.018240068 0.020300526 -0.03566657 -0.0225521 0.006902881
-0.022654891 0.0069663115 -0.015019877 -0.025065338 0.017609376 0.0118032545 -0.033317883 -0.014552943
-0.003499858 0.001785431 0.020596027 0.025064215 -0.025540847 0.0028816722 0.024391387 0.032319818
-0.03323149 -0.0136915445 0.01791748 0.009903576 0.019577716 0.0015634373 -0.027235262 -0.023355043
0.023272209 -0.006226735 0.024310913 0.020065062 -0.0048470423 0.008971222 -0.014603863 -0.028497986
-0.014018314 -0.02491843 -0.0070563983 -0.019365644 -0.005250454 -0.0072381664 0.014429774 0.024333622
0.028582726 0.015605349 0.030751262 0.017148733 0.010530133 0.02431672 0.025143623 -0.028701272
0.033060167 0.034232516 -0.004030373 0.015909929 0.02560775 -0.032112796 -0.012404885 -0.029714288
00000000: 25c9 bcbc 98bb d83c 7ab3 10bd f8dc 2ebc
00000010: 805d c639 88ca 743c 76da ef3c 7c6f 803c
00000020: dc61 0abd f0fd 5c3c e65e a83c a46c 7a3c
00000030: 1867 f2bc 5c85 933c 08f6 223c 00f8 91bb
00000040: 002d 56bb b88e b03c 5859 b93c 9431 dabb
00000050: ae6f 75bc 7095 5b3c c0c1 5d3c 0087 113c
00000060: d763 043d e0cb ae3c 802c 0cbc 337a 87bc
00000070: b317 d9bc a0ac ca3c e056 de3a b01b 153c
00000080: 48fe 3f3c 6f2e 023d 386a e93b 4e32 dcbc
00000090: 4ef7 ecbc 8540 cfbc 53b8 e2bc 17bb 95bc
000000a0: aeb0 a03c dc0e 6a3c 66b7 c83c 724b ed3c
000000b0: 00b0 86ba b8d3 983c 9cb7 1cbc 4530 b7bc
000000c0: 385a d8bb d422 043c a0db b6bc ee2c b9bc
000000d0: ea9e 88bc 90df aa3b 9640 fd3c 8a8f 9abc
000000e0: dcbe 0f3c 40de dd3a 8096 433c 2a3f c2bc
000000f0: 2040 613b 1c07 c0bc e69d e93c 3ccc c43c
00000100: cbcd 003d 92a8 00bc 2eb4 3abc aae2 b23c
00000110: 008f 8239 800c f0b9 b8fa eebc 0e07 8f3c
00000120: 257c c5bc 6aab d2bc 2eed c9bc c8ea b6bb
00000130: 0214 f93c 7847 4dbc 60aa b6bc 3a13 02bd
00000140: 82be dd3c 887a 683c 8a8e db3c 3c38 a9bc
00000150: c0a5 1d3c 80b9 3abc a0ac c33c 0afb 5dbc
00000160: 2a16 c13c 1394 e5bc 5266 b23c c041 bcba
00000170: c015 463c 0028 d637 92a8 67bc f34d e6bc
00000180: 3805 cc3c 12ee 3dbc 92a9 e73c dae7 00bd
00000190: 7c75 d5bc b3eb 9dbc 65f7 e2bc f00d 543c
000001a0: 0a7b 78bc f825 b83c b6ce fd3c f30b adbc
000001b0: a6dc 13bc 0097 debc e544 f9bc 1c97 b93c
000001c0: 2ebf ddbc 4e42 ea3c bede fe3c 13c7 82bc
000001d0: 0a22 43bc 4e3f 81bc 6e86 37bc fc30 9fbc
000001e0: 20be bd3c 2ae4 d9bc 663d d63c 381a a03b
000001f0: 63d6 0fbd cbd7 023d 9851 bbbc e04d cd3c
00000200: 25e7 b8bc e6b7 c33c ce96 e2bc c8dc d8bb
00000210: 402b 71bc dcb1 0a3c b055 1e3c 20ea 76bb
00000220: b85e e7bb ae84 d0bc 3c1d be3c 9853 fbbc
00000230: 90f0 4abb 1409 97bb dcf2 2dbc e6a3 b53c
00000240: c56d 89bc 58b0 863c 3714 07bd 5876 a13c
00000250: 2083 4d3b 802c f8bb bc4a 00bd c5c4 e7bc
00000260: dce9 7bbc f1ba 063d 5225 cc3c 0e19 fe3c
00000270: ee6d fb3c 00d8 b33a 4c05 0bbd f64f e43c
00000280: ae71 20bc 463d fb3c 2977 053d f870 633c
00000290: 7073 8d3b f21e d43c e068 9bba 3806 da3b
000002a0: f85e 733c aa40 0fbd 7373 d0bc 92ab 903c
000002b0: e44e 613c a482 99bb 7022 c43b 65bc a0bc
000002c0: 4868 2a3c 00f8 27bb 802d 81bb 5c29 0ebc
000002d0: d755 053d 8e6b a03c 33a4 e0bc 6a53 d3bc
000002e0: 008e 9638 e55b 023d 3c17 eebc f05d 453c
000002f0: f305 93bc 9388 b0bc 00c1 4b3b f30c e4bc
00000300: 5c8b aebc 52c7 a43c 73dd 073d 326c 953c
00000310: 4a4d a63c 1c17 12bd 2ebf b8bc 9031 e23b
00000320: c096 b9bc a845 e43b ee15 76bc d355 cdbc
00000330: 8a41 903c 7062 413c 5578 08bd 786f 6ebc
00000340: e05d 65bb 2005 ea3a 00b9 a83c 7853 cd3c
00000350: 0a3b d1bc 70da 3c3b 72d0 c73c c961 043d
00000360: be1d 08bd 8052 60bc aec7 923c 9c42 223c
00000370: 7261 a03c 40ec cc3a 7c1c dfbc 1353 bfbc
00000380: 5ca5 be3c a409 ccbb ae27 c73c 7c5f a43c
00000390: f0d3 9ebb 08fc 123c 0a45 6fbc 9c74 e9bc
000003a0: 12ad 65bc bc21 ccbc 5c39 e7bb b3a4 9ebc
000003b0: 000c acbb 242e edbb dc6a 6c3c 4e57 c73c
000003c0: 5226 ea3c 94ad 7f3c 12ea fb3c 807b 8c3c
000003d0: 9486 2c3c dc33 c73c 00fa cd3c ee1e ebbc
000003e0: 196a 073d 6537 0c3d 3811 84bb 8a55 823c
000003f0: 58c7 d13c b588 03bd dc3d 4bbc 616b f3bc
