mnist_bp1/analysis/weights_dfa/W1_1840_2.npy (npy, 78628 bytes, 1 tensors)

array f4 [785, 25]
00000000: 7a85 273d fcfb c53c 7de6 8a3d 1f41 a93d
00000010: 08f6 45bc 0c19 b33c ff6c 973d a8e9 3d3c
00000020: f489 c4bc d48a ed3c 2c6e e73c 2222 4d3d
00000030: 4930 933d 8369 ac3d bb1a 9c3d e432 bfbd
00000040: 3062 9cbd c8fe 41bd a70b 9f3d 800b edba
00000050: 3b5a e33d 03b1 c83d 2c6e 8ebc 1edf 18bd
00000060: 5aec 323d 58da 5c3c f232 093d 302b 74bd
00000070: 8959 87bd e77c bc3d ca7f 3bbd aa34 90bd
00000080: 0af8 dbbd 8099 ddbb 8b96 af3d a05d bebc
00000090: 384b a1bd 262e 3fbd 185e a6bc d1bc c03d
000000a0: dc6c ca3c 04ae 5cbd 523d 93bd 2074 a0bc
000000b0: 7481 b83c fba8 c83d c6b2 1b3d a6ba e8bd
000000c0: 32b8 043d 85f5 d8bd 5d38 e3bd e2c9 cfbd
000000d0: 94cf 89bd 3cf9 efbd 0d87 b83d 108c bfbb
000000e0: b7b2 eb3d 6c19 eabd 184d 0fbc d983 cf3d
000000f0: 9223 473d 95fe b13d 537a e1bd 5cae d23c
00000100: e39f 9c3d 93da a1bd 3b3f 77bd cc8e c9bd
00000110: be8f 423d 9f2b de3d 125a 1e3d 1302 91bd
00000120: bed9 0abd 4636 703d 15b9 953d fea5 103d
00000130: 0269 7ebd 4416 a6bd 040a 2ebd 0639 193d
00000140: 685a a3bd ece7 c1bc 38cf c5bc b872 9cbc
00000150: dc00 b5bd 9bb7 f13d e805 2e3c d39a 893d
00000160: 8215 1cbd 7c3b bebc 2609 8dbd b025 0fbd
00000170: a023 fabb 1ce1 f23c c599 a9bd e809 3b3c
00000180: 3c2a c2bd f7e1 c13d 4c75 c6bd b0cb 72bc
00000190: a76f d73d 322f 403d 600c 7a3b 7a4c 6c3d
000001a0: 0b9a 973d 8d87 a43d 543f e63c 82e8 80bd
000001b0: df7a ca3d 409f c9ba aaa0 533d c62c 1d3d
000001c0: 4588 cb3d 38e2 663c a9e6 c83d 2755 b93d
000001d0: 2d7b 8a3d 34f8 d5bd 5820 c4bd 5b44 d33d
000001e0: a136 bdbd 6248 86bd 9397 e1bd ef70 a8bd
000001f0: c2dd 493d f2dc 053d 56d6 443d b016 57bd
00000200: 74fa f3bd bf24 da3d 426b 543d c8bf 41bd
00000210: 648c b43c 8ad7 2cbd bf5d a13d 7066 88bc
00000220: 811f 8b3d 31d0 c23d 206f 73bc eba5 853d
00000230: 7a10 9ebd 537d d83d 3820 8dbc 158a f23d
00000240: 3b77 d23d 9aa2 1fbd ad9b ef3d af2e 88bd
00000250: cfb5 d73d 05af ba3d f07f 97bc 184e 713c
00000260: 43a3 9f3d 867c 373d bebf 063d 2815 9ebd
00000270: e3b2 bd3d 74ce f23c 9dba debd ddb1 cebd
00000280: 38d5 533c 0041 c039 d8a0 1b3c 4eb3 773d
00000290: e9ea cbbd de0a c2bd 2226 483d fef6 2b3d
000002a0: e3e8 de3d c53d 87bd 175e ddbd 17a7 9a3d
000002b0: 9947 c63d 307b a93b 00db 313a 30a0 2bbc
000002c0: 8077 b3bc fdba e43d bd63 f43d ad1b 903d
000002d0: d4e1 02bd f809 63bd 8c45 e83c 3083 45bc
000002e0: 34ca e83c 38a5 523c 585b dfbc 6d66 cd3d
000002f0: c61b 583d 188e 5ebc 12e8 5c3d 3733 a03d
00000300: f088 dabb 9e56 89bd 71e1 a93d 28c0 9ebc
00000310: f0ad e6bb 808b bdbd d4ab 873c 6aba c5bd
00000320: 52e4 56bd 8664 ddbd 9497 91bc 04ac ff3c
00000330: 224a 093d 0811 3dbc 5070 70bc fb4f c33d
00000340: 7bef eb3d eb40 de3d 324c b6bd 6648 69bd
00000350: 586d 51bc 81be 97bd b30d d33d 6ec0 7bbd
00000360: a222 2dbd 03f9 863d 9f18 943d 09a6 e83d
00000370: 9c98 f23c 1914 953d 0295 463d 8a0b 0bbd
00000380: 8cef 76bd 8046 88ba 4c2d 40bd c0a5 bc3a
00000390: 7f0d 803d bd46 db3d 4f4f ca3d c8ce 453c
000003a0: b51b 913d 85b3 f3bd 2bf1 bdbd 587d fcbc
000003b0: 92bc 88bd be7a dbbd 9449 e2bd 546d a4bd
000003c0: 05d6 963d 348f f93c f8f4 663c cf93 843d
000003d0: ea32 793d 9bfe cf3d 0cae 44bd 7fd5 e43d
000003e0: 1330 9c3d b2fb 593d a990 903d 99af e63d
000003f0: d804 213c 899f d23d ecf0 be3c e838 cebd
0.040898778 0.024168007 0.067822434 0.08264374 -0.012082584 0.02186253 0.07393836 0.0115913525
-0.023991562 0.028996862 0.028250776 0.05008138 0.07186944 0.08418562 0.07622286 -0.093358785
-0.07635915 -0.04736212 0.077658944 -0.0018085092 0.111011945 0.09799387 -0.017386518 -0.037322156
0.043682434 0.013479792 0.03349585 -0.0596115 -0.06608874 0.09203511 -0.045776166 -0.07041295
-0.10740669 -0.0067626834 0.08573636 -0.023238003 -0.07875675 -0.04667487 -0.02030854 0.09411014
0.024710111 -0.05387689 -0.0718943 -0.019586623 0.022522666 0.097978555 0.03801229 -0.11363725
0.032402225 -0.10593704 -0.11094735 -0.10145928 -0.067290455 -0.117174596 0.09010134 -0.005845554
0.115086965 -0.1143063 -0.008746408 0.1013257 0.048617907 0.08691136 -0.110096596 0.025717907
0.076476835 -0.07903018 -0.060363036 -0.098416895 0.047500364 0.10848164 0.038660116 -0.07080474
-0.03389906 0.05864551 0.07310692 0.035314552 -0.062111862 -0.081097156 -0.04249002 0.037407897
-0.07976228 -0.02367016 -0.024146661 -0.01909767 -0.088380545 0.11802598 0.010621525 0.067189835
-0.03810645 -0.023221724 -0.068865106 -0.03494805 -0.0076336414 0.029648356 -0.08281282 0.011415936
-0.09480712 0.094669275 -0.09690341 -0.014819071 0.10519343 0.04692001 0.0038154349 0.05769012
0.07402428 0.08033667 0.02810637 -0.06294347 0.09886717 -0.0015382543 0.051666893 0.038372777
0.09938101 0.014092021 0.0980962 0.09049445 0.06761775 -0.104477316 -0.095764816 0.10315772
-0.09238935 -0.06556775 -0.110152386 -0.082246654 0.04928375 0.032681413 0.04805597 -0.05251187
-0.119130045 0.1065154 0.0518601 -0.047302037 0.0220396 -0.04219774 0.07879209 -0.016650409
0.06793118 0.095123656 -0.014858037 0.06525787 -0.077179864 0.10570779 -0.017227277 0.11842743
0.10276648 -0.03897343 0.11699615 -0.06649529 0.10532724 0.091154136 -0.018493623 0.014728092
0.077948116 0.04479649 0.032897703 -0.07718879 0.092626356 0.02963946 -0.108754374 -0.100925185
0.012929253 0.00036669523 0.009498797 0.060473733 -0.09956915 -0.09474729 0.04886449 0.041983597
0.10884263 -0.066035785 -0.10808962 0.07551401 0.09681625 0.005172156 0.00067846477 -0.010475203
-0.021907568 0.11168478 0.11933086 0.07036529 -0.031953648 -0.05542943 0.028353475 -0.012055203
0.02841673 0.012856774 -0.027265236 0.10029302 0.05276086 -0.0135836825 0.053932257 0.078222685
-0.0066691563 -0.06705974 0.08294953 -0.019378737 -0.007039778 -0.09255123 0.016561426 -0.09654696
-0.052463837 -0.10810189 -0.017772473 0.031209953 0.033517964 -0.011539705 -0.014675215 0.095367394
0.11520287 0.10852226 -0.08901252 -0.05695381 -0.012782417 -0.074093826 0.10305347 -0.061462812
-0.042269357 0.06590464 0.072312586 0.11359794 0.029613785 0.07279224 0.04848195 -0.03394655
-0.060287043 -0.0010396987 -0.0469182 0.0014392659 0.06252574 0.10706852 0.09878408 0.012073226
0.07085363 -0.11899475 -0.09274515 -0.030821487 -0.06676592 -0.107167706 -0.1104919 -0.08028665
0.0736504 0.030463792 0.014096491 0.06473505 0.06083957 0.10155984 -0.048017547 0.11173534
0.07626357 0.05321855 0.07058842 0.11263961 0.009827815 0.10284335 0.02330824 -0.10069448
