mnist_bp1/analysis/weights_dfa/W1_2396_2.npy (npy, 78628 bytes, 1 tensors)

array f4 [785, 25]
00000000: 4cd7 c4bd 9ae0 623d f77f bdbd 0cb8 e4bd
00000010: 45cf c9bd 3bbb 9d3d 0017 2b3a b7a6 c4bd
00000020: 903d f0bc 7ec2 793d b4c5 e83c c7f9 aa3d
00000030: 86d2 243d 5ee0 f3bd e194 b23d 765f 90bd
00000040: 287c babd 97e2 dc3d b9a5 cf3d 19c5 f3bd
00000050: 0818 9fbd d312 963d a33f 8f3d c064 b6bb
00000060: 37d9 a83d 7493 ef3c cc5f bcbc ce3e b7bd
00000070: 5023 9bbc e0d6 773b f422 9dbd 201e 49bc
00000080: a5cb ebbd 884b 69bc fef1 023d 219e f3bd
00000090: 6a81 503d fa1f 0b3d 62b0 99bd 4815 7b3c
000000a0: 9529 be3d acd7 883c 98e0 353c 5745 e13d
000000b0: 6c23 98bd 43b3 983d aee7 7abd ea2a 303d
000000c0: de0d c5bd 8f70 963d d618 c8bd 58d1 d0bd
000000d0: 13de 87bd 284f 97bc 80eb 91bb db30 d8bd
000000e0: 040e e0bc a103 bdbd 1c17 00bd d7fb d0bd
000000f0: 0dd7 da3d 6a9d 3d3d 5086 80bb 281f 20bc
00000100: 58ee 24bc f2e8 13bd 3e58 003d d06b cc3b
00000110: 112d bf3d 1fff ee3d 962b 473d 648f 9e3c
00000120: 7766 c33d ec7c 34bd b4cb f03c f8ca 72bc
00000130: 467a 89bd 77e8 e03d 516e a03d fa05 4bbd
00000140: 2ce8 0abd 2adf 283d 7e95 783d c145 c13d
00000150: 0867 53bc a006 8fbb 5914 bcbd 83ac b13d
00000160: 83a6 ce3d 4097 193b cc4c a2bc 6f7d 85bd
00000170: 9967 d33d 1402 69bd 7829 503c c0a2 19bd
00000180: b257 2b3d 3b54 953d 0441 e6bc 4629 083d
00000190: 3f6e e93d c68d 643d 589d 1bbc 2fff e53d
000001a0: 5f5b 953d b444 dfbd 0f16 b93d d621 653d
000001b0: 83f0 9d3d a07b 58bd ea16 adbd b3dc af3d
000001c0: 96cc 9fbd 67e2 df3d 2a59 4b3d 47e7 cd3d
000001d0: adb8 d53d ad1c f53d 30bd 943b ab1d d53d
000001e0: 7c10 f53c 75f3 b83d 003c 813b 38c5 01bd
000001f0: 1ef0 13bd 3523 943d f876 5f3c b887 31bc
00000200: 6a7a 1d3d cb1e 953d 4833 03bd 571a cfbd
00000210: d566 f53d 45f7 efbd f9a1 f1bd 7025 f3bd
00000220: be52 16bd d01f a73b d7ed 79bd 2085 bcbb
00000230: a091 bcbb b4f9 a1bc 004c febb 48d5 093c
00000240: 014a 95bd 2c8f ab3c 82dd 32bd 1a5c 6f3d
00000250: 7474 cf3c 2270 b6bd 3837 c4bd 9f5a ac3d
00000260: bc29 833c 340b e1bd 6c30 d0bd 74b2 8abd
00000270: ae15 1d3d e608 62bd 1548 d43d ac58 d23c
00000280: daba 93bd 309f bb3b ee51 763d de33 4cbd
00000290: d3f4 92bd 3a4b abbd 2f03 a6bd 2c1c 82bd
000002a0: 9bce 963d 4e46 543d e561 e83d 2912 e73d
000002b0: 5807 86bd 1b75 df3d aac2 5f3d b215 003d
000002c0: 54a7 8d3c 7ca9 c0bd e4a8 843c d40d f83c
000002d0: b774 de3d 50d2 84bd db32 823d 1e89 20bd
000002e0: 2a12 4a3d 3121 ce3d fa40 8fbd 75db d93d
000002f0: d7ae de3d c985 8a3d aaa1 92bd 56ba 48bd
00000300: 8a96 46bd 88b3 3c3c 2a8a d8bd bfa0 cd3d
00000310: c7a9 c53d 0080 e8b9 113e d43d c08b 06bd
00000320: 748c 9c3c 22f0 9cbd 24d1 f23c 4b42 a03d
00000330: 3e7f 80bd 1891 7f3c 070f 70bd f66c 4c3d
00000340: d021 b63b b289 b6bd 187b 233c 7451 c7bd
00000350: a028 eebb 0cb2 25bd cc7c f3bd 9698 733d
00000360: ae0a 7cbd ba6a 2d3d 92d9 f2bd 3e2e 2f3d
00000370: 9d5c 823d 85c7 f1bd 9650 283d 882b 6ebc
00000380: 55f7 f3bd d39f 8abd b0b3 42bc c03d fd3a
00000390: 7740 ce3d fc2e 9f3c 0088 bfbd ed98 c93d
000003a0: ac4a 80bc f863 4cbc 7c39 a3bd 264f ddbd
000003b0: a41e e9bd 971d b6bd e835 2abc 7e19 293d
000003c0: a0af 313b f22a 26bd 419b 883d 8e7e 5a3d
000003d0: b083 3ebd 5234 3d3d 5783 e43d 0667 0d3d
000003e0: 82a5 bdbd e9ed e6bd fa81 453d 2e50 473d
000003f0: 091b b53d 503f b8bc 17e1 8a3d 977a 9b3d
-0.09611377 0.055389978 -0.09252923 -0.11167917 -0.09853987 0.07701727 0.00065265596 -0.09602111
-0.02932623 0.060976498 0.028414585 0.083484225 0.040239833 -0.11908029 0.08719803 -0.07049458
-0.09105712 0.10785406 0.10139031 -0.11902828 -0.077682555 0.07327809 0.069945596 -0.0055662096
0.082445554 0.029245116 -0.022994898 -0.08947526 -0.018937737 0.0037817284 -0.076726824 -0.012275249
-0.115134515 -0.014239199 0.031969063 -0.11895395 0.05090467 0.033966042 -0.075043455 0.015324898
0.09285275 0.016704403 0.011100911 0.10999554 -0.07428631 0.074560665 -0.061256103 0.043009676
-0.096217856 0.073456876 -0.09770362 -0.10196179 -0.06634154 -0.018470362 -0.0044531226 -0.105561934
-0.027350433 -0.09229208 -0.03127204 -0.10204285 0.10685549 0.0462927 -0.0039222613 -0.009773053
-0.010066591 -0.036110826 0.031334154 0.006238438 0.093347676 0.11669754 0.04862555 0.019355483
0.09541028 -0.044064447 0.029394008 -0.014818899 -0.06712775 0.10981839 0.07833541 -0.049566247
-0.033912823 0.04122845 0.06068944 0.094371326 -0.0129029825 -0.0043648034 -0.091835685 0.08675482
0.10090353 0.00234361 -0.01981201 -0.06518065 0.10322494 -0.056886747 0.012705199 -0.037508726
0.04183168 0.07291456 -0.028107174 0.033242486 0.11397981 0.05579927 -0.009497963 0.11230313
0.07292818 -0.10901776 0.090374105 0.05594047 0.077118896 -0.052852273 -0.08451636 0.08587017
-0.078026935 0.10931855 0.04964558 0.10053878 0.10435615 0.1196836 0.0045391545 0.10406049
0.029915087 0.09030811 0.00394392 -0.031682223 -0.036117665 0.07233278 0.013639204 -0.0108355805
0.03844682 0.07281264 -0.032031327 -0.10112446 0.11982504 -0.11717085 -0.11798472 -0.11872375
-0.036700003 0.005100228 -0.061017837 -0.0057531744 -0.0057546645 -0.019772388 -0.0077605247 0.008412667
-0.07289506 0.020942293 -0.043668278 0.058437444 0.025324084 -0.089081064 -0.09580845 0.08415722
0.016011111 -0.10988465 -0.10165486 -0.067723185 0.038350753 -0.055184267 0.10365311 0.025677048
-0.072133735 0.0057257637 0.060136728 -0.049854152 -0.07175603 -0.08363958 -0.08106076 -0.063530296
0.073636256 0.05182486 0.11346797 0.11282761 -0.065443695 0.10911008 0.054629005 0.03127069
0.017291702 -0.094073266 0.016193815 0.030280031 0.10862105 -0.064854264 0.06357356 -0.039193265
0.04933373 0.100649245 -0.06994815 0.10637561 0.10873192 0.06763799 -0.07159741 -0.04900583
-0.04848341 0.011517413 -0.10573228 0.100404255 0.09651523 -0.00044345856 0.10363401 -0.03284812
0.019109942 -0.07662989 0.029640742 0.078251444 -0.062742695 0.015598558 -0.05860808 0.0499086
0.00555823 -0.08912982 0.009978078 -0.09732333 -0.0072680265 -0.040453 -0.118890375 0.05947169
-0.061533622 0.04233811 -0.118579045 0.04276871 0.06365321 -0.118056335 0.041092478 -0.014536746
-0.11912409 -0.06768765 -0.011883661 0.0019320771 0.100708894 0.019431584 -0.09352112 0.098436214
-0.015660606 -0.012475006 -0.07969949 -0.10806112 -0.11382797 -0.088923626 -0.010388829 0.041284077
0.0027112737 -0.0405683 0.06670237 0.05334335 -0.046512306 0.046192475 0.111578636 0.03452208
-0.09260084 -0.112758465 0.04821966 0.04866045 0.08843047 -0.022491127 0.06781214 0.075917415
