mnist_bp1/analysis/weights_dfa/W1_2264_2.npy (npy, 78628 bytes, 1 tensors)

array f4 [785, 25]
0	0x3d97f019	0.07418842
1	0xbc16b4b8	-0.00919836
2	0x3d05f3da	0.032703258
3	0x3c0913d8	0.0083665475
4	0x3d8f0527	0.069834046
5	0xbd55c0ee	-0.052185945
6	0xbd12b2b0	-0.03581494
7	0x3c074b78	0.008257739
8	0x3dab4d5f	0.08364367
9	0xbde965eb	-0.113963924
10	0xbde4f59c	-0.11179659
11	0x3da2e0ff	0.07953071
12	0xbdcc3a4a	-0.09972055
13	0x3de860c5	0.11346582
14	0xbd42d39a	-0.04756508
15	0xbdf3a112	-0.11895956
16	0x3ca46364	0.020066924
17	0xbc94f390	-0.018182546
18	0x3d8b6a5b	0.06807395
19	0x3c6420f8	0.013923876
20	0xbc44de90	-0.012015954
21	0x3d17f6e2	0.03710068
22	0xbd61388c	-0.054985568
23	0xbd488bfe	-0.048961632
24	0x3daa1295	0.083043255
25	0x3d751f6a	0.059844412
26	0xbd757530	-0.05992621
27	0xbdcdf3b9	-0.10056252
28	0xbdb080c5	-0.08618311
29	0x3da021a3	0.07818916
30	0x3ddfc60d	0.10926447
31	0x3dc88f93	0.097930096
32	0x3cd2e044	0.025741704
33	0xbdd96b50	-0.10616171
34	0x3db9c4ed	0.09070764
35	0x3aada980	0.0013249367
36	0xbd89198a	-0.06694324
37	0xbab22f40	-0.0013594404
38	0xbdc44d2a	-0.095850304
39	0x3dac80f5	0.08423034
40	0x3dd020f5	0.10162536
41	0x3c219858	0.009862982
42	0x3d4e4e32	0.05036754
43	0x3dcc00c3	0.09961083
44	0xbd8a20ac	-0.06744513
45	0xbd08a9ba	-0.03336499
46	0xbba951f0	-0.0051672384
47	0xbd2d6c02	-0.042339332
48	0x3dbbbc63	0.09166791
49	0xbd697afa	-0.057002045
50	0xbdb5c674	-0.088757426
51	0x3df5addb	0.11996051
52	0x3dd87a69	0.10570223
53	0xbd8ab2c5	-0.06772379
54	0xbcef7150	-0.029228836
55	0xbdb0c528	-0.086313546
56	0xbd1dffe4	-0.038574114
57	0x3c9f8374	0.019471861
58	0xbc8632ac	-0.016381584
59	0x3dac6d4b	0.084192835
60	0x3d874af5	0.06606094
61	0xbd277a90	-0.04088837
62	0xbd951ae8	-0.072805226
63	0xbd969e90	-0.07354462
64	0x3db97c99	0.09056968
65	0xb8cacc00	-9.6701086e-05
66	0x3dc5eb95	0.09664074
67	0xbc9282d8	-0.017884657
68	0xbb86d450	-0.004114665
69	0x3d9feaf5	0.07808486
70	0xbbc03df0	-0.0058667585
71	0x3dec5e6f	0.11541449
72	0x3ca96bac	0.020681225
73	0xbc89b138	-0.016808137
74	0x3d83e859	0.06440801
75	0xbdac61e1	-0.084171064
76	0xbde8c98b	-0.11366566
77	0x3db2591b	0.08708402
78	0x3daa11cd	0.083041765
79	0xbbcce910	-0.006253369
80	0x3d850e7b	0.064969026
81	0x3deba65f	0.11506342
82	0x3dd63f3f	0.10461282
83	0xbd96dde8	-0.07366544
84	0xbc7cb908	-0.015424974
85	0xbdef71f3	-0.11691656
86	0xbbacd8d0	-0.0052748695
87	0x3dc6cf45	0.09707502
88	0xbd01db44	-0.03170325
89	0x3d5c0a0a	0.05372051
90	0xbd636d10	-0.055523932
91	0xbd60bca6	-0.05486741
92	0xbd6cf021	-0.057846192
93	0xbcc01370	-0.023446769
94	0x3ad10280	0.001594618
95	0xbde2dd8a	-0.110774115
96	0x3d4357aa	0.047691025
97	0x3d906575	0.070506014
98	0x3d6f6762	0.058448203
99	0x3c4c9778	0.012487285
100	0xbd8305f3	-0.06397619
101	0xbdc1bc36	-0.094597265
102	0xbc1059c0	-0.008810461
103	0x3d58c286	0.052919887
104	0x3dcd26b5	0.100171484
105	0x3dde87c7	0.10865741
106	0xbdca00bd	-0.09863422
107	0x3d2cf4aa	0.042225517
108	0x3da657b5	0.081221975
109	0xbda3248c	-0.07965955
110	0xbd9a9bb4	-0.07549229
111	0xbdd012aa	-0.1015981
112	0xbc3b7850	-0.011442259
113	0xbd20b7dc	-0.039237842
114	0xbd2a63c2	-0.041599043
115	0x3def7bb3	0.11693516
116	0x3da85129	0.08218605
117	0x3d1a4f7e	0.037673466
118	0x3db32e77	0.08749097
119	0xbdbef568	-0.09324151
120	0x3de8b62d	0.11362872
121	0x3dd775af	0.10520493
122	0x3de96335	0.11395875
123	0xbd322d4a	-0.043500222
124	0x3d5f0072	0.054443784
125	0xbdb6e868	-0.08931047
126	0x3d349752	0.044089623
127	0x3df1a3af	0.11798798
128	0xbb7491c0	-0.003731832
129	0x3c43cc98	0.011950634
130	0x3db894af	0.09012734
131	0xbcf6dd94	-0.030134954
132	0xbda07acf	-0.07835924
133	0x3c059a28	0.0081544295
134	0xbdf0e492	-0.11762346
135	0x3ca1bb7c	0.01974272
136	0x3dbbdab5	0.091725744
137	0xbd546532	-0.05185432
138	0x3d3a0dbe	0.04542326
139	0x3c8f4b1c	0.01749187
140	0x3db14333	0.08655395
141	0x3d19e5ae	0.037572555
142	0x3decf6c9	0.11570508
143	0x3d8f3e79	0.069943376
144	0xbde2aa58	-0.11067647
145	0x3d8b4ecd	0.068021394
146	0x3d90bd5b	0.07067367
147	0x3de9ca3d	0.11415527
148	0x3dbf9f7d	0.09356592
149	0x3dbaa16d	0.09112821
150	0x3dc23731	0.09483183
151	0x3d985e39	0.074398465
152	0x3cbac0d4	0.022797026
153	0xbd8687a4	-0.0656884
154	0x3d88bcb5	0.06676618
155	0x3dea9e29	0.11455948
156	0xbaaa7a80	-0.0013006479
157	0xbd931ea8	-0.071835816
158	0xbdb072b3	-0.08615627
159	0xbc5851b8	-0.013203077
160	0x3cb4d954	0.022076286
161	0xbdb3d75a	-0.087813094
162	0xbd776f70	-0.06040901
163	0x3c6c95a8	0.014439978
164	0xbd6d4226	-0.057924412
165	0x3de82263	0.11334684
166	0xbdaae0d0	-0.08343661
167	0x3c389e38	0.011268191
168	0x3d6c3262	0.057665236
169	0x3cd1ff94	0.025634564
170	0x3dbcce05	0.092189826
171	0x3dd56b25	0.10420827
172	0x3d37aa9a	0.044840433
173	0x3daec2e9	0.0853327
174	0xbd32a744	-0.04361655
175	0xbd4a3be6	-0.04937353
176	0x3d961901	0.07328988
177	0xbc4f87f8	-0.012666695
178	0xbca30820	-0.019901335
179	0x3b31fa80	0.0027157366
180	0x3d172e96	0.036909662
181	0xbd0bff9e	-0.034179322
182	0xbd88b26a	-0.06674655
183	0xbca3a7a8	-0.019977406
184	0xbc2f6bf8	-0.010706894
185	0xbdbe89f2	-0.09303655
186	0xbc300df8	-0.010745518
187	0xbd8dfeec	-0.06933388
188	0xbd676520	-0.056492925
189	0x3cfca9dc	0.030842714
190	0x3cf07e6c	0.029357158
191	0xbdee7c06	-0.11644749
192	0xbd7436a6	-0.05962243
193	0x3b6acde0	0.0035828277
194	0xbc9f0528	-0.019411638
195	0xbce287cc	-0.027652644
196	0xbdb35b0f	-0.087576024
197	0xbb58ce60	-0.0033081993
198	0x3d686f0e	0.056746535
199	0x3da5a56b	0.080881916
200	0x3c8d668c	0.017260812
201	0xbd7041ab	-0.058656376
202	0xbc4310d0	-0.011905864
203	0xbdc981c4	-0.09839204
204	0xbd6e489e	-0.058174722
205	0xbdbd0234	-0.09228936
206	0xbd1be31c	-0.038058385
207	0x3da3d8b1	0.08000315
208	0x3cd55dc4	0.026045687
209	0x3d693996	0.056939684
210	0xbd617150	-0.055039704
211	0xbd1b5ba8	-0.037929207
212	0xbd5a2090	-0.05325371
213	0x3d5143ba	0.05108998
214	0x3c9ae49c	0.018907838
215	0x3d567c1a	0.052364446
216	0x3d9171a5	0.07101754
217	0xbde151bc	-0.11001918
218	0x3dc40829	0.09571869
219	0xbc98120c	-0.018563293
220	0x3d957945	0.07298521
221	0x3dc109a9	0.09425671
222	0x3d687fea	0.056762613
223	0xbc265c78	-0.010153882
224	0xbdec2115	-0.115297474
225	0x3d52cf56	0.051467262
226	0xbd9fc8b7	-0.07801955
227	0xbd46c1dc	-0.048524722
228	0xbdd7f012	-0.10543837
229	0x3d9d37f5	0.076766886
230	0x3ddad4ad	0.10685096
231	0x3db87851	0.090073235
232	0xbc427fd8	-0.011871301
233	0x3d2d3dfe	0.04229545
234	0x3d76c05a	0.060242034
235	0xbdda53eb	-0.10660537
236	0x3d5c7c9a	0.053829767
237	0x3cba65e4	0.022753663
238	0x3dc7fd11	0.097650655
239	0x3db76c63	0.0895622
240	0xbd609b60	-0.054835677
241	0xbc74e078	-0.014946096
242	0x3cb8f71c	0.022578768
243	0xbdca77cb	-0.0988613
244	0xbd8bb8f4	-0.068223864
245	0xbdb53d34	-0.08849564
246	0x3db8650f	0.090036504
247	0xbdae65af	-0.08515488
248	0xbdb96cab	-0.0905393
249	0x3d3a28a6	0.04544892
250	0x3d949319	0.07254619
251	0xbdc57cac	-0.0964292
252	0x3da5c917	0.080949955
253	0xbda34c5e	-0.0797355
254	0xbdd3a8b6	-0.103349134
255	0xbdf19980	-0.11796856
