NN/analysis/result/dfa1/W2_89_1.npy (npy, 4168 bytes, 1 tensors)

array f4 [101, 10]
1.6585218 -1.1040136 -2.753671 -1.3691542 1.8514396 1.1939615 2.662003 -0.29493126
1.4131533 1.7501316 -0.1250723 0.11961565 -0.30425736 0.004187677 0.22286339 -0.0141728865
-0.35362872 0.39087504 0.3277157 0.22779883 -1.5916945 0.64536476 0.26860848 0.07801317
1.8263146 0.56804776 0.5405376 1.0268406 -0.29324228 -0.8753842 -0.357382 0.71733373
-0.5472317 -0.07689149 1.6940169 0.2562693 -0.6671478 0.070901304 -0.21572024 -0.9226266
0.1293626 -0.74742186 -0.15902159 0.1451295 0.12924963 -0.19925997 -0.8214428 -0.07517165
0.5233064 -0.8459761 1.3389059 -2.0651824 -1.4071077 -3.1421354 4.09906 -2.148542
1.3810278 2.5030704 -0.74074334 1.6516627 -1.9275737 1.3957955 -1.4463907 -0.16052814
1.6019584 0.46390796 -2.0291014 0.6329021 0.5900408 -0.30000916 0.5175442 0.58153737
0.54208046 2.0450194 -0.30146912 0.41108772 0.3099227 0.82307446 0.78334814 1.1382017
-0.34379345 -0.6341776 -0.49633688 -1.9287627 0.14818762 -0.39331698 -0.80426645 -0.75067794
-0.70910615 -1.1581734 -0.012353289 0.7788076 -0.21319212 -0.2645573 -0.66775346 0.061926443
0.89739877 -0.50071865 -0.20461985 0.12603213 1.4864345 0.16433413 -0.8647698 1.7416209
0.05729612 -0.6050534 -1.1646049 0.8705863 -0.83021146 1.043305 0.6983654 -0.14029594
0.7635977 -0.16054328 -0.70131415 -0.2668746 -0.021147804 -0.24745037 0.5116455 -0.018327633
0.068703 -0.41951588 -0.035359576 0.017244153 -0.046912856 -0.44389403 0.114659585 -0.06795669
-0.4246515 -1.023406 -0.070894524 0.06936678 -0.026840303 -0.2827862 -0.24015106 0.08114873
0.16411993 0.17666875 -0.030486792 -0.29384834 1.463688 0.5816319 -0.45217606 1.1732999
-1.4681957 0.4548743 -0.45604357 -0.19744787 1.1874095 0.75659335 0.08902902 0.12070317
0.36031923 0.020639218 0.8452758 -0.14711589 -0.038877264 -0.3907624 0.09830441 -1.1177814
2.1214058 1.3418831 0.09487565 -0.024366831 1.0609434 -0.64055526 -0.8733998 -0.43659085
-0.01967712 -1.2064832 1.1976588 -0.32055545 -0.28510138 0.6760269 -0.62537956 0.42264464
0.39949116 -0.8224014 -0.8043785 -0.53699595 0.26784575 1.4410995 -0.5547361 -0.33431965
0.46551645 0.58490413 -0.08940977 0.059045408 -0.4574049 0.31831753 -0.8596111 0.93205833
0.6061669 0.6917877 -0.9183563 -0.871119 -1.257314 0.59333175 -0.45493284 0.56225693
0.29644626 -0.079483174 -0.43101755 0.46031883 0.34551853 -0.42833096 -0.6313137 -0.554942
-0.18689914 0.52301115 -0.17885856 -0.13423938 0.1948679 -0.019410398 -0.57296073 0.11969456
0.32504362 0.15981404 0.3093707 0.17927107 -0.67490417 -0.035538245 -0.792158 0.7017491
-0.33184618 0.6469291 1.0524753 -0.23602913 -1.4106901 0.106843576 -0.22746308 -1.3490505
0.89276594 0.9743625 1.2122074 -0.3866801 -0.2360235 -1.0282556 0.7075354 -0.19763651
-0.005834174 0.021441655 0.4178699 0.37920746 -0.5096911 -0.43142068 0.3283748 -0.53716993
-0.61046237 0.52564037 -0.08107188 -0.36982605 -0.49818605 -0.24003807 -0.3292104 -0.25888792
00000000: 714a d43f 5150 8dbf 253c 30c0 7240 afbf
00000010: f9fb ec3f bbd3 983f 425e 2a40 3b01 97be
00000020: 35e2 b43f 5004 e03f f412 00be 0df9 f43d
00000030: 9fc7 9bbe c838 893b 4d36 643e 6535 68bc
00000040: d30e b5be c620 c83e 5aca a73e 1944 693e
00000050: a5bc cbbf a036 253f 0d87 893e 5ec5 9f3d
00000060: adc4 e93f 946b 113f ac60 0a3f 836f 833f
00000070: da23 96be 2e19 60bf c6fa b6be 2fa3 373f
00000080: 6017 0cbf 4979 9dbd 8cd5 d83f bb35 833e
00000090: 33ca 2abf b434 913d c4e5 5cbe 4231 6cbf
000000a0: a177 043e 0a57 3fbf 8ed6 22be d49c 143e
000000b0: 045a 043e ce0a 4cbe 134a 52bf 98f3 99bd
000000c0: 69f7 053f e491 58bf 4561 ab3f f32b 04c0
000000d0: 1b1c b4bf bf18 49c0 802b 8340 b681 09c0
000000e0: 85c5 b03f 4e32 2040 5ba1 3dbf af69 d33f
000000f0: bcba f6bf 6da9 b23f 5523 b9bf 7d61 24be
00000100: f90c cd3f 5885 ed3e ccdc 01c0 df05 223f
00000110: ea0c 173f cd9a 99be c77d 043f a2df 143f
00000120: c9c5 0a3f 99e1 0240 295a 9abe 177a d23e
00000130: 30ae 9e3e 02b5 523f 8189 483f 98b0 913f
00000140: b205 b0be 7759 22bf de1f febe b2e1 f6bf
00000150: 7fbe 173e d860 c9be 68e4 4dbf 6e2c 40bf
00000160: fb87 35bf 073f 94bf 7365 4abc ef5f 473f
00000170: 094f 5abe 0e74 87be e4f1 2abf 95a6 7d3d
00000180: edbb 653f 192f 00bf de87 51be 910e 013e
00000190: 7c43 be3f 3547 283e 8e61 5dbf 6fed de3f
000001a0: 56af 6a3d c8e4 1abf c611 95bf bede 5e3f
000001b0: bd88 54bf 058b 853f 13c8 323f bda9 0fbe
000001c0: 247b 433f 7565 24be 5389 33bf caa3 88be
000001d0: 293e adbc a163 7dbe 33fb 023f d523 96bc
000001e0: 29b4 8c3d c9ca d6be 34d5 10bd 9c43 8d3c
000001f0: b227 40bd 1446 e3be a5d2 ea3d e12c 8bbd
00000200: ec6b d9be f8fe 82bf 2631 91bd 2c10 8e3d
00000210: 32e0 dbbc 5ac9 90be 29ea 75be 4e31 a63d
00000220: 0e0f 283e a7e8 343e 70bf f9bc 4a73 96be
00000230: 215a bb3f d4e5 143f 9f83 e7be b12e 963f
00000240: d6ed bbbf 49e5 e83e 8b7e e9be c62f 4abe
00000250: 09fd 973f 1ab0 413f d954 b63d 3933 f73d
00000260: c37b b83e 9413 a93c ff63 583f 8ca5 16be
00000270: c43d 1fbd 0212 c8be d353 c93d 7613 8fbf
00000280: 1dc5 0740 d3c2 ab3f 2a4e c23d f39c c7bc
00000290: fecc 873f 6efb 23bf 2197 5fbf d688 dfbe
000002a0: e931 a1bc 0b6e 9abf e24c 993f d81f a4be
000002b0: cff8 91be 1910 2d3f e018 20bf e164 d83e
000002c0: 1b8a cc3e e688 52bf c0eb 4dbf 9178 09bf
000002d0: 1423 893e f375 b83f 2f03 0ebf f22b abbe
000002e0: 2c58 ee3e 47bc 153f 781c b7bd 99d9 713d
000002f0: fa30 eabe 84fa a23e 790f 5cbf 609b 6e3f
00000300: c12d 1b3f 0019 313f 6619 6bbf a801 5fbf
00000310: aaef a0bf 97e4 173f f5ec e8be 12f0 0f3f
00000320: cec7 973e 13c8 a2bd 55ae dcbe e9ae eb3e
00000330: cee7 b03e 324e dbbe c69d 21bf ae10 0ebf
00000340: 7d62 3fbe 0fe4 053f b326 37be 0c76 09be
00000350: 738b 473e 8e02 9fbc 8ead 12bf 6c22 f53d
00000360: 1e6c a63e 4ba6 233e d665 9e3e d692 373e
00000370: 85c6 2cbf 8d90 11bd deca 4abf d4a5 333f
00000380: bee7 a9be 259d 253f 83b7 863f 9fb1 71be
00000390: 7e91 b4bf ced0 da3d 15ec 68be b0ad acbf
000003a0: 4f8c 643f d26f 793f 9d29 9b3f effa c5be
000003b0: 25b0 71be e19d 83bf 0a21 353f 3a61 4abe
000003c0: 992c bfbb 69a6 af3c 0bf3 d53e 7b27 c23e
000003d0: 1e7b 02bf 2ce3 dcbe be20 a83e f883 09bf
000003e0: 4347 1cbf 5e90 063f 0409 a6bd d759 bdbe
000003f0: 3e12 ffbe 8acc 75be 448e a8be f58c 84be
