mnist_bp1/analysis/W2_325_3.npy (npy, 1168 bytes, 1 tensors)

array f4 [26, 10]
-8.7418585 3.1752584 6.2962365 -11.573588 -2.551943 0.34037158 5.503364 3.7259834
-5.595104 -3.2671664 2.9527152 -4.9329257 1.9101851 2.4549878 -0.8567671 -0.5209243
-5.8239107 6.256243 -2.1658967 -9.6423 -2.7025719 -3.9944007 5.2232156 7.059448
0.0528411 -12.059551 -1.3129522 -10.600165 -2.0828812 -0.28563362 3.6856868 1.5256094
-2.7090132 0.76329166 5.837314 -10.358147 2.0089707 -7.7386737 -2.1276805 -8.370738
-2.4252808 11.669344 -5.536233 -6.423536 -2.7819643 3.4208896 -3.197258 -4.4152513
-9.9438095 4.2541456 -7.175563 -3.4249659 -1.611103 8.429558 -2.0040047 9.530845
1.8014209 -5.534234 0.74883306 0.27199546 -1.8052484 -5.419188 -4.684596 1.7804308
7.0605164 0.41372064 -5.2824135 3.64515 1.0645018 -6.5724225 1.1488359 -1.3196619
5.201408 -0.26424363 -10.229387 3.2035499 2.1613486 -10.852895 0.9539854 -4.899251
-1.7308228 0.7711361 -16.125889 6.9105816 1.144331 -0.022185089 0.20636164 2.7990668
-7.2765985 0.39868224 2.2301977 -6.3097057 5.7386837 -5.4287524 0.3509879 8.11535
-4.8006124 -6.780281 1.6280451 -2.7215593 2.6408532 8.161913 -0.9964134 -4.6434617
1.7548413 9.425714 -1.3452747 5.7129707 -7.8675513 -6.297157 -6.4373016 1.1740862
-6.931624 6.475251 -2.9685073 9.146944 -9.078275 -9.1128845 -10.884294 7.1435647
0.6215537 3.7425923 -4.315713 -1.8425314 -5.6747 -2.453073 -0.34191212 7.1112947
5.9902873 -10.392608 4.710642 -5.135241 -3.017835 -7.641055 -3.9429333 2.8014858
5.618334 -2.3516717 3.604082 7.5075026 -4.664444 -4.429696 6.0420995 -0.8836963
2.0451343 3.8543758 -8.268659 4.446133 -0.28276452 -7.649306 -3.4075036 8.051436
-5.6555924 -3.6251807 -0.6827887 1.4312282 2.9177063 -0.009521849 5.8268924 -6.7660193
-0.24461983 -3.0161881 -3.0493941 -4.8722076 -9.640427 2.989157 -1.5838181 -2.8530538
2.3593974 10.262231 4.2771688 -3.9639363 1.5478407 0.5421117 -11.322487 0.9416271
-6.0145802 1.3135555 -3.3686697 9.786235 -2.4655197 -0.27074525 5.17132 -10.336822
3.5260003 -7.2740097 -5.462756 4.6436605 -8.468788 9.29593 -6.746118 -5.530211
6.1521416 -1.5842525 1.0565672 3.2207346 -0.58814746 7.23275 -5.09421 -2.6484222
2.5766623 1.5404135 0.040647868 3.8193388 0.5056806 -13.36856 1.0174178 -2.615689
3.276882 0.38241887 8.828785 -5.267845 -13.6203375 3.866197 3.4424303 -3.0156999
3.5041597 -3.3866167 5.5211005 5.4601593 0.6074301 4.038655 8.722908 -2.876543
-6.8328357 -2.0993633 -6.2685275 -6.101278 0.6747756 5.1008673 0.17946163 -1.6623878
-4.223696 5.3694468 -5.081617 -0.9162578 5.8525844 -1.5038345 -5.965408 -4.334235
3.3965492 7.221926 4.0442443 1.8827019 4.6441364 -6.5656877 -5.1384554 0.14016041
-4.429279 -4.8036404 -12.76024 -4.4915004 -7.3179703 -12.160255 -2.3852663 -12.434853
00000000: a7de 0bc1 6f37 4b40 c57a c940 6b2d 39c1
00000010: 0953 23c0 2f45 ae3e 8f1b b040 8376 6e40
00000020: 180b b3c0 4119 51c0 49f9 3c40 87da 9dc0
00000030: f280 f43f 851e 1d40 1755 5bbf 4c5b 05bf
00000040: 7a5d bac0 2533 c840 0d9e 0ac0 dc46 1ac1
00000050: f0f6 2cc0 43a4 7fc0 9524 a740 ffe6 e140
00000060: e96f 583d ecf3 40c1 d10e a8bf 479a 29c1
00000070: ed4d 05c0 923e 92be 4be2 6b40 2b47 c33f
00000080: 7960 2dc0 1567 433f 47cb ba40 f8ba 25c1
00000090: fa92 0040 37a3 f7c0 eb2b 08c0 8bee 05c1
000000a0: cd37 1bc0 a2b5 3a41 d228 b1c0 9b8d cdc0
000000b0: b40b 32c0 dbef 5a40 e09f 4cc0 bd49 8dc0
000000c0: d819 1fc1 f621 8840 369e e5c0 a432 5bc0
000000d0: a038 cebf 78df 0641 9d41 00c0 577e 1841
000000e0: f694 e63f 7218 b1c0 86b3 3f3f fd42 8b3e
000000f0: 6112 e7bf fd69 adc0 36e8 95c0 28e5 e33f
00000100: c0ef e140 31d3 d33e 8809 a9c0 234a 6940
00000110: 9841 883f 4951 d2c0 0e0d 933f aeea a8bf
00000120: ef71 a640 f14a 87be 92ab 23c1 f606 4d40
00000130: 8953 0a40 75a5 2dc1 6338 743f aac6 9cc0
00000140: 9a8b ddbf 2d69 453f d201 81c1 7c23 dd40
00000150: 7079 923f 81bd b5bc 7750 533e e923 3340
00000160: e5d9 e8c0 1420 cc3e 8fbb 0e40 1ce9 c9c0
00000170: 4ca3 b740 57b8 adc0 b0b4 b33e 79d8 0141
00000180: 9e9e 99c0 10f8 d8c0 c863 d03f 072e 2ec0
00000190: bd03 2940 3297 0241 f314 7fbf 3d97 94c0
000001a0: a49e e03f b9cf 1641 f631 acbf a8d0 b640
000001b0: fbc2 fbc0 4f82 c9c0 60fe cdc0 7548 963f
000001c0: ddcf ddc0 4235 cf40 06fc 3dc0 e259 1241
000001d0: 9d40 11c1 60ce 11c1 1126 2ec1 1598 e440
000001e0: 251e 1f3f a286 6f40 521a 8ac0 12d8 ebbf
000001f0: 2497 b5c0 26ff 1cc0 1b0f afbe ba8f e340
00000200: 6fb0 bf40 1f48 26c1 94bd 9640 e553 a4c0
00000210: 3524 41c0 8683 f4c0 0559 7cc0 8b4b 3340
00000220: 64c9 b340 ca81 16c0 48a9 6640 763d f040
00000230: 2043 95c0 12c0 8dc0 e158 c140 ec39 62bf
00000240: 7be3 0240 18ae 7640 6d4c 04c1 b946 8e40
00000250: 83c6 90be 1dc7 f4c0 8a14 5ac0 afd2 0041
00000260: 9dfa b4c0 f602 68c0 3ecb 2ebf 7c32 b73f
00000270: b3bb 3a40 8801 1cbc e775 ba40 3b83 d8c0
00000280: 9f7d 7abe 3a09 41c0 4629 43c0 20e9 9bc0
00000290: 303f 1ac1 594e 3f40 8dba cabf 6f98 36c0
000002a0: 5e00 1740 1932 2441 91de 8840 22b1 7dc0
000002b0: a51f c63f d5c7 0a3f e828 35c1 790e 713f
000002c0: 7177 c0c0 9622 a83f 4998 57c0 6b94 1c41
000002d0: 13cb 1dc0 1f9f 8abe 747b a540 9f63 25c1
000002e0: fda9 6140 b0c4 e8c0 e6ce aec0 de98 9440
000002f0: 2880 07c1 21bc 1441 33e0 d7c0 7df7 b0c0
00000300: 58de c440 c9c8 cabf 983d 873f 8420 4e40
00000310: d590 16bf b072 e740 c503 a3c0 c07f 29c0
00000320: 09e8 2440 452c c53f 617e 263d 0c70 7440
00000330: 4974 013f 9fe5 55c1 bf3a 823f 7367 27c0
00000340: 6fb8 5140 68cc c33e b442 0d41 3092 a8c0
00000350: e7ec 59c1 c66f 7740 c750 5c40 3a01 41c0
00000360: 2744 6040 54be 58c0 dbac b040 a0b9 ae40
00000370: 8a80 1b3f a93c 8140 0891 0b41 4819 38c0
00000380: 97a6 dac0 f85b 06c0 c797 c8c0 ab3d c3c0
00000390: 18be 2c3f 4e3a a340 cac4 373e 20c9 d4bf
000003a0: 8528 87c0 82d2 ab40 9b9c a2c0 df8f 6abf
000003b0: 5f48 bb40 a67d c0bf 9fe4 bec0 0eb2 8ac0
000003c0: 1061 5940 051a e740 736a 8140 60fc f03f
000003d0: c49c 9440 1d1a d2c0 3a6e a4c0 3686 0f3e
000003e0: a7bc 8dc0 6cb7 99c0 f129 4cc1 5fba 8fc0
000003f0: d02c eac0 6890 42c1 34a8 18c0 28f5 46c1
