mnist_bp1/analysis/bad_sparse_dfa/BAD_W1_121_3.npy (npy, 78628 bytes, 1 tensors)

array f4 [785, 25]
0	0xbcf2b794	-0.029628552
1	0xbbc9b7b8	-0.006155934
2	0x3cb32f0a	0.021873016
3	0x3cd9a23e	0.02656662
4	0xbb99c9d4	-0.0046932492
5	0x3c94ecc8	0.018179312
6	0xbc0a78b8	-0.008451633
7	0xba31f300	-0.0006788224
8	0x3c8bcad8	0.017064497
9	0xbc96b7d9	-0.018398212
10	0xbc933bdc	-0.01797288
11	0x3c2db800	0.010602951
12	0xbbb600f0	-0.005554311
13	0xbc86e31c	-0.016465716
14	0xbca43820	-0.020046294
15	0xbcd10d2e	-0.02551898
16	0x3c8a3d50	0.01687494
17	0xbc698a6a	-0.014254192
18	0xbd0fa105	-0.03506567
19	0xbbd809bc	-0.0065929573
20	0xbce3bbcb	-0.027799508
21	0xbbd34860	-0.0064478368
22	0x3d08fe9c	0.03344594
23	0xbc450a72	-0.012026416
24	0x3c39b7f8	0.0113353655
25	0xbc315e9e	-0.010825781
26	0xbbde2ad0	-0.006780006
27	0xbcfdeadc	-0.030995779
28	0x3c7b31d4	0.015331704
29	0xbc9e634f	-0.019334463
30	0xbb1cb2e0	-0.0023910329
31	0x3ccff4ea	0.025385339
32	0x3d1010ec	0.035172388
33	0xbcc23911	-0.023708852
34	0x3c73cebc	0.014880832
35	0x3d0c6e60	0.03428495
36	0xbced9cbc	-0.0290054
37	0xbca942ae	-0.020661678
38	0x3d04564e	0.03230887
39	0xbd0fc5df	-0.035100814
40	0xbcde5888	-0.027141824
41	0xbbda9ad0	-0.006671287
42	0xbc802b59	-0.01564567
43	0xbbc8e7c8	-0.006131146
44	0x3cdab8d2	0.026699457
45	0xbce88575	-0.02838395
46	0x3d0b50ae	0.03401249
47	0x3d004ba8	0.03132215
48	0x3d0d09de	0.03443324
49	0xbc031580	-0.0080007315
50	0x3c2dbde4	0.0106043555
51	0xbd02d22f	-0.031938728
52	0xbc1e7690	-0.009671822
53	0x3bcfb928	0.006339211
54	0x3c6b2c9c	0.014353897
55	0xbcf62792	-0.030048165
56	0x3cd8c622	0.026461665
57	0xbcb01890	-0.021496087
58	0xbbf33c14	-0.0074229334
59	0xba60bd00	-0.0008573085
60	0x3ccc0f68	0.02490969
61	0x3d11daa6	0.03560891
62	0x3c8bf524	0.017084666
63	0x3c7d1620	0.01544717
64	0x3c90f6ce	0.01769581
65	0x3cdaccb2	0.026708934
66	0x3cc06b6a	0.023488719
67	0xbcdaacf8	-0.026693806
68	0x3d107450	0.035267174
69	0xbd09c116	-0.033631407
70	0x3c0348d4	0.008012969
71	0x3b683460	0.0035431609
72	0xbcac1ba4	-0.021009274
73	0xbcaf72ca	-0.02141704
74	0xbcfee321	-0.031114163
75	0xbcf050eb	-0.02933546
76	0x3ada1660	0.0016638748
77	0x3ca66378	0.020311102
78	0x3d05d4c4	0.032673612
79	0x3cbc6bd2	0.023000631
80	0x3c10082c	0.008791011
81	0x3bdcd0d0	0.0067387596
82	0x3cceecda	0.025259424
83	0x3d0a2e66	0.033735655
84	0x3ce6a1d4	0.028153338
85	0x3c95533c	0.018228166
86	0x3c5c8a94	0.013460774
87	0xbc503fe6	-0.012710547
88	0xbccf045f	-0.025270639
89	0xbcc27650	-0.023738056
90	0xbcac84c0	-0.021059394
91	0xbb1aa2e0	-0.0023595616
92	0x3c99d0aa	0.018776257
93	0x3b8ff248	0.004392896
94	0x3d086b44	0.03330542
95	0x3c287730	0.010282323
96	0x3ba7dc50	0.005122699
97	0x3ce1419c	0.027497105
98	0x3c2d0b78	0.010561816
99	0x3c4efadc	0.012633052
100	0x3cdd20b8	0.02699314
101	0x3d0d9b80	0.034572124
102	0x3cf16d94	0.029471196
103	0x3d0ac628	0.033880383
104	0x3cc71466	0.024301719
105	0x3cece164	0.028916068
106	0xbb1688b0	-0.0022969656
107	0xbc9f80d7	-0.019470615
108	0xba388440	-0.000703875
109	0xbcdabf9a	-0.02670269
110	0x3c9d20a4	0.019180603
111	0x3cd82c4a	0.026388306
112	0x3ca80c2e	0.02051362
113	0x3b27ef00	0.0025624633
114	0xbd0314c6	-0.032002233
115	0xbd0f8c44	-0.035045877
116	0xbc6bf88e	-0.014402522
117	0x3bbb5d00	0.0057178736
118	0xbcd7ffb6	-0.02636705
119	0x3c943aae	0.018094387
120	0x3d018c96	0.031628214
121	0x3b78e880	0.0037980378
122	0x3d00f7b4	0.031486228
123	0xbc137d40	-0.00900203
124	0x3d076e46	0.03306415
125	0xbc9d173c	-0.019176118
126	0x3c82661c	0.01591783
127	0xbcf14603	-0.02945233
128	0x3c2af7d8	0.010435067
129	0xbcd7841c	-0.026308112
130	0x3c658880	0.014009595
131	0xbcf66b75	-0.030080536
132	0xbc9bae65	-0.019004056
133	0x3cef3838	0.029201612
134	0x3cb30408	0.021852508
135	0x3a3c5d40	0.0007185526
136	0x3c11b714	0.008893747
137	0x3ca9f0d6	0.020744722
138	0xbcd349cc	-0.025792025
139	0x3c8d3106	0.01723529
140	0x3bfa5d10	0.0076404884
141	0xbc002432	-0.00782113
142	0x3cd78bcc	0.026311778
143	0xbcf8d243	-0.030373698
144	0x3cb6ca8e	0.022313382
145	0x3c428890	0.011873379
146	0x3cc3a3da	0.023881841
147	0xbbebaae4	-0.0071920026
148	0x3d0ca2ba	0.034334876
149	0xbbd108d0	-0.0063792244
150	0x3a06e180	0.00051452965
151	0x3d027b80	0.03185606
152	0xbc9feaeb	-0.019521197
153	0xbca5471d	-0.020175511
154	0x3c600e94	0.013675351
155	0x3cb32044	0.021865971
156	0xba004700	-0.00048933923
157	0x3cc20e8a	0.023688573
158	0x3ce67acc	0.028134726
159	0xbb97655c	-0.0046202373
160	0x3c9b362a	0.018946726
161	0xbcd834ba	-0.02639233
162	0xbb650150	-0.003494341
163	0x3c062324	0.008187089
164	0x3af140e0	0.0018406175
165	0xbbe3b020	-0.006948486
166	0xbc89b84f	-0.016811518
167	0x3c4db4a4	0.012555275
168	0xbd055588	-0.032552272
169	0xbd0c100a	-0.034194984
170	0x3c8e2572	0.01735184
171	0x3d050dc2	0.032483824
172	0xbcf5edbc	-0.030020587
173	0xbd03af1d	-0.032149423
174	0xbd081d2b	-0.03323094
175	0xbcb55422	-0.022134844
176	0x3c9bc8ae	0.01901659
177	0xbc991efd	-0.018691534
178	0x3d0d6eca	0.034529485
179	0x3c1b4ec0	0.009479225
180	0xbce3e0a0	-0.02781707
181	0xbcec879c	-0.028873257
182	0x3c5cc130	0.013473794
183	0x3bd13138	0.006384041
184	0x3c6603e4	0.014039014
185	0xbd083adf	-0.03325927
186	0x3c2faf5c	0.010722961
187	0xbbba8358	-0.005691927
188	0xbb060d90	-0.0020454861
189	0xbb5d1ba0	-0.003373839
190	0x3c6611c4	0.014042322
191	0xbc2e9526	-0.010655677
192	0xbc22bc54	-0.009932596
193	0xbc03084a	-0.007997582
194	0xbcf1c677	-0.02951358
195	0xbbaa66c4	-0.005200239
196	0x39e8d900	0.00044412166
197	0x3c7c731c	0.015408304
198	0x3af26f00	0.0018496215
199	0xbcc5d608	-0.02414991
200	0xbc0c56a2	-0.008565577
201	0x3cee2738	0.029071435
202	0x3cbb24fe	0.022844788
203	0x3d05634c	0.0325654
204	0xbc86394a	-0.01638474
205	0xbd090d1b	-0.033459764
206	0xbbecad14	-0.007222781
207	0xbc86c69c	-0.016452126
208	0xbc23852a	-0.009980479
209	0x3c286158	0.010277115
210	0x3c27b590	0.010236159
211	0x3c40110c	0.011722814
212	0xba0ed5c0	-0.00054487213
213	0x3cb59654	0.022166409
214	0x3bb577a8	0.005537946
215	0x3c195828	0.009359397
216	0xbcca5827	-0.024700237
217	0x3af1fa80	0.0018461496
218	0x3d08ab4c	0.033366486
219	0xbb35ff00	-0.00277704
220	0xbc944c30	-0.018102735
221	0x3cc448f6	0.023960572
222	0xbc63dd34	-0.013907719
223	0x3bc7e638	0.0061004423
224	0x3a20ba40	0.0006131269
225	0x3c5d54b4	0.013508964
226	0x3c99ff8a	0.018798608
227	0x3cc4edce	0.024039175
228	0xbc835ebc	-0.016036384
229	0x3c741844	0.0148983635
230	0xbb416de0	-0.0029514953
231	0xbb86b350	-0.004110731
232	0x3c2796d4	0.010228831
233	0xb9d53a00	-0.0004066974
234	0xbb226f10	-0.0024785437
235	0x3cae03f4	0.02124212
236	0x3c5cf514	0.013486166
237	0x3caba956	0.02095477
238	0x3c82351a	0.015894461
239	0xbcde9998	-0.027172849
240	0xbcf0ccb2	-0.029394481
241	0x3cfe4f7c	0.03104376
242	0xbcbdf332	-0.023187254
243	0xbd102b21	-0.03519738
244	0xbb934e50	-0.0044954196
245	0x3cec9144	0.028877862
246	0x3cec60e0	0.028854787
247	0x3c82a3c4	0.01594723
248	0x3d041dbe	0.032254927
249	0xbba152ac	-0.0049231853
250	0x3c84bd68	0.016203597
251	0x3bc93370	0.006140165
252	0x3cfb158c	0.030649923
253	0xbcf4c2a4	-0.029877968
254	0x3c2276f4	0.009916056
255	0xbc582028	-0.01319126
