mnist_bp1/analysis/bad_sparse_dfa/BAD_W2_67_2.npy (npy, 1168 bytes, 1 tensors)

array f4 [26, 10]
-1.7346685 14.92259 -1.8637968 5.143152 1.7670357 1.5254519 2.7905042 6.2459025
-1.9376658 -7.7668476 2.6857533 1.389851 -5.302253 16.469103 -11.531326 -6.741436
-12.974171 11.236277 0.13379416 12.3229265 2.3572793 2.327844 5.9056077 4.9991856
-9.337867 -14.242124 4.164342 -0.04485371 1.1849881 -6.3449216 2.3159146 -8.631942
0.72546196 -15.522123 4.313223 17.227425 1.3167835 -7.541363 10.460365 2.2939265
-3.0401938 1.5854763 -7.03124 7.1278596 -5.8826733 5.206497 -10.749436 8.508785
4.0867763 -6.228087 -1.6110675 -1.3200796 4.080366 -3.1520057 4.394514 -11.417724
19.223597 -19.84282 -5.6521897 13.65906 -2.7823806 1.0044347 -17.336626 3.29913
12.361344 3.3329313 12.181911 -2.3141892 -2.3380654 -0.4814941 -3.0592432 -1.3699901
0.6643486 3.8553283 -3.428708 -19.215845 -13.405726 22.720707 -8.647235 11.361452
3.258668 -4.805659 3.1592476 6.068838 -7.0803947 2.5725412 -1.5174352 7.09752
3.1858163 -13.633442 -4.985908 -11.709232 -5.731365 2.240819 -3.7801363 5.3112183
-4.171585 -7.8314652 12.482071 7.962941 -1.6779612 4.3591413 6.660759 -16.295504
-8.895604 -3.95303 6.329572 10.888443 -7.6216598 -0.07855919 0.1618409 -9.458061
8.289706 -9.348564 -1.7127498 -2.6538928 8.328857 -5.714015 0.027615473 3.8918612
1.0468167 1.3627454 -13.984731 -9.775243 2.1550388 -1.0230086 18.115776 -6.671776
-8.893559 -5.9446282 1.3904791 -7.4898195 6.484654 6.5752883 -10.466139 10.2404585
-22.128008 -4.2232165 -0.73895615 2.8173904 -1.7230684 -3.4317014 7.7436953 -6.6295547
21.680971 2.8182654 0.50544006 1.1595541 6.175143 -11.008419 2.460303 -9.399793
-12.4238205 1.2923224 7.395175 -1.8261763 -3.6403353 4.988097 -10.605134 3.0730705
-0.7138657 4.8203697 8.374064 -3.0171158 12.556462 9.459226 -6.217762 -9.5963335
4.0608516 -6.3805013 -7.447428 -2.1362858 -1.9120641 -1.1428529 5.820279 -0.4919539
3.3992279 -3.2645223 3.428684 2.6623366 -1.4215181 26.97119 -3.014921 -4.660276
-17.324537 1.8336835 -5.9681606 -6.6773224 19.420893 4.693167 -4.396414 -5.4353814
12.378744 9.535689 -13.452399 3.8437467 -0.62034816 8.724379 -15.552906 -10.109183
8.242949 -3.9711573 -1.097636 -9.475155 0.037816137 -0.5703171 -0.5192545 -6.6403036
-7.6508613 -7.395494 -1.4127728 16.769844 -4.312925 6.8787026 -2.113009 2.855226
-10.068303 5.5375414 -14.976127 5.591288 3.0868623 -1.0023394 2.1587372 -4.9044833
2.4131966 -7.7877245 6.7293425 2.2550325 -7.608013 -5.4427834 -0.07337399 5.6786685
-9.346952 3.7705095 12.417325 5.6674533 -1.023176 -10.065837 1.6959115 -7.768182
4.134523 -1.5254215 -4.21612 7.0139894 1.2103655 8.881091 1.3452365 7.737222
-3.2569506 11.696445 -0.6471277 -4.290324 5.4576926 -7.398509 -0.32149807 -7.7477503
00000000: 9e09 debf eec2 6e41 e590 eebf b494 a440
00000010: 3a2e e23f 0242 c33f 9f97 3240 6fde c740
00000020: 6f05 f8bf 048a f8c0 62e3 2b40 a3e6 b13f
00000030: 0eac a9c0 b9c0 8341 5080 38c1 d8b9 d7c0
00000040: 3496 4fc1 cac7 3341 5601 093e b52a 4541
00000050: aadd 1640 65fb 1440 bdfa bc40 54f9 9f40
00000060: e767 15c1 bddf 63c1 4a42 8540 86b8 37bd
00000070: b1ad 973f 9909 cbc0 f237 1440 6f1c 0ac1
00000080: e0b7 393f 9e5a 78c1 ec05 8a40 c4d1 8941
00000090: 5d8c a83f d852 f1c0 a85d 2741 b1cf 1240
000000a0: 8992 42c0 e3f0 ca3f ebff e0c0 6d17 e440
000000b0: dc3e bcc0 a09b a640 b1fd 2bc1 fc23 0841
000000c0: dfc6 8240 7d4c c7c0 7637 cebf 5ef8 a8bf
000000d0: 5c92 8240 76ba 49c0 dc9f 8c40 ffae 36c1
000000e0: edc9 9941 18be 9ec1 bdde b4c0 828b 5a41
000000f0: 8612 32c0 5191 803f 69b1 8ac1 f224 5340
00000100: 11c8 4541 bf4e 5540 1ce9 4241 ad1b 14c0
00000110: dda2 15c0 6586 f6be a4ca 43c0 d65b afbf
00000120: c012 2a3f b3bd 7640 f46f 5bc0 0dba 99c1
00000130: db7d 56c1 02c4 b541 135b 0ac1 82c8 3541
00000140: 048e 5040 f5c7 99c0 1d31 4a40 ec33 c240
00000150: 9892 e2c0 84a4 2440 513b c2bf e21e e340
00000160: 6ae4 4b40 9422 5ac1 8f8c 9fc0 0459 3bc1
00000170: 5867 b7c0 9469 0f40 c1ed 71c0 80f5 a940
00000180: a07d 85c0 5d9b fac0 90b6 4741 6ad0 fe40
00000190: 6fc7 d6bf 167e 8b40 f024 d540 315d 82c1
000001a0: 6554 0ec1 72fe 7cc0 db8b ca40 1037 2e41
000001b0: a3e4 f3c0 a4e3 a0bd 9fb9 253e 3854 17c1
000001c0: a3a2 0441 b893 15c1 633b dbbf 61d9 29c0
000001d0: 0043 0541 36d9 b6c0 d839 e23c 4114 7940
000001e0: 17fe 853f 716e ae3f 75c1 5fc1 6567 1cc1
000001f0: 28ec 0940 f2f1 82bf 1ced 9041 307f d5c0
00000200: 054c 0ec1 653a bec0 38fb b13f 9aac efc0
00000210: 4982 cf40 c368 d240 4e75 27c1 ebd8 2341
00000220: 2906 b1c1 9724 87c0 3b2c 3dbf 2050 3440
00000230: 818d dcbf ffa0 5bc0 5acc f740 5025 d4c0
00000240: a172 ad41 765e 3440 8564 013f 456c 943f
00000250: c59a c540 7c22 30c1 9b75 1d40 8d65 16c1
00000260: f8c7 46c1 d26a a53f 46a5 ec40 25c0 e9bf
00000270: 41fb 68c0 7e9e 9f40 a1ae 29c1 30ad 4440
00000280: e7bf 36bf 7840 9a40 2bfc 0541 6d18 41c0
00000290: 45e7 4841 fd58 1741 e8f7 c6c0 958a 19c1
000002a0: 7ff2 8140 112d ccc0 5551 eec0 e8b8 08c0
000002b0: 84be f4bf 0149 92bf ba3f ba40 62e1 fbbe
000002c0: f38c 5940 efed 50c0 8f6f 5b40 b963 2a40
000002d0: 4ef4 b5bf ffc4 d741 77f4 40c0 fb20 95c0
000002e0: a798 8ac1 24b6 ea3f 2cfb bec0 a0ac d5c0
000002f0: fd5d 9b41 6d2e 9640 6caf 8cc0 a5ee adc0
00000300: 560f 4641 2f92 1841 073d 57c1 f2ff 7540
00000310: 23cf 1ebf 0e97 0b41 b4d8 78c1 37bf 21c1
00000320: 1ee3 0341 7127 7ec0 567f 8cbf 3c9a 17c1
00000330: 18e5 1a3d 4d00 12bf dded 04bf 5e7d d4c0
00000340: dbd3 f4c0 e3a7 ecc0 bdd5 b4bf a428 8641
00000350: 7b03 8ac0 551e dc40 8a3b 07c0 06bc 3640
00000360: c517 21c1 8a33 b140 379e 6fc1 d5eb b240
00000370: 278f 4540 a84c 80bf c028 0a40 87f1 9cc0
00000380: d071 1a40 0a35 f9c0 c656 d740 7452 1040
00000390: d874 f3c0 482b aec0 1a45 96bd a7b7 b540
000003a0: 1e8d 15c1 0750 7140 5dad 4641 c75b b540
000003b0: 6ef7 82bf ab0d 21c1 a113 d93f f294 f8c0
000003c0: 034e 8440 0341 c3bf 74ea 86c0 9a72 e040
000003d0: 42ed 9a3f f318 0e41 b630 ac3f 5397 f740
000003e0: e171 50c0 a424 3b41 29aa 25bf 564a 89c0
000003f0: 6ba5 ae40 96c0 ecc0 659b a4be 92ed f7c0
