mnist_bp1/analysis/bad_sparse_dfa/BAD_W2_37_0.npy (npy, 1168 bytes, 1 tensors)

array f4 [26, 10]
0	0xc00845a9	-2.1292517
1	0x41507a08	13.029793
2	0xc039f0cb	-2.9053218
3	0xbfea9c99	-1.832904
4	0x40ee3072	7.4434137
5	0x40562297	3.3458612
6	0x40b7d3ed	5.74462
7	0xc13debef	-11.870101
8	0xc163bcec	-14.2336235
9	0x412f993c	10.974911
10	0x4030307d	2.7529595
11	0xc1818f9d	-16.195124
12	0xc04faa0c	-3.2447538
13	0xbf4d41ea	-0.801787
14	0xc0fdfe23	-7.9372725
15	0xc09b3341	-4.8500066
16	0x4184a67b	16.58129
17	0x40aec342	5.461335
18	0xbfe37a36	-1.7771671
19	0x40cb88e5	6.3604608
20	0x3fc1b5af	1.513357
21	0xc166bcf1	-14.421128
22	0x40c1cdf1	6.0563893
23	0xc1437987	-12.21717
24	0x41977796	18.933392
25	0xc137bd1f	-11.483672
26	0x41332afa	11.197992
27	0xc15f2c57	-13.948325
28	0x408bcdba	4.368863
29	0x410b04bc	8.688656
30	0x3fd96c39	1.6986152
31	0xc09616b1	-4.69027
32	0x3f585f2b	0.84520215
33	0x40fc89ae	7.8918066
34	0xc1021e88	-8.132454
35	0x40c9a520	6.301407
36	0xc062018b	-3.5313442
37	0xc03b28c5	-2.9243634
38	0x40ac6f8b	5.388616
39	0xc1070d5e	-8.440763
40	0xc029bb3a	-2.6520524
41	0xc113b203	-9.23096
42	0xc0efd332	-7.4945307
43	0x3ffbdf25	1.9677473
44	0x410cfa19	8.811059
45	0xc0673880	-3.6128235
46	0x40d8f180	6.77948
47	0x411333e8	9.200172
48	0xc1145c3e	-9.27252
49	0xc0ab6d9d	-5.3571305
50	0xbfdd105e	-1.727062
51	0xc091d2a6	-4.556964
52	0xc1135088	-9.207161
53	0xc00ef71b	-2.2338321
54	0x40d558bd	6.6670823
55	0x412fb9b0	10.982834
56	0x4183a830	16.457123
57	0x413ad660	11.677338
58	0xc12ea918	-10.916283
59	0xc0117bcb	-2.2731807
60	0xc00d8cf4	-2.211728
61	0x4101b238	8.10601
62	0xc14facc5	-12.97968
63	0x406fe380	3.7482605
64	0x4109efd8	8.621056
65	0xc096161e	-4.6902
66	0x3fa0f194	1.2573724
67	0xc15a6310	-13.649185
68	0x4196646f	18.79904
69	0x4033be6e	2.808498
70	0xc034b18f	-2.8233373
71	0x4121a2b9	10.102227
72	0x4191a919	18.207567
73	0xc1606151	-14.023759
74	0x3f7eb830	0.994998
75	0xc1c6c588	-24.84645
76	0x411edce6	9.92893
77	0x40b73d81	5.726258
78	0xc01aa3e6	-2.4162536
79	0xc14d34ea	-12.825418
80	0x40474e96	3.1141715
81	0x415e7349	13.903146
82	0x40c2ea99	6.0911374
83	0xc12b0108	-10.687752
84	0xc10bf074	-8.746204
85	0xbf4b4713	-0.79405326
86	0x419b0f3f	19.382444
87	0xbf418bd6	-0.75604
88	0xbee79102	-0.4522782
89	0xc0c96632	-6.293725
90	0xc0986f30	-4.7635727
91	0xbe9bb75c	-0.3041333
92	0x40df139d	6.971144
93	0xc1514111	-13.078385
94	0xc1678351	-14.46956
95	0x40e8f6f4	7.2801456
96	0xbfbf8613	-1.4962791
97	0xc0f21b2d	-7.5658174
98	0x41839bdf	16.451109
99	0x4030dffa	2.7636704
100	0xbf98c29c	-1.193439
101	0xbffa5029	-1.9555713
102	0x3fb47795	1.4098994
103	0x411adf57	9.679526
104	0xc1062251	-8.383378
105	0xc059bd47	-3.4021776
106	0xc146769d	-12.403958
107	0x41b47293	22.555944
108	0xc0c869a5	-6.262896
109	0x412cab56	10.79183
110	0xbeca1fc4	-0.3947736
111	0x40f45a8a	7.636052
112	0x41255be1	10.334931
113	0x40cd1d4f	6.4098277
114	0xc0994013	-4.7890716
115	0xc01fef6a	-2.4989877
116	0xc1a2471a	-20.284718
117	0x4113a771	9.228379
118	0xc0e63292	-7.193673
119	0x412e3e36	10.890188
120	0x3f56bb61	0.8387967
121	0xc0b90309	-5.7816205
122	0xbf529661	-0.8226071
123	0xc095464c	-4.664831
124	0x4128d13e	10.5510845
125	0x4161ff7a	14.124872
126	0xc117c332	-9.485155
127	0xc1a54a64	-20.661324
128	0x4106ff04	8.43726
129	0x3f10c7d5	0.5655492
130	0x3f6599dc	0.89687896
131	0xc0151702	-2.3295293
132	0xc1ac179c	-21.511528
133	0x404e7fc9	3.2265494
134	0xc0cdbaf2	-6.4290705
135	0x3ff86aa6	1.9407547
136	0xc14c827e	-12.781858
137	0x415b8300	13.719482
138	0x40b49ee1	5.6443944
139	0xbff702b7	-1.9297704
140	0xbfee25f1	-1.8605329
141	0x41aa97ae	21.324062
142	0xc11f5c9f	-9.960113
143	0xc0c00602	-6.0007334
144	0xc00a5b88	-2.1618366
145	0x4187592d	16.918543
146	0x3f5b6e07	0.85714763
147	0x40414449	3.0197928
148	0x406a4aa7	3.6608064
149	0xc0ecd9cc	-7.4015865
150	0x4018e893	2.3891952
151	0xc08355fe	-4.104247
152	0x402a2b37	2.6588876
153	0xc0299f9f	-2.6503675
154	0x40fef38f	7.9672313
155	0xbf871c89	-1.0555583
156	0x40f9f60d	7.8112855
157	0xc1806eeb	-16.05416
158	0x3ff1e900	1.8899231
159	0xc1069fef	-8.414046
160	0xbf4eb09a	-0.8073822
161	0xc043b5b0	-3.0579643
162	0x410643a2	8.391512
163	0x408e6af0	4.450554
164	0xc08cc030	-4.3984604
165	0x40484d4a	3.1297174
166	0xc0c41a3a	-6.1282015
167	0xbf1662ab	-0.58744305
168	0xc095512e	-4.6661596
169	0x3fff2f44	1.9936299
170	0xc0d84456	-6.758342
171	0xc060d5cf	-3.5130498
172	0xc0628934	-3.5396242
173	0xc01ba878	-2.4321575
174	0xc09025d6	-4.5046186
175	0xc07f5611	-3.989628
176	0xc0a4688b	-5.1377616
177	0x4094b615	4.647227
178	0x3f668475	0.90045863
179	0x4035b627	2.8392427
180	0xbfaf7b07	-1.370942
181	0x413e976c	11.911968
182	0x408942b6	4.2893934
183	0xc09849de	-4.759017
184	0x40cf5bb1	6.479943
185	0xc0733c11	-3.8005412
186	0x40fd3fbe	7.914031
187	0xc058b6c0	-3.3861542
188	0x402abbf2	2.6677213
189	0xc0f6c9ee	-7.7121496
190	0xc0846719	-4.137585
191	0xc0571f04	-3.361268
192	0x4113e364	9.243015
193	0x417351c0	15.2074585
194	0x3ebe2557	0.37137863
195	0x4034cc51	2.8249705
196	0xc083e449	-4.121617
197	0xc10f298b	-8.947642
198	0xc01152a2	-2.2706685
199	0xc1464a1c	-12.393093
200	0x41235613	10.208514
201	0xc0810af0	-4.032585
202	0xc01496ea	-2.321711
203	0xc0d19784	-6.5497456
204	0xc129608d	-10.586072
205	0xbff6ac78	-1.9271383
206	0xc0c46345	-6.137118
207	0xbfc58a77	-1.5432881
208	0xc127bac2	-10.483095
209	0xc0df48dd	-6.9776444
210	0xbfb3344e	-1.4000337
211	0x40a8cbaf	5.2748637
212	0xc0cdb2ad	-6.428061
213	0xbff66f52	-1.9252722
214	0x41280363	10.500827
215	0xc0eda132	-7.425927
216	0x40035979	2.052336
217	0xbd4bd3a2	-0.049762376
218	0x40cedf8f	6.46479
219	0x412dc0af	10.859542
220	0x402c4b8a	2.6921105
221	0xc11be7e3	-9.744113
222	0xc103abf7	-8.229484
223	0x3ff8e184	1.9443822
224	0x40a4ba82	5.147767
225	0xc010b699	-2.2611449
226	0x40319b71	2.7751124
227	0x40c4d72d	6.1512666
228	0xc0ddcbd3	-6.931131
229	0xc00b96d2	-2.1810803
230	0xbf213ec5	-0.62986404
231	0xc01bda1a	-2.4351869
232	0xc0a8caf0	-5.2747726
233	0xc0e656c6	-7.1980925
234	0xc03f5e4a	-2.99013
235	0x40deb661	6.959763
236	0xc08ab7aa	-4.33492
237	0xc0c9de84	-6.3084126
238	0x3f9164c2	1.1358874
239	0x40253742	2.5814977
240	0x408b5208	4.3537636
241	0x41079a79	8.475213
242	0x40dc1790	6.8778763
243	0x3fe85bf4	1.8153062
244	0x3f764f27	0.96214527
245	0xbf68d61a	-0.90951693
246	0xc1a79cf6	-20.951641
247	0x40a15382	5.041444
248	0x40691684	3.6419992
249	0xc0a4c9c0	-5.1496277
250	0xbf3550a3	-0.70826167
251	0xc0d07b27	-6.5150332
252	0x3f237bcf	0.6386079
253	0x413123ee	11.071272
254	0xc11bc16b	-9.734721
255	0xbf27a1ea	-0.65481436
