mnist_bp1/analysis/weights_dirt/W1_419_2.npy (npy, 78628 bytes, 1 tensors)

array f4 [785, 25]
00000000: e960 c83d 98cf d4bd e985 913d 768f 10bd
00000010: c4aa f6bc ba60 b2bd 76d4 d2bd 0acc 27bd
00000020: 0a30 5d3d 8d51 bd3d 1419 07bd d021 f9bb
00000030: 2161 b53d b26f 82bd 0ac2 c0bd f841 17bc
00000040: 475a d73d 80be c6bc f860 3fbd 2115 b03d
00000050: 8144 9fbd 8ece 163d 93ef e33d a078 dabb
00000060: de69 1c3d f8e2 60bc a70a bb3d e360 7dbd
00000070: bf39 cf3d b326 8a3d ac7c 9cbc 34a0 a53c
00000080: a312 78bd fbac b83d fe3e 6e3d a8fd bfbc
00000090: 63c8 bb3d f8b8 56bd 688c 703c 464c 87bd
000000a0: 6a05 143d 1b7f d23d 1030 afbb 0239 a4bd
000000b0: bdef c2bd bb9d bc3d f0cd 873b d271 e4bd
000000c0: 5c24 fc3c 7dee 823d 2c9b 15bd 22f3 f0bd
000000d0: d053 823b a61d 783d 7e0e 523d 08d8 90bd
000000e0: 44de ec3c d073 a8bd c077 8fba 9226 50bd
000000f0: 6e68 8dbd aafa 93bd a228 4a3d 06a8 dabd
00000100: 8cb2 933c 24d1 bf3c c097 8dba 0038 f4bc
00000110: 64ef ce3c 2696 8abd 7057 bebb 49b8 d1bd
00000120: cb3e d0bd ffdd bc3d 3b61 d8bd 110a b53d
00000130: c290 4b3d 3bb5 e7bd 97d7 a13d 7c0e 9bbd
00000140: ea73 223d cc00 d9bc e944 843d 74bc d2bc
00000150: 14a5 97bd e062 523b 5fdc b93d acd6 abbc
00000160: 2495 8c3c e018 febc 1253 79bd f575 7fbd
00000170: ca85 263d 306f b23b dbf1 b43d 0f58 bc3d
00000180: 4af8 7e3d 2665 5f3d f04f d0bc ee5e 7bbd
00000190: 3468 c3bd 138b ddbd 8f62 86bd 9d14 e53d
000001a0: b8d2 163c ae25 583d 7812 083c eb6c 973d
000001b0: be8f 473d 1684 323d 00ac 8f3b ce20 a5bd
000001c0: 0046 5539 59f1 8f3d 8795 b83d a4f8 ae3c
000001d0: 5a13 abbd 58bd 3d3c cc8a 59bd 80ee abbd
000001e0: f0aa d23b c476 bebc 168a 01bd 32bb e3bd
000001f0: 5428 d83c 7d53 ae3d 978f 8f3d 24e9 f2bc
00000200: 8179 943d b9f3 c13d a844 6bbd e910 e5bd
00000210: 98af 06bc a07d 8ebb 6f14 b2bd a44e e6bd
00000220: 4c18 81bd 7851 4dbd acbb cfbc 581e 343c
00000230: 5e38 04bd e63c 90bd c482 e0bd ba1d 7f3d
00000240: c14b 9a3d 6e41 133d ee78 67bd c01e 84ba
00000250: 6360 cf3d f7f2 b03d 80b5 debc 22c1 533d
00000260: ea71 afbd 52da 30bd 11c9 973d 20ec fabc
00000270: 00cc b1bc 0b39 cc3d 039f 863d 7456 e4bc
00000280: 712a e53d 293d d73d d488 37bd 9621 633d
00000290: 4416 ca3c 1035 9fbb dae3 31bd e87d 9dbc
000002a0: 5463 d5bd 149a 3dbd 34ee cf3c d319 bfbd
000002b0: ec4b d6bc 0048 f5b9 9ac7 99bd 58a2 43bc
000002c0: 4ff1 c1bd 8839 593c 488a 213c 0ab8 5c3d
000002d0: 1971 debd 788d c4bd 8bc9 a03d 5c82 e3bc
000002e0: ba88 153d 7ae5 283d 28a6 77bc 67fc c63d
000002f0: 1057 2bbd d0c1 64bc 044b 05bd 6e39 bcbd
00000300: f95a b33d 3fdb 823d 9d96 c03d a857 adbd
00000310: 3efd 8abd faf5 3d3d 9d73 aa3d 9a44 323d
00000320: 9eb4 623d 78cf 2cbd ca66 9ebd 8042 97bd
00000330: 91de ea3d b05f 98bb 6c5a dbbc 70f3 e2bd
00000340: d879 e9bc 94fc 98bc aa5d 303d 1a30 60bd
00000350: 00a2 3abd 765f 5e3d f279 4f3d 63df a63d
00000360: 581f 753c 6caf f0bd dc3a f0bd 5450 de3c
00000370: 3976 853d 0864 3fbd 1d4a 96bd 8d4d a23d
00000380: 80ba a0ba 6b23 bebd 20b5 06bb 0d59 963d
00000390: a398 c03d 80db 82bd 5c5c c1bd 99cb d03d
000003a0: cd5f b63d 4411 8dbd 06b9 593d 0a0b 793d
000003b0: eaf8 85bd c080 f9ba e85d 773c 3ee9 8fbd
000003c0: d4c8 efbd 3a85 193d caac 203d 69a7 c2bd
000003d0: 3e74 b3bd 87e4 a63d e1c4 cd3d f068 28bd
000003e0: 7d94 afbd 8598 d8bd af6f b03d 17d5 a83d
000003f0: 69a9 f33d aed0 6d3d 4152 b3bd 918e 953d
0.09784109 -0.10391158 0.071056195 -0.035293065 -0.030110724 -0.087098554 -0.1029443 -0.04096607
0.05400089 0.0924407 -0.0329829 -0.0076029077 0.088564165 -0.063689604 -0.0941201 -0.009232037
0.10515266 -0.02426076 -0.046723336 0.0859778 -0.07776738 0.03681808 0.111296795 -0.0066672117
0.0381869 -0.013725989 0.09132891 -0.061859977 0.10118436 0.067456625 -0.019102417 0.020217992
-0.06056465 0.090173684 0.058165543 -0.023436382 0.0916908 -0.052422494 0.014681913 -0.06606345
0.036137976 0.1027815 -0.0053463057 -0.08018686 -0.09518383 0.09209772 0.0041444227 -0.11154522
0.030779056 0.06393144 -0.036524937 -0.11765124 0.0039772764 0.06057515 0.051283352 -0.07072455
0.028914578 -0.082252145 -0.0010945722 -0.050818034 -0.06904684 -0.07225545 0.049355157 -0.10676579
0.018029474 0.023415156 -0.0010802671 -0.02981186 0.025260635 -0.0676692 -0.005808763 -0.10240228
-0.10168227 0.0922203 -0.1056542 0.08839811 0.0496986 -0.11313864 0.079024486 -0.07571122
0.039661326 -0.026489638 0.06458456 -0.025724627 -0.07404533 0.003210239 0.090752356 -0.020976387
0.01716096 -0.03101772 -0.060870238 -0.062368352 0.040654935 0.0054453835 0.08835193 0.09196483
0.062248506 0.054539822 -0.025428742 -0.06136983 -0.095413595 -0.10817542 -0.06561767 0.11185572
0.009205513 0.05277031 0.008305185 0.07393821 0.048721068 0.043583 0.0043845177 -0.080628976
0.0002033934 0.07028455 0.09012895 0.021358795 -0.083533004 0.011580788 -0.053110883 -0.083951
0.0064290687 -0.023249991 -0.03162583 -0.11119689 0.026386417 0.08512018 0.070098095 -0.029652186
0.072497375 0.094703145 -0.057438523 -0.11184866 -0.008220576 -0.0043484718 -0.08695304 -0.11245468
-0.063034624 -0.050126523 -0.025358044 0.010993563 -0.03228032 -0.070428655 -0.109624416 0.06228421
0.0753398 0.03595107 -0.056511812 -0.0010079965 0.10125806 0.08640092 -0.027186155 0.051697858
-0.08566649 -0.043176956 0.07411397 -0.030630171 -0.02170372 0.099718176 0.06573298 -0.027873255
0.11189736 0.10509712 -0.044808224 0.055451952 0.02466882 -0.0048586205 -0.043430187 -0.019225076
-0.10419336 -0.04628952 0.025382139 -0.093310975 -0.02615925 -0.00046783686 -0.07508774 -0.011940561
-0.09469854 0.013258345 0.009859629 0.05388645 -0.108614154 -0.095972955 0.07850941 -0.027772121
0.036507346 0.04123447 -0.015115298 0.09716111 -0.041831076 -0.013962224 -0.032542244 -0.09190641
0.08757586 0.06389474 0.09403727 -0.08463985 -0.06786583 0.04637716 0.08322833 0.043522455
0.05534803 -0.042190045 -0.07734449 -0.07385731 0.114682324 -0.0046500787 -0.026776515 -0.11081588
-0.028500482 -0.018675126 0.043058075 -0.054733373 -0.04556465 0.054290257 0.050653405 0.081480764
0.014961086 -0.11752209 -0.117299765 0.027137913 0.0651669 -0.046726257 -0.07338355 0.07924948
-0.0012262613 -0.09284099 -0.0020554736 0.07341204 0.09404113 -0.063895226 -0.09441444 0.10195083
0.08904991 -0.06888059 0.053154968 0.060801543 -0.06541617 -0.0019035563 0.015098073 -0.07026909
-0.11708227 0.03748057 0.039227284 -0.09504587 -0.08762406 0.08149057 0.10047317 -0.0411157
-0.08573244 -0.10575966 0.08615052 0.08243769 0.11897547 0.05806034 -0.08755923 0.07302583
