mnist_bp1/analysis/weights_dirt/W2_64_2.npy (npy, 1168 bytes, 1 tensors)

array f4 [26, 10]
000000 56 97 7c 40 6e ea 1b 40 af 0f af c0 41 0d 10 c1
       3.9467368 2.4361835 -5.4706645 -9.003236
000010 50 90 28 3f 0b 59 58 40 df 67 4c bd 2e 41 b9 3f
       0.65845203 3.3804348 -0.049903747 1.4473016
000020 01 3c f1 c0 00 50 c5 40 4c e0 bc c0 b9 f0 74 c0
       -7.5385747 6.1660156 -5.90238 -3.8271925
000030 c5 1b 45 40 1e a9 b9 40 74 ec fe c0 56 84 61 41
       3.07982 5.801894 -7.966364 14.094809
000040 97 0b 85 40 dd 9d eb c0 86 c2 47 40 9b 1c f2 40
       4.157665 -7.3630204 3.1212478 7.565992
000050 15 55 53 bf 2a b0 83 40 94 d6 77 40 36 7d bc 40
       -0.825517 4.1152544 3.8724718 5.8902845
000060 4c 1b 8e c0 32 e2 e2 c0 16 48 0e c1 2b 96 33 bf
       -4.440832 -7.0901117 -8.892599 -0.70151013
000070 71 1e b7 c0 79 5a 4a 40 cf cf ad 40 c6 ab 96 c0
       -5.722466 3.161772 5.4316173 -4.7084684
000080 17 be cc c0 b6 9f c3 40 bc 2a a0 bf e8 00 02 c1
       -6.3982043 6.113246 -1.2513041 -8.125221
000090 3d 8f 3e c0 c5 0e b9 c0 ff 3e 5d 40 65 92 e3 40
       -2.9774926 -5.783053 3.45697 7.1116204
0000a0 18 60 63 bf 28 10 16 41 f2 59 c0 c0 29 8c 31 c1
       -0.888185 9.378944 -6.0109797 -11.096719
0000b0 5f 5f 15 3f 4d e6 8b c0 5a ef d2 40 80 72 07 3f
       0.5834865 -4.371863 6.5917177 0.5290909
0000c0 ee cc 09 c1 26 f7 3e 3f 37 7b d4 3f 85 3e 02 41
       -8.612532 0.7459587 1.6600102 8.140264
0000d0 fd 15 cf 40 4a 3d 8b be b5 5a b0 40 02 3a 04 41
       6.471434 -0.27195197 5.5110726 8.264162
0000e0 05 f7 a8 c0 c8 46 c1 c0 7a 6c 05 c1 21 31 24 c1
       -5.2801538 -6.0398903 -8.338984 -10.261994
0000f0 30 d4 12 c0 25 f3 91 c0 03 ee 26 41 52 9f cb c0
       -2.294201 -4.5609307 10.433108 -6.3631983
000100 43 8e 27 c0 2d 05 b2 40 04 a7 95 c0 79 95 f7 3f
       -2.618058 5.563132 -4.6766376 1.934249
000110 e0 23 67 3e fd 15 cb 3f 6b a8 23 be 1c eb 4a 40
       0.22572279 1.5866085 -0.15982215 3.1706
000120 2f da 59 bf f9 89 d0 40 08 77 19 c0 dc b6 15 41
       -0.85098547 6.5168424 -2.39789 9.357143
000130 c1 bd 10 c1 32 f6 9f c0 b9 e6 90 c1 9d 5a 43 40
       -9.046327 -4.998803 -18.112658 3.0524056
000140 b4 7f c8 40 7a 65 f3 40 b7 b6 cb 40 e7 fe 1b c0
       6.2655888 7.6061373 6.366054 -2.437433
000150 b3 01 39 c0 35 c1 85 3e 80 61 f9 c0 07 32 7a 40
       -2.8907287 0.26123968 -7.793152 3.9093034
000160 e7 d9 70 c0 b1 c5 de c0 af 83 11 40 24 49 05 c1
       -3.7632997 -6.9616323 2.2736623 -8.330357
000170 f7 ac ed c0 36 d0 f2 40 9e 51 13 40 f5 1a 23 c0
       -7.427364 7.5879164 2.3018565 -2.5485203
000180 c3 a7 e9 be f4 26 dd 3f f8 64 11 c0 33 08 f3 c0
       -0.45635805 1.7277513 -2.2717876 -7.594751
000190 7e 40 fd c0 ee c0 04 41 a1 a6 1a 41 4b 89 3e c1
       -7.9141226 8.297102 9.665681 -11.908519
0001a0 18 5c 89 c0 f1 14 45 c0 e5 a0 53 40 be e3 cb c0
       -4.292492 -3.0794032 3.3066952 -6.3715506
0001b0 14 e7 27 c0 5c 01 e2 bf 76 73 e7 c0 79 6d 75 3f
       -2.623479 -1.7656665 -7.2328444 0.95870167
0001c0 9c 56 0e c1 28 e5 a5 bf 4f b0 ac 40 22 53 b9 c0
       -8.896145 -1.2960558 5.396522 -5.791398
0001d0 91 15 b5 3f 84 a8 db 40 e9 9c c7 c0 0b 9f 33 c0
       1.4147207 6.8643208 -6.237904 -2.8065822
0001e0 05 28 89 bf 8c 84 55 40 9a 1d 19 40 0b 3e a3 40
       -1.0715338 3.336215 2.3924317 5.1013236
0001f0 6f 89 9a c0 c5 7f eb c0 14 fa bf 40 6f 5c 02 c1
       -4.8292766 -7.359347 5.999277 -8.147567
000200 dc e1 b3 c0 a2 dc 31 3f c8 df df 3e 82 59 fe c0
       -5.6213207 0.69477284 0.4372542 -7.9484262
000210 60 54 17 40 77 0d d7 c0 48 19 07 41 98 9a 99 3f
       2.3645248 -6.7203937 8.443672 1.2000303
000220 ff 5a 01 c1 c6 92 92 c0 a2 db fd 3f fc de ac bf
       -8.084716 -4.5804167 1.9832652 -1.350555
000230 9e 10 e1 bf 3a 86 fe c0 49 7e 84 3f b4 35 9e 3f
       -1.7583196 -7.953885 1.0351039 1.2360139
000240 12 a8 01 41 89 3d 64 40 8f 0d bc 3f 18 0b 42 40
       8.103533 3.5662558 1.4691638 3.031927
000250 56 a1 4c c0 ac 13 0c c1 e6 74 12 41 19 42 05 40
       -3.1973472 -8.754803 9.15354 2.0821593
000260 29 b3 1b 40 c4 0c 78 bf bf 2e 98 bf 70 bf d9 c0
       2.43281 -0.9689448 -1.1889266 -6.804619
000270 b9 1a 27 41 5a fb 71 40 32 f6 bd c0 ca d7 94 c0
       10.444024 3.7809663 -5.936303 -4.6513414
000280 54 30 d5 bf d4 d7 fa c0 91 b5 22 41 ed 00 17 c0
       -1.6655374 -7.838846 10.169328 -2.3594315
000290 98 ba a6 bf 92 6a 32 c0 d6 30 f5 bf fd 8b dc c0
       -1.3025694 -2.7877545 -1.9155529 -6.8920884
0002a0 48 b8 2a bd 97 53 a7 40 7c 2e 90 3f b5 dc bb c0
       -0.04167965 5.228954 1.1264186 -5.870692
0002b0 bc ae 1a 3f a5 a2 64 c0 e9 ed 31 c1 d7 59 e5 40
       0.60422873 -3.572427 -11.120584 7.167217
0002c0 62 9c 83 c0 28 0d 12 bf 8a c2 96 c0 45 3e d6 40
       -4.1128397 -0.57051325 -4.7112474 6.6951013
0002d0 b4 2c 88 40 f1 a1 88 bf 65 8d 03 c1 b2 b0 8a c0
       4.255457 -1.067442 -8.22202 -4.3340693
0002e0 3a 0f d1 40 97 1c bf 40 a5 b2 ec 40 d1 ee 1c c1
       6.5331087 5.97224 7.396807 -9.808305
0002f0 4f 55 dd 40 6b 80 3f 41 9e 3d 24 c0 b5 26 1a bf
       6.9166636 11.968852 -2.5662608 -0.6021531
000300 cd 23 8e c0 0d 8e 97 bf a1 5c 0d c0 23 a8 44 c1
       -4.44187 -1.1840225 -2.2087786 -12.291049
000310 be 5f c4 3e 53 08 2f 40 ad 1e dd 40 13 be 58 40
       0.38354295 2.734883 6.9099946 3.3866012
000320 95 e7 08 c0 fb 17 cf 40 dd a0 7b c0 b4 f6 bb c0
       -2.1391346 6.4716773 -3.9316933 -5.873865
000330 e1 17 af 3f a0 57 a4 40 a8 af 73 3f d1 91 b5 c0
       1.3679162 5.1356964 0.95189905 -5.67405
000340 f2 63 3e 40 c6 54 0f c1 c8 36 25 40 b6 8c d6 bf
       2.9748502 -8.958197 2.5814686 -1.6761692
000350 94 a8 24 c1 42 f0 ae 3f e4 ac f6 bf 7b a4 95 40
       -10.291157 1.3667071 -1.9271512 4.676328
000360 11 e9 17 bd ad 85 17 40 f4 8e 19 be be e8 1d c1
       -0.037087504 2.367534 -0.14995939 -9.869322
000370 de c5 13 c1 7a 83 32 40 00 29 d3 c0 b5 86 01 c0
       -9.235807 2.7892747 -6.598755 -2.0238469
000380 da 80 26 40 7a df a1 3f 1f e9 1a c1 90 8c e0 40
       2.6016145 1.2646325 -9.681914 7.0171585
000390 be 25 ce 40 b6 39 0d c1 a3 05 38 40 ea b4 84 be
       6.442107 -8.82659 2.875344 -0.25919276
0003a0 3f de 91 40 89 2d 4e 41 66 93 0a 40 61 e2 6f c1
       4.5583797 12.886117 2.1652465 -14.992768
0003b0 52 e5 54 c0 f1 26 7c c0 a8 48 e5 40 bf 9c 4c 3f
       -3.3264966 -3.9398768 7.165119 0.79926676
0003c0 58 e3 0f c0 f1 cd d9 c0 24 9e 44 c0 37 09 d8 c0
       -2.248251 -6.8063893 -3.0721521 -6.751125
0003d0 83 70 91 c0 0d 7a be c0 b5 28 cb 3f c5 3e 99 40
       -4.5449843 -5.952399 1.5871798 4.7889123
0003e0 89 d8 2d 41 2e 5f d6 c0 c5 90 80 c1 c8 86 26 c0
       10.865365 -6.6991186 -16.070688 -2.6019764
0003f0 d8 9b 0e c1 3e a3 39 c1 ec 8e 5b c1 dd f7 bb c0
       -8.913048 -11.602354 -13.722393 -5.8740067
