NN/analysis/results/dfa1/W2_73_1.npy (npy, 4168 bytes, 1 tensors)

array f4 [101, 10]
000000 66 ca bf 3f 77 38 89 bf 37 74 90 3e 2b e3 b3 be
       1.4983642 -1.0720357 0.28213665 -0.35134253
000010 4d fb 04 3f b0 af 49 bf 18 b5 6a bf ce e1 30 3f
       0.51945955 -0.787837 -0.9168258 0.6909455
000020 fd 80 9f 3e 88 e7 13 be fb 6e b8 3f 0f b7 ab bf
       0.31153098 -0.14443791 1.4408869 -1.341524
000030 76 fc f5 be eb 79 5d be 95 2d 1d bf c0 89 c5 be
       -0.48044175 -0.2162854 -0.6139768 -0.38581657
000040 8d 4b 1b bf 30 72 90 bf 98 cd 4a bf df f7 5d 3e
       -0.60662156 -1.1284847 -0.7921996 0.21676587
000050 df 73 65 3d e3 22 81 bf 3b 19 28 bf 13 a8 fd be
       0.056018706 -1.0088772 -0.656635 -0.49542293
000060 37 0c da be b5 e5 56 bf d2 06 68 3f 33 51 e2 be
       -0.42587444 -0.83944255 0.90635407 -0.44202575
000070 09 28 e7 be 77 94 18 bf 87 25 f1 3e 41 d9 db 3f
       -0.45147732 -0.5960154 0.47098944 1.7175676
000080 d4 3d c1 3e d2 cc 66 3e 77 3d c5 3e bc 10 23 3f
       0.37742484 0.2253907 0.38523456 0.6369741
000090 2f 3e 9b bc 62 fd 64 bf 5d 12 26 3f a6 67 a2 3f
       -0.01895055 -0.8944913 0.6487177 1.2687881
0000a0 43 48 a5 3e cb ad bc bf 0a ad 29 be b8 c8 01 c0
       0.32281694 -1.4740537 -0.16569915 -2.027876
0000b0 1f fe 7a 3e d6 97 2f bf 8f 85 a6 bf a2 0a 65 3d
       0.24511002 -0.6859106 -1.3009509 0.055918343
0000c0 10 93 e1 be eb 73 61 bf 38 d1 77 bf 73 f8 83 bf
       -0.44057512 -0.880675 -0.9680362 -1.0310196
0000d0 de b6 44 3f 77 5a 4a bf d8 3e a1 3f fa b8 87 3e
       0.76841533 -0.7904429 1.2597303 0.26508313
0000e0 a9 70 9c 40 8c 2b 4e c0 23 67 8f 3e e9 25 1d 40
       4.8887525 -3.221408 0.28008375 2.4554389
0000f0 bb b3 bc bd 3b cf 3a 3e 36 d3 1f bf d6 e2 85 3f
       -0.09213968 0.18243115 -0.6243166 1.045985
000100 b1 39 33 bf 89 9e 24 3f 47 30 fd bf 82 17 6b 3f
       -0.70009905 0.64304405 -1.9780358 0.91832745
000110 d0 64 ae bf e0 34 85 3f 5c fd c4 3f 95 fd 98 be
       -1.3624516 1.0406761 1.5389819 -0.29880968
000120 6e a9 7d bd 32 57 bf bf 9a cd 2a bf 93 1a 95 be
       -0.06192916 -1.4948485 -0.66719973 -0.29121837
000130 f2 ca 5d 3f 8d c9 a8 bf e5 8c e7 3f 86 54 44 bf
       0.86637795 -1.3186508 1.8089873 -0.7669147
000140 c9 22 10 bf 03 f6 8b 3f 21 63 4d be 36 72 b6 3f
       -0.5630308 1.0934452 -0.20057346 1.4253604
000150 ea 18 21 bf 18 cd 22 3e ce 6d f6 3d 9b 28 32 3f
       -0.6292864 0.1589855 0.12032662 0.6959321
000160 d6 cd ff be ee f7 9a 3f 3f 91 05 3e de 2c c3 3f
       -0.49961728 1.2106912 0.13043688 1.5248067
000170 81 eb fe bd 34 ef d1 be cb db b0 be 4c 96 76 3e
       -0.124472626 -0.4100281 -0.3454269 0.24080771
000180 35 83 5e 3f ff c5 8d be 21 61 f6 bd 4f b9 cc 3f
       0.86918956 -0.27690122 -0.120302446 1.5994052
000190 13 66 c0 be 14 6d 54 3f 36 7e e5 bd 05 b4 32 40
       -0.37577876 0.8297894 -0.112057135 2.7922375
0001a0 50 57 05 c0 08 6d 4e be bd b4 ea be 4f cc 66 bd
       -2.0834541 -0.2015878 -0.45841017 -0.056347188
0001b0 0a e6 c5 3e f3 23 d9 3c ef f3 e0 3e 89 73 7e 3f
       0.38652068 0.0265064 0.43936107 0.9939504
0001c0 21 ea e8 bf a2 a0 de be b9 81 87 3f 36 9c 65 bf
       -1.819645 -0.43481928 1.0586463 -0.89691484
0001d0 a2 44 b0 3f 5e 2f 7e be 92 12 17 3e 17 3d 80 3d
       1.3770945 -0.24822757 0.14753178 0.06261652
0001e0 e5 ae 20 3f ae 05 b4 bb 01 2c af 3e 85 3e 59 bf
       0.6276687 -0.005493841 0.3421326 -0.8486102
0001f0 cb 08 62 be fa 56 9b be 0c 49 6f 3e 46 c2 e4 3e
       -0.22073667 -0.30339795 0.23367709 0.4467947
000200 69 ee 9a 3e 42 68 58 bf 3e 06 89 3e 50 65 b4 be
       0.30260018 -0.84534085 0.26762575 -0.35233545
000210 c5 92 a3 bd f0 72 cf 3e ae 04 8b 3f 64 4c 98 be
       -0.079869784 0.40517378 1.0860803 -0.2974578
000220 48 c0 4f bf 23 a3 16 bf 5e 02 24 be b2 e0 1b 3f
       -0.8115277 -0.58842677 -0.16016528 0.6088973
000230 4d 81 95 be 92 06 ab bf ef d6 27 bf c2 fb d7 3f
       -0.2920021 -1.336138 -0.6556234 1.6873705
000240 fd 67 b8 bf 4d ae 82 bf cb d0 1d 3f 74 c8 1c bf
       -1.4406735 -1.0209442 0.6164672 -0.6124337
000250 a0 d7 a4 bf 54 38 3a bf ce 68 a4 3f 02 c6 85 bf
       -1.2878304 -0.727422 1.2844484 -1.0451052
000260 e8 12 94 3f f5 cc 01 bf 85 9a 40 3e 15 a9 16 bf
       1.156827 -0.50703365 0.18808945 -0.5885175
000270 ab b5 41 40 a3 0a d9 bf 2c 7c 08 c0 83 66 c1 3e
       3.0267131 -1.6956371 -2.1325788 0.37773523
000280 7b e7 f4 bd c1 77 6e 3f 32 4f 85 3e 25 c3 b9 3d
       -0.11958214 0.9315148 0.26036984 0.09070424
000290 cb bd 80 3f 7e 22 60 bd 6f c4 fd 3e ca ba 74 be
       1.005792 -0.054720394 0.4956393 -0.2389938
0002a0 8c c8 c6 be c9 ed b9 3e 92 4f 1a bf b3 2d a5 bf
       -0.3882488 0.36314228 -0.60277665 -1.2904571
0002b0 0e eb 5c bf e3 92 8c be c8 ef 0a bf 98 a0 3c 3f
       -0.86296165 -0.27455816 -0.5427213 0.73682547
0002c0 cd 1e 76 bd a7 e7 e0 3d 29 4b 29 3f b6 c0 0f 3f
       -0.060087968 0.10981684 0.6613031 0.5615343
0002d0 ff 03 12 be 0d d4 19 40 43 2e 71 be 18 07 fe bf
       -0.14259337 2.4035676 -0.23552804 -1.9845915
0002e0 a4 45 92 3f 5a 38 93 bf f7 ca 97 3f a4 8c 3f 40
       1.1427503 -1.1501572 1.1858815 2.992959
0002f0 35 51 c6 be 81 14 0f c0 13 0d a4 bf 7a 22 af 3f
       -0.3873383 -2.2356265 -1.281649 1.3682396
000300 0e da fb 3d 31 10 4e 3f 1f 4b a6 3f fb d6 86 3f
       0.1229745 0.80493456 1.2991675 1.0534357
000310 fa a1 41 bf 0d 11 9c bf 4e af 15 bf de 2b 00 bf
       -0.7563778 -1.2192703 -0.5847062 -0.50066936
000320 ba 85 f5 be 87 45 25 bf 65 a7 cc be aa 1d 16 c0
       -0.47953588 -0.64559215 -0.39971462 -2.3455606
000330 dd b5 7d be 85 5e 55 bf 24 be 0e bd cc ff 81 3d
       -0.24776407 -0.8334735 -0.0348493 0.063476175
000340 ad 3d c4 bf a8 fd c1 be cc 9a 62 3e ad ed 2e 3e
       -1.5331322 -0.37888837 0.22129363 0.17082854
000350 2d ed 06 3e df 67 0d 3f 83 5f 9e be dd 03 4e 3f
       0.13176413 0.5523662 -0.30932245 0.80474645
000360 a1 4a 17 3f 44 4f 40 bf a9 ed 3f be aa a9 09 be
       0.5909825 -0.7512095 -0.18743004 -0.13443628
000370 64 2e f8 bf 25 06 74 3f b5 81 0f 40 06 d3 1d 40
       -1.9389157 0.95321876 2.2422917 2.4660048
000380 7b 6b f7 bf bc eb e2 bf 8d 2c f8 bf 98 37 13 3f
       -1.9329675 -1.772819 -1.9388596 0.57506704
000390 07 46 ea bb 55 f3 8d bf d0 3a 0b 3e a2 5e 4e 3f
       -0.007149461 -1.1089884 0.13596654 0.8061315
0003a0 d4 d3 88 bf d3 23 b7 3d a2 01 d4 be 7b 52 8e 3e
       -1.0689645 0.0894238 -0.41407496 0.27797303
0003b0 33 ae 3a 40 42 3a 5b 3d 60 02 0e be 07 f8 c1 bf
       2.9168823 0.053522356 -0.13868093 -1.5153817
0003c0 07 1c d0 3f fc 24 13 3f 6f 52 56 3f 52 2c fe bd
       1.6258553 0.5747831 0.83719534 -0.12410797
0003d0 d9 f2 f8 3e 69 51 51 bf 03 9c 53 3e 62 3d 8a bf
       0.48622778 -0.8176485 0.20664982 -1.0799983
0003e0 4e d6 12 be 1d 8a bd bf b0 b8 98 3e e8 95 21 bf
       -0.14339563 -1.4807774 0.29828405 -0.63119364
0003f0 c8 9b a3 be 38 9b 14 bf 32 fc 60 3e da 7b 4f 3e
       -0.3195479 -0.58049345 0.21971205 0.2026209
