NN/analysis/results/sparse_dfa1/W1_10_3.npy (npy, 314128 bytes, 1 tensors)

array f4 [785, 100]
00000000: 0a4b ac3c 4a6e a6bc aeda b5bc 0099 9a3b
00000010: ee34 78bc 9c01 673c e471 603c 4099 54bc
00000020: e626 5ebc dc7c 3d3c 1c71 a93c 9c16 643c
00000030: dcc6 e6bc 408c f7ba 00b9 16bb 38d0 3ebc
00000040: 18e3 c43c 8087 003c 6a56 de3c 8a5a d23c
00000050: 6a04 ecbc d9ce 063d 1825 f5bc 5012 373b
00000060: b865 db3b 80c4 2fbc 00d4 34bb 2818 cd3b
00000070: 3826 a0bb ce31 8fbc 1285 e13c 6600 17bc
00000080: 4055 753c 5c88 1a3c be1d dc3c 002c ff3b
00000090: 9014 a83b 58af c9bc 3e29 de3c 3002 673c
000000a0: d83f 8a3c 128f 4dbc c81e 163c 089d 333c
000000b0: 5c4e d4bb 40cd 333c dcd4 4b3c 154d 0ebd
000000c0: d8b4 a63b 5304 c6bc 8074 cabc a5bf 8cbc
000000d0: 0047 be3b bc43 a53c f8b8 ddbc 9c11 163c
000000e0: 9c6c 39bc e547 9bbc 6eec f5bc 40de d7bc
000000f0: 80bb 773a 0af9 883c f053 80bb 0acb 4fbc
00000100: 4a8f 5dbc 17b0 0ebd bc80 87bc f37d a3bc
00000110: ae86 f6bc 92da 63bc f075 113c 6a65 06bd
00000120: 983f d23c 1043 f83b 8a38 3cbc cab5 a6bc
00000130: e53d 96bc 2e7b cb3c e67e 60bc a8d7 8c3b
00000140: 3c29 febc f2ba a43c eead ac3c 4878 f93b
00000150: 92ab 3dbc b819 923b 7090 15bb f851 6dbc
00000160: b07b 173b 7c00 b6bc 1856 bd3c 32d8 bd3c
00000170: bcdc 953c 5f71 043d 4592 97bc 03dc 10bd
00000180: 73a8 c9bc 0032 743c e0e1 ddbc b866 49bc
00000190: 1c56 11bd 33e5 cfbc ae15 a13c f840 a63c
000001a0: 01f1 f4bc f5ad 04bd dc76 c2bc 6ab7 fe3c
000001b0: 58cc b53b 2664 6bbc 5036 60bb 0e48 d0bc
000001c0: 70e9 ebbb 00b4 1eba 50c2 4d3b 9a45 0ebd
000001d0: 4099 0d3a 6ee8 43bc c6dd b43c fe51 09bd
000001e0: d446 613c 787c 51bc ca11 ce3c 2864 87bb
000001f0: 1495 0f3c ab21 033d b097 44bb 8e55 82bc
00000200: 0038 363b 38f9 7f3c 9362 d2bc e5cd 003d
00000210: 6ec4 983c 2e1e 20bc 92ce c43c 69f2 0c3d
00000220: 9425 543c 00b7 b239 2e86 4ebc 6ecc 13bc
00000230: 52ed e93c 2a47 d03c 9821 ac3c d220 863c
00000240: 106e b63b c030 263c d36c 083d c069 9d3c
00000250: 8042 ff39 e57d 87bc e5eb e3bc e055 e53b
00000260: 1823 913c ae6a 13bc 725f 883c 8838 5c3c
00000270: 50fa 00bd aac1 973c f8b5 ad3c 14eb 163c
00000280: 1356 d4bc 90e0 153b 8015 a639 7062 eabb
00000290: 7ce3 b1bc 251f 0ebd d30c b6bc 9f47 0c3d
000002a0: c87f 803b 1435 a2bb 8012 86bb c045 8abc
000002b0: c0cd 76ba b062 3fbb c09f df3a 10cc fc3b
000002c0: b08d 5c3c f874 7d3c ae89 0abc 40d1 02ba
000002d0: 5c77 febc a5aa a3bc 784f 4e3c 701e 76bb
000002e0: 6ec5 ffbc 2eba 8e3c 5cda 833c a0fd ca3c
000002f0: dc04 9a3c 9c18 f1bc 20d2 33bb a48f babb
00000300: 63e6 01bd 1eb5 00bd 98f4 ddbc 95c0 07bd
00000310: 451c 04bd c8e7 e73b e0c3 c1bc aece 45bc
00000320: 48be ac3b 4377 0bbd eeac 78bc 73f3 c7bc
00000330: 5fb2 073d 2889 da3b ce7e 953c c55f a4bc
00000340: b89a 66bc ee47 b63c 666f a73c 3cd9 b0bc
00000350: d4cf 153c 134a f5bc b74d 033d 4667 f83c
00000360: 4000 80bc 0040 a3b8 2e5d 9ebc 5aa9 0cbd
00000370: aa35 f13c dc7c 0a3c 601f d83a a68b 69bc
00000380: 8e18 fcbc 310c 023d c0e1 88ba 4b48 073d
00000390: aa28 98bc fccd f5bc c856 f93b 76ea ea3c
000003a0: 60a5 b53c 1cc9 0d3c b8b5 64bc 40cf 92bc
000003b0: 484b a33b e0cf 003b 2005 89ba d3fe e5bc
000003c0: 6ec1 1abc 9c8c 00bc f8a7 bbbc a02a 833c
000003d0: b82d 353c 6617 fc3c f0ce f7bb f85e b0bc
000003e0: f3d8 c2bc 701e 4bbb 7072 ffbb 94de 3e3c
000003f0: 135b 11bd dc37 cabb 1a81 0cbd 2a07 cc3c
0.021031875 -0.020316262 -0.022199001 0.004717946 -0.015149338 0.014099505 0.013699029 -0.012975991
-0.013559079 0.011565413 0.020683818 0.013921406 -0.028170995 -0.0018886402 -0.0022998452 -0.011646323
0.024034068 0.007844806 0.027140815 0.025677938 -0.028810699 0.03291211 -0.029924914 0.00279345
0.0066954754 -0.010728002 -0.0027592182 0.006258983 -0.0048873685 -0.017479803 0.027529273 -0.009216404
0.014973938 0.009431925 0.02686965 0.0077872276 0.0051294044 -0.024619743 0.027119275 0.014099643
0.016876146 -0.012546318 0.009162612 0.010962732 -0.0064790677 0.010974228 0.012440886 -0.03474148
0.005087476 -0.024171984 -0.024713755 -0.017181227 0.0058068037 0.0201739 -0.027065739 0.009159472
-0.011317398 -0.01895518 -0.030019965 -0.026351094 0.0009450242 0.016720314 -0.003916256 -0.012682686
-0.013522932 -0.0348359 -0.016540878 -0.019957518 -0.030093517 -0.013907092 0.008878216 -0.03281156
0.02566509 0.007576354 -0.011488089 -0.020350356 -0.01834006 0.02483901 -0.01370213 0.004298169
-0.031025521 0.020108674 0.02107903 0.0076132156 -0.01157655 0.0044586323 -0.0022821687 -0.014484875
0.0023114495 -0.022217028 0.023112342 0.023174379 0.01829373 0.03233468 -0.018502364 -0.03536607
-0.024616456 0.014904499 -0.027085245 -0.012292556 -0.03548251 -0.025377845 0.019663658 0.020294651
-0.029900076 -0.03239246 -0.023738317 0.031093318 0.0055480413 -0.014367139 -0.003421206 -0.025424983
-0.007199459 -0.0006054044 0.0031396337 -0.034734346 0.0005401559 -0.011957271 0.022078406 -0.03352546
0.013749797 -0.012786023 0.025154967 -0.0041318126 0.00876357 0.03201453 -0.002999764 -0.015909936
0.0027804375 0.015623383 -0.02568177 0.031446356 0.018648352 -0.00977282 0.024024282 0.034410868
0.012948412 0.0003408715 -0.012605233 -0.009020908 0.028555546 0.025424559 0.021012112 0.016373072
0.0055673197 0.010143459 0.033306908 0.019215465 0.00048686936 -0.016539523 -0.027822444 0.0069987625
0.01771693 -0.008997602 0.016647074 0.0134412125 -0.031488717 0.018524963 0.021204934 0.00921132
-0.02591995 0.0022869445 0.00031678006 -0.007152848 -0.021714918 -0.03469767 -0.022222912 0.03424799
0.0039214827 -0.004950175 -0.004091561 -0.016878963 -0.00094148144 -0.002920311 0.0017061159 0.007714756
0.013461515 0.015469782 -0.008455677 -0.0004990287 -0.031062774 -0.01997883 0.012592189 -0.0037554763
-0.031222071 0.017422762 0.016095333 0.024779141 0.018801145 -0.02943068 -0.0027438477 -0.005693393
-0.031713855 -0.031422727 -0.02709417 -0.033142645 -0.032253522 0.007077191 -0.02365297 -0.012073202
0.0052717067 -0.034049284 -0.015177948 -0.024408078 0.033129092 0.0066691823 0.018248942 -0.020065198
-0.014074974 0.022251096 0.020438861 -0.02158796 0.009143788 -0.029942548 0.032056537 0.030322682
-0.01562512 -7.7843666e-05 -0.01933154 -0.034341194 0.029444534 0.00845262 0.0016488843 -0.014254486
-0.030773427 0.031749908 -0.0010443255 0.03302793 -0.018574078 -0.030005448 0.007609222 0.028676253
0.022173584 0.008653905 -0.013959341 -0.01792109 0.0049833395 0.0019655153 -0.0010453798 -0.028075611
-0.009445531 -0.007846024 -0.022907242 0.016011536 0.0110582635 0.030772876 -0.0075625107 -0.02152966
-0.02378509 -0.0030993484 -0.0077956244 0.011649746 -0.035487246 -0.0061712097 -0.03430281 0.02490576
