mnist_bp1/analysis/sparse_dfa/W1_116_2.npy (npy, 78628 bytes, 1 tensors)

array f4 [785, 25]
00000000: c082 75ba 4894 183c fec1 8bbc c2ab aebc
00000010: 64a2 373c d9e1 cbbc c422 69bc 5c2b 33bc
00000020: 221c cbbc 8fdf 93bc 1a05 0b3d 6cd5 78bc
00000030: 703e 25bb d094 713c 1033 b63b 7c8b a5bb
00000040: 12e5 00bc 4d8d c8bc c22a 013d 323a 4ebc
00000050: ec6a c33c 525c 63bc 18eb 0b3d e208 d03c
00000060: 4057 19bb e832 abbb d8de bb3b 3e35 00bd
00000070: 35a8 b5bc 3c37 c9bb 28bb 04bd 9012 023c
00000080: b0fa 433c 06cd 3bbc 74de 193c 4445 afbc
00000090: 804e e03c 904b 673b 8c8a 293c 68b7 cd3c
000000a0: 545b 1ebc 8060 0bbc bc88 153c 9024 f93c
000000b0: 78e0 fa3c 981e 1a3c e2c9 02bd 0e1c 8f3c
000000c0: f11d fbbc c1d0 fcbc f80e b43b 5477 843c
000000d0: 40f5 29bb 4027 6f3b 3283 0f3d d84a e93c
000000e0: 60bb 98ba b0cf 313b 8a52 db3c 00e7 213c
000000f0: 96bb 0d3d 4077 7d3a 2072 e2ba 86db 003d
00000100: ccbb 193c 5e45 d5bc 12dd 10bd c8c8 063c
00000110: 59e6 0dbd 6e90 8c3c 705d 643c 6067 3bbc
00000120: 1c35 b2bc 3e6b c63c 0095 db3a d237 ce3c
00000130: 2ed9 d03c 00e0 623a 8329 0abd b684 dabc
00000140: 7ca6 0d3d 0c96 0fbd 70e8 353b d217 2bbc
00000150: 54ff e83c 8add 0e3d 4048 b43c 6c12 d3bc
00000160: 58ee 823c 722e 42bc 79f9 e8bc 785e ff3c
00000170: f817 373c 1423 adbc e023 003c d0f2 233b
00000180: cecc cbbc a023 1d3b b25c 06bd 109b 753b
00000190: dc93 6d3c 1812 1cbc 5011 febb 6022 673c
000001a0: 3079 f13c 6a1b e2bc 40cb 63bc 6c0e f83c
000001b0: b041 ea3c 80a8 2dbb 385f e0bc c9d7 e6bc
000001c0: e4fc 7c3c 4051 27ba 6248 41bc e07d 203c
000001d0: 0c68 d4bc c2e7 adbc b63d b93c 3c94 d3bc
000001e0: 5827 8f3b b22e 34bc e005 f8bc f294 103d
000001f0: 34d7 ff3c f056 e63c 5cf6 4e3c 40a6 b7ba
00000200: e419 0d3c 44a5 ff3c e2e0 afbc 121f ddbc
00000210: 0846 a2bc 20f0 903b 8a62 d9bc feab 33bc
00000220: be2f bd3c 5cfc e33c 509d f9bc d478 d03c
00000230: a866 023d 6f87 eabc 44a3 363c 9970 01bd
00000240: 8ce8 073d 840e 0b3c 7cf2 97bc 3088 2b3c
00000250: 70a3 4d3c c09c b6ba ac92 633c 30dc efbc
00000260: 38f0 bbbc 88f8 2fbc 366f ad3c 3804 9abc
00000270: 0c9f 05bd 1b47 00bd f0d1 11bb d471 363c
00000280: 7011 a3bc 2836 9c3b 9949 f1bc 8464 3dbc
00000290: 980c 8ebb b00b a23b b623 f2bc 83b8 06bd
000002a0: 3067 933c 02a3 863c aabb 5fbc 046a 9dbb
000002b0: afe9 e7bc 3a5d a33c 0433 693c 8c30 ddbb
000002c0: 803e afba 280a cebc eb1f 84bc 60c7 103b
000002d0: ba3a c93c 00a2 b039 d51d 83bc 5dcf 97bc
000002e0: 7676 c13c 0077 793c 520b b03c 207e 18bb
000002f0: b466 16bc cccd cf3c e0e2 803c 34b9 08bd
00000300: 91cf 11bd c0b2 2d3c d4ec 97bc c008 69bc
00000310: 10cd 083c 4200 b7bc de28 043d c8dc 533c
00000320: 8c94 cf3c ac51 843c 3a64 af3c a4bf 5e3c
00000330: 9a62 c73c 26f1 873c 54c8 fcbc 4c0e 8ebc
00000340: 42d3 00bc 2280 8fbc 9658 cf3c e087 ecbc
00000350: b8cb 1e3c 7c89 103c 4c6d ee3c b021 593b
00000360: 7e97 2bbc 80a6 1abb cad5 053d 78a7 6b3c
00000370: 6459 b23c 7451 01bd 9ac6 cf3c 60db acbc
00000380: 30ea e13b 9822 44bc 1428 ef3c 34f8 aa3c
00000390: fd67 c0bc 61e0 a2bc 1e99 ddbc 14f3 f33c
000003a0: 248a cf3c c81c 10bd 4e26 59bc c4d7 913c
000003b0: fe6d 9f3c c67a 5fbc e00a d3bc 6252 c53c
000003c0: ed2d 0fbd 1c8e 1d3c 4693 3dbc 304b 163c
000003d0: 2e45 1abc 8dce 8dbc b058 f03b e47c dbbb
000003e0: 9eea 963c fd0c 88bc 5005 8b3b 80dc e33c
000003f0: 2a58 21bc 885a b2bc 00b9 de3b a866 be3c
-0.00093654916 0.009312697 -0.017060276 -0.021322135 0.011208151 -0.024887966 -0.01422948 -0.010935631
-0.024793688 -0.018050937 0.033940412 -0.0151876025 -0.0025214218 0.014744952 0.0055602863 -0.005052028
-0.007867115 -0.02448144 0.031534918 -0.012587117 0.023854695 -0.013876991 0.03415975 0.02539486
-0.0023397952 -0.0052245744 0.005733352 -0.031300776 -0.022174934 -0.0061406177 -0.03240505 0.007938996
0.011961624 -0.011462456 0.009391416 -0.021395333 0.027381182 0.0035292841 0.010347974 0.025111869
-0.009665329 -0.008506894 0.009126838 0.030412942 0.030624613 0.009406708 -0.03193081 0.017469432
-0.030653926 -0.03086126 0.0054949485 0.016170181 -0.0025933534 0.00364919 0.035037227 0.028478071
-0.0011652522 0.0027131848 0.026772756 0.009881735 0.034602724 0.0009668954 -0.0017276444 0.031459354
0.009383153 -0.026034053 -0.03536708 0.008226581 -0.034643505 0.017158713 0.013938293 -0.011438221
-0.02175384 0.024221059 0.001675278 0.025173102 0.025494184 0.00086545944 -0.033730995 -0.02667461
0.0345826 -0.035055205 0.0027756952 -0.010442691 0.028442062 0.034879245 0.022007108 -0.02576562
0.015982792 -0.011851894 -0.02843927 0.031172976 0.011175148 -0.02113489 0.007821053 0.0025016554
-0.024877932 0.0023977533 -0.032803245 0.0037476458 0.014500584 -0.009525798 -0.0077535287 0.014107317
0.029476732 -0.027600963 -0.013903439 0.030280314 0.028595775 -0.002649814 -0.027389154 -0.028179066
0.015441153 -0.00063826516 -0.011797043 0.009795636 -0.02592852 -0.021228675 0.022612434 -0.02582752
0.004368704 -0.010997461 -0.030276239 0.035298295 0.031230547 0.028117627 0.012631979 -0.0014011338
0.00861213 0.031206734 -0.021469537 -0.026992355 -0.019808784 0.0044231564 -0.026536245 -0.010966299
0.023094054 0.027830295 -0.03047052 0.02544824 0.031836182 -0.028629033 0.011147324 -0.031601522
0.03318076 0.0084873475 -0.018548243 0.010469481 0.012551174 -0.0013932213 0.01388995 -0.029279798
-0.022941694 -0.010740407 0.021171194 -0.01880084 -0.032622382 -0.03131781 -0.0022250377 0.011135537
-0.019905776 0.004767198 -0.02945404 -0.011559609 -0.0043349974 0.004945241 -0.029558044 -0.032890808
0.01799354 0.01643515 -0.013655582 -0.004803898 -0.028309671 0.019941915 0.0142333545 -0.006750172
-0.0013370067 -0.025151327 -0.0161285 0.0022091493 0.024564136 0.00033690035 -0.016005436 -0.018531496
0.023616057 0.015226126 0.021489773 -0.0023268536 -0.00917976 0.025366686 0.015733182 -0.03337975
-0.03559834 0.010601699 -0.018545546 -0.014223278 0.008349672 -0.02233899 0.032265536 0.012931056
0.025339387 0.016152225 0.021410096 0.013595495 0.02433901 0.01659448 -0.030857243 -0.017340802
-0.007862868 -0.017517153 0.025310796 -0.028873384 0.009692125 0.008821841 0.029104851 0.0033131652
-0.01047313 -0.0023597777 0.03267459 0.014383189 0.02177114 -0.03157182 0.025363255 -0.0211007
0.0068943724 -0.011971138 0.029193915 0.020870306 -0.023487085 -0.019882383 -0.027050551 0.029778995
0.025334425 -0.035183698 -0.013253761 0.01780308 0.019461628 -0.013640111 -0.025762022 0.024087135
-0.034955908 0.009616401 -0.011570757 0.0091732 -0.009415908 -0.017310405 0.007334791 -0.0066982377
0.018422421 -0.016607756 0.0042425767 0.027815104 -0.00984768 -0.021771684 0.006796956 0.02324231
