mnist_bp1/analysis/sparse_dfa/W2_107_1.npy (npy, 1168 bytes, 1 tensors)

array f4 [26, 10]
00000000: 8830 12c0 ade3 aebf 0752 e2be 4c5d b7bf
00000010: 70e4 43be a8d3 1cbf 74fd d2bf 02c4 56bf
00000020: be31 37c0 2f05 15be 874d 84c0 c09a c2bf
00000030: 3a97 7abf 1607 67c0 6e5e 96bf 5b57 9541
00000040: 431b 183f ccbf eabf 131b 9fbf 7067 c1bf
00000050: ddbe 3540 48a2 903f 5ea6 1a40 925c cabf
00000060: dbcd 8f40 eda3 8840 97cb b1c1 16e9 0240
00000070: 011f 8740 5dca c340 dd56 cbbf 9a5b f1bf
00000080: f4df 5641 1305 91c0 b5a5 66c0 29f1 09c0
00000090: e1b0 6ac0 3beb c33f f11f 01c1 db78 08c1
000000a0: 0d2c 26c0 2fcb 4a41 7323 9fc0 a9ed bcc0
000000b0: a8f2 12be c77f 05bf 0860 9cbf a19d 19c0
000000c0: 3d61 8fc0 72e6 02c0 b4ea 4241 2952 bfbf
000000d0: a4ea 77bf 97ea 2d3f 5cc1 c0be 858c b1bf
000000e0: 4264 c6be bb1c 873f 3615 813f e1f8 83be
000000f0: 553e cec0 eba3 6ac0 d581 22be 6d37 d3c0
00000100: 415a 22c0 f1d0 38c0 ff75 b3bf bb84 4b41
00000110: 98b2 9fc0 7e1b bbc0 e9af 643f 5df4 c83f
00000120: 12bf b5bf 9f25 193f a980 8640 437c 523f
00000130: 5e2c 1140 8360 51c1 51f7 c83f f616 643f
00000140: cef7 7540 db47 1ebe 3ee8 52c1 848e 3f40
00000150: dd26 a840 f463 0ac0 5214 bf40 4a8e 96bf
00000160: 2fa5 4740 fba4 0541 cf38 0fc0 9202 36c1
00000170: af00 2c40 6eca 8a40 5ed8 58c0 c465 0240
00000180: c211 f53e bc26 bf3f edc4 1c40 3e94 6cbf
00000190: d59b 1c3f 76dc 8840 2dc1 0640 0ee1 4dc0
000001a0: ba78 1d3f eaec 5740 d3c8 ba3e 2ed2 03c0
000001b0: f2e6 6bc1 6643 1140 2bfa 6c41 8b92 b3bf
000001c0: d85f 0cc0 a45b 0bc0 1239 d5bf bb8e e1c0
000001d0: 778e 15c0 d8f7 eb3f a8d0 ccbf 0971 16c0
000001e0: b130 07c0 b737 9fbf d95c 913d 15d2 d4bf
000001f0: c60a 4f3f cafe 3f3f 9063 943e 631e 4ebf
00000200: 3594 68be 3d24 a3bf e661 cebd f28b 003f
00000210: 24b4 1b41 bc0a 92bf 20bb fd3d 630c babf
00000220: ad23 293e 1cf8 5cbf 02e1 cbc0 8007 aebf
00000230: 6009 de3e fb89 993e 9943 35bf 5719 1740
00000240: 468a bcc1 69de e13e 2b2b a240 8764 4e3f
00000250: d106 9d40 fea2 be40 13fb 43c0 2456 753f
00000260: fe39 54c0 f802 3541 606e babf 306d 1e40
00000270: e307 8ec0 424f 333f 1dc1 02c0 de62 27c0
00000280: a6bf 58c0 b6af 5ebf 1910 21c0 5b94 e5bf
00000290: 1343 1f3e b9f4 0abf bc6c 64be f6dd 8c3e
000002a0: b01f 01bf 02d4 4c3e b64c d73d 26cd 81be
000002b0: 9710 363e f02c b1bf be90 9ebf 6197 173f
000002c0: 1981 de3c 9b0c 3dbf 7d3b 5241 af1f 3abe
000002d0: a801 0fc0 64a3 0abf bf55 cc3f 58dc 14c0
000002e0: ff27 3b40 5f10 9dc1 abd2 b53f f7fe b83f
000002f0: c945 7dc0 ff9f fe3f 5717 2ac0 da93 93bf
00000300: dd96 5b3d 3e01 12c0 74fa f83e 0393 9e40
00000310: ced7 1b3f c2db f5be da18 6e3f 1c55 86be
00000320: 2fca ebbf 0615 30bf 6010 cdc0 fad2 24c0
00000330: d4ac 8a3e 186f debc b28e 303e 513c 833f
00000340: 4c81 9d3f 3835 3b3e 2c4c 56c0 fd9b 6a40
00000350: 6de1 bb3f 8dbe 01bf 1c3e b43e 1d5a bd3f
00000360: 409d d93f 558b 1c3f 835c 2ec0 64f0 b2bf
00000370: 1393 a1c0 a608 a2bf b763 b0c0 b969 8b41
00000380: f737 4bbf a65b 03c1 6d28 b5c0 3787 bfc0
00000390: bb28 f7c0 5585 5e3f 9e14 f3be 4d7a c83f
000003a0: 802f 573f 67f6 d7bf 7afe 1140 684b 6440
000003b0: 0b8e 3140 15d9 eabd 0175 2240 0844 c7c1
000003c0: 47b9 41c0 4d15 f340 4745 3f3e 7da7 8ac0
000003d0: 437b 8240 6c6b b5bf 7f46 75bf c634 283f
000003e0: 7f8e 553f 890a 3f40 e8ee 97c0 471f 05c0
000003f0: 844a cabd 9e87 93c0 dffc a23e a0ff 2ec0
-2.284212 -1.3663231 -0.44203207 -1.4325347 -0.1913011 -0.6126046 -1.6483598 -0.83892834
-2.862411 -0.14552759 -4.134464 -1.5203476 -0.97887003 -3.6098075 -1.1747568 18.667654
0.594166 -1.8339782 -1.2430137 -1.5109692 2.8397744 1.1299524 2.4164042 -1.58095
4.493879 4.2700105 -22.22441 2.0454764 4.2225347 6.1184525 -1.5885884 -1.885608
13.429676 -4.5318694 -3.603864 -2.1553442 -3.6670458 1.5306162 -8.070298 -8.529506
-2.5964386 12.674605 -4.9730773 -5.9040112 -0.14350379 -0.521481 -1.2216806 -2.400246
-4.48062 -2.0453153 12.182301 -1.4946948 -0.9684241 0.6793608 -0.37647521 -1.3871008
-0.38748366 1.0555643 1.0084598 -0.25775817 -6.445109 -3.6662548 -0.1586984 -6.600516
-2.5367587 -2.8877528 -1.4020385 12.719905 -4.990551 -5.847106 0.8933092 1.5699574
-1.4198935 0.5982303 4.2032056 0.8222086 2.268333 -13.086062 1.5700475 0.89097536
3.8432498 -0.15457098 -13.1817 2.9930735 5.254744 -2.1623507 5.9712305 -1.1762173
3.119457 8.352778 -2.2378423 -11.3756275 2.6875417 4.3372107 -3.388206 2.0374613
0.4786511 1.4933696 2.4495194 -0.924137 0.6117528 4.2769117 2.1055405 -3.2168612
0.6151234 3.373835 0.36481342 -2.0597034 -14.743883 2.2697387 14.811076 -1.4029096
-2.1933498 -2.1774683 -1.6658041 -7.048673 -2.3368204 1.8435011 -1.6001177 -2.350649
-2.112347 -1.2438878 0.070977874 -1.6626612 0.80875814 0.7499815 0.2898221 -0.80515116
-0.22712786 -1.2745434 -0.100772664 0.5021354 9.73148 -1.1409526 0.12389207 -1.453503
0.16517515 -0.86316085 -6.371217 -1.3596039 0.43366528 0.29988083 -0.7080627 2.3609216
-23.567516 0.44114998 5.0677695 0.8062214 4.907082 5.9573965 -3.0621994 0.95834565
-3.3160396 11.313225 -1.4564934 2.4754143 -4.4384627 0.7004281 -2.0430367 -2.6154094
-3.3866973 -0.86986864 -2.5166075 -1.79359 0.1555293 -0.5427967 -0.22307104 0.27513093
-0.50438976 0.2000275 0.10512678 -0.25351828 0.17779766 -1.3841839 -1.2387922 0.5921536
0.027161168 -0.7384736 13.1395235 -0.18176149 -2.234476 -0.54155564 1.5963668 -2.3259487
2.9243162 -19.632994 1.4204916 1.4452809 -3.9573843 1.9892577 -2.6576746 -1.1529496
0.05361067 -2.2813258 0.4862858 4.955446 0.60876167 -0.48019224 0.9300667 -0.26236808
-1.8421077 -0.6878208 -6.408249 -2.575377 0.27084982 -0.027152583 0.17241934 1.0252782
1.2305083 0.1828202 -3.3483992 3.6657708 1.467817 -0.5068138 0.35203636 1.4793125
1.7001114 0.61150104 -2.7243965 -1.3979611 -5.0492034 -1.2658889 -5.512172 17.426622
-0.7938227 -8.209875 -5.661185 -5.9852557 -7.723722 0.869222 -0.47476667 1.5662323
0.84056854 -1.6872071 2.281157 3.5671024 2.7742946 -0.11467186 2.5383914 -24.908218
-3.0269334 7.59635 0.18678771 -4.3329453 4.0775466 -1.4173408 -0.95810694 0.65705526
0.83420557 2.985018 -4.7479134 -2.080034 -0.09877494 -4.610305 0.3183355 -2.734352
