mnist_bp1/analysis/sparse_dfa/W2_16_2.npy (npy, 4168 bytes, 1 tensors)

array f4 [101, 10]
00000000: bb03 71be ad0d 84be 3724 35bb 0090 1cbe
00000010: 1a29 e43f 72e0 e9be 9cde 0e3f 5b21 933f
00000020: 3603 c13e 0c64 183f 66cc 25c1 963b 883f
00000030: 1054 b9bf b1a1 1f40 9ee2 4740 d8cc 8c40
00000040: 4c9d 6f3f 3866 42c0 fbf9 663e b70c 893e
00000050: a01c 05bf 5995 953f d76c 5bbf 3ec5 933d
00000060: 4e80 7e3f a101 ebbe 40e4 63c0 d1fa 7ebd
00000070: 8349 aa3c 3b19 26c0 463e 2bbf 6e80 82be
00000080: 6871 80bf 59d2 b6be ea60 7d3e 05d6 0dbf
00000090: c7a6 0cc0 7d6a 2a3e b320 aabf 092f 9cbf
000000a0: 1f9e 85be 9502 4cbf 5fb4 303f efac 85bf
000000b0: d13f 3e3f 33fc 03bf 57b9 3c3e 154f 73bf
000000c0: cf35 e63f a0fc edbe 2c9f 29bf 20f4 e13e
000000d0: 6410 d3be f7b6 41bf 8769 263f 2bc4 9dbe
000000e0: 9ea8 5ebe 0093 14bf 33c1 a5bd 6af9 b6bf
000000f0: 87e8 c8bf b12c 19c0 ca57 c4bf 5a86 39be
00000100: c1ad 37be dc5b 84bf a692 d8bf 8626 c43f
00000110: 3ac3 b93d e9b8 0041 b58e 213f 75d0 ecbe
00000120: d271 b83f 4fde dabe bdb0 59c1 243e 923f
00000130: 8bec 8740 78a6 cb3f 73e5 9840 231b 0e41
00000140: c658 65c0 2791 03bf 9743 91bf 5f34 0ac0
00000150: 78dc 8cc0 adbc 6041 1d1a 8bbf a62d 4140
00000160: f573 11c0 4c87 a13f ee5a 13c0 e85f a93f
00000170: 9fd6 87bf 1a49 56bf 5448 823e 4cc2 52bf
00000180: 172e 7540 25c9 9abf 383b a03e 93fb b5be
00000190: 47a4 27bf 1541 b7be 8cd4 1ebe aeb9 a8bd
000001a0: 5bfd be3e 93ba 0fbe 1fa5 82be 58b7 5a3f
000001b0: a5ab e73e 241c 073e 37a0 4741 d248 973e
000001c0: c634 87c0 25e2 46c0 25a0 b33f a996 fcc0
000001d0: 5dd4 01c0 ee6d 2540 fa7b 9bc0 4a38 bbbf
000001e0: 6735 81bf 15ed 713e 468e e840 862c a0bf
000001f0: 7fc7 2e3f 0101 a13f a6d2 97bf 1db4 febf
00000200: 828b 44c0 d5f0 adbf a5fd 403d 307e 11c1
00000210: 5a4d e03f 6c86 2d40 8b73 fbbf 9848 0e3e
00000220: 9671 203f 9b41 793f 4c5a 783f 3a18 cebd
00000230: c022 f73e d1b4 3ac1 a55f b03f 809f bc40
00000240: 3f04 36c0 761b 6a3f 2150 f23f 080e 953f
00000250: 42bb 4940 e678 4cbd 1305 5fbd 4bfa 323f
00000260: da8b 48bf fcc7 22be ba2f eb3e 257b 953e
00000270: 02a7 cb3e 7695 d83e d9c5 23bd 2cf6 92bf
00000280: 88d4 84be 8c93 953f 5a61 04bf e5d7 29bf
00000290: cd14 10be ab8d 033f 372a 573f a93a d4be
000002a0: 44bc 3bbf 8e4e 1f3d 8c8d 06c0 6f42 b43e
000002b0: e38b 4a3f 500c c23f bc62 db3f 06ab af3f
000002c0: c6af d8bf c6ec d73f fc8f 5bc1 d975 14c0
000002d0: 7651 803e 01c2 f63f bdb6 99c1 478f 6d40
000002e0: 904f 9340 09b7 e23e f440 8240 bbed 59c0
000002f0: a8d7 2641 f059 be40 b180 03c0 a5f8 3a3e
00000300: 401e cac0 45f1 4141 f5ae 8cc0 93e5 5740
00000310: 84b1 b5bf 8b5e 32c0 72a9 82c0 c2a3 a53f
00000320: dcf4 71c0 0492 903e 6421 91bd 9466 58bf
00000330: 899a 873e 2c6d 15c0 89b9 42bf dfcd bdbe
00000340: 7c29 42bf fa5a d5be e18b 3abf 8931 183f
00000350: 7778 943f f05d 81be 35a3 f93e a66c 93be
00000360: b4ee b1be 36ea 8bbf e6e3 65bf c342 a7bf
00000370: a220 85be 6265 a63e d2f8 82be 4595 1ebf
00000380: 8e74 3e3f 9784 81bf 6279 1dbe 47fc 3ebe
00000390: 810b 8d3e 3bc0 7a3f b1d3 8140 8ed9 a340
000003a0: caf5 de40 b31f 4f40 8f7c 8240 f91b 88c1
000003b0: 3dcc 28c0 6821 823f e7be a340 ef2b 973f
000003c0: 127e 78c0 19f7 3a3f 7554 01c0 6e02 cc3e
000003d0: 0534 40bf 9282 3e3f 55a2 cabf 1fe4 fc3e
000003e0: 1a1f 59c1 d6b1 7dc0 260f e9be 3d36 543e
000003f0: 99a0 57bf 3838 13c0 2475 813f 65ed c2bd
-0.2353658 -0.25791684 -0.0027639994 -0.15289307 1.7825043 -0.4567905 0.55808425 1.1494554
0.37697762 0.5952766 -10.362402 1.0643184 -1.4478779 2.4942439 3.1232066 4.4000053
0.9359939 -3.037489 0.22556297 0.26767513 -0.51996803 1.1686202 -0.8571295 0.07215355
0.9941453 -0.4589968 -3.5608063 -0.062250916 0.020787006 -2.59529 -0.66891897 -0.2548861
-1.0034609 -0.35707358 0.24744001 -0.5540469 -2.1976793 0.16642185 -1.3291229 -1.2201854
-0.260972 -0.7969144 0.69025224 -1.04434 0.74316126 -0.515567 0.18430077 -0.95042545
1.7985171 -0.464818 -0.662585 0.44131565 -0.41223443 -0.7566981 0.6500477 -0.30813727
-0.2174401 -0.58036804 -0.080934905 -1.4294865 -1.5695962 -2.3933527 -1.5339291 -0.18117657
-0.17937376 -1.0340533 -1.6919754 1.5324256 0.0907044 8.045144 0.6310838 -0.4625279
1.4409735 -0.42747733 -13.605649 1.1425214 4.247625 1.5910177 4.778009 8.881625
-3.5835433 -0.5139336 -1.1348752 -2.1594465 -4.4019127 14.046063 -1.0867344 3.0184112
-2.2727025 1.2619414 -2.302425 1.3232393 -1.0612372 -0.83705294 0.25445807 -0.82327724
3.830938 -1.2092634 0.3129518 -0.35543498 -0.6548504 -0.3579184 -0.15510768 -0.082385406
0.3730267 -0.14036016 -0.25516602 0.8543601 0.45248142 0.13194329 12.476615 0.29547745
-4.225192 -3.1075528 1.4033247 -7.893391 -2.0285866 2.5848346 -4.858884 -1.4626553
-1.0094422 0.23625596 7.2673674 -1.2513587 0.68273157 1.2578431 -1.186116 -1.9898716
-3.071015 -1.3589121 0.047116894 -9.0933075 1.7523606 2.7113295 -1.9644636 0.1389488
0.6267332 0.9736573 0.9701278 -0.100632146 0.482687 -11.669145 1.3779188 5.89447
-2.8440092 0.9144815 1.8930703 1.1644907 3.1520543 -0.049919985 -0.0544482 0.69913167
-0.78338397 -0.158966 0.4593485 0.29195514 0.39775854 0.4230153 -0.039983604 -1.1481376
-0.25943398 1.1685653 -0.51711047 -0.66345054 -0.14070435 0.51388043 0.8404879 -0.41451004
-0.73334146 0.038893275 -2.1023893 0.35206935 0.791197 1.5160007 1.7139506 1.3724067
-1.6928642 1.6869133 -13.722652 -2.3196929 0.2506215 1.9277955 -19.214228 3.71187
4.603462 0.4428027 4.070429 -3.405135 10.42765 5.9484787 -2.0547297 0.18258913
-6.3161926 12.121404 -4.396357 3.373387 -1.4194798 -2.7870204 -4.0831842 1.29406
-3.78057 0.282364 -0.07086447 -0.8453152 0.26485088 -2.3347883 -0.76064354 -0.3707113
-0.7584455 -0.41670972 -0.7286969 0.59450585 1.1599263 -0.2526698 0.4875733 -0.2879383
-0.3475243 -1.093085 -0.8980087 -1.3067249 -0.2600146 0.32499224 -0.2558046 -0.6194652
0.743966 -1.0118588 -0.15378335 -0.18650924 0.2754784 0.9794957 4.057091 5.120307
6.9675035 3.2363098 4.077705 -17.013659 -2.6374657 1.0166445 5.1170535 1.1810282
-3.8826947 0.7303329 -2.0207798 0.39845604 -0.75079376 0.74417984 -1.583079 0.49392793
-13.570093 -3.9639792 -0.4551937 0.20723815 -0.8422943 -2.3003063 1.0113873 -0.09517936
