mnist_bp1/analysis/weights/W1_1896_2.npy (npy, 78628 bytes, 1 tensors)

array f4 [785, 25]
0.049303405 0.0011011213 0.043772392 0.10835389 0.01499974 -0.019123934 0.09183649 0.033899523
0.10431615 0.012871914 -0.065915994 0.09763158 0.052472956 0.08925616 0.049484767 -0.008663379
-0.08698382 -0.036286756 0.023316197 0.05703724 0.089557804 0.07152409 0.0651168 0.10154981
-0.07008771 0.11263936 -0.09481561 0.017056681 0.040280603 0.07767216 0.057244264 -0.057053342
-0.05997754 0.07583267 -0.10984809 -0.07800107 -0.055161983 -0.038474664 -0.07529749 -0.107876725
0.099146195 -0.11919863 0.063676246 -0.013419598 0.09170862 0.10227547 -0.09897806 -0.067689255
-0.011248566 -0.07139514 -0.07895184 -0.05133485 -0.031362504 0.028717287 0.0068658516 0.07374967
0.029831164 0.112629406 0.026134364 -0.0062196627 -0.013747446 0.07793132 0.0028803647 -0.113409944
0.11830384 -0.064899474 0.061968155 -0.09829247 0.053400226 0.005227439 0.09639255 0.018023305
0.017957874 0.0381457 0.023588069 -0.027146675 -0.019728638 0.09610262 0.09277379 -0.10252518
-0.11785163 0.09814673 0.06608122 0.024939053 0.10995827 -0.10757134 -0.09199876 -0.10047944
-0.11214268 -0.07439615 -0.06521745 0.06933399 -0.08883705 0.0968082 -0.04217706 -0.035689518
0.1189811 -0.043466374 0.07144188 -0.10813168 -0.06906624 -0.091955796 -0.070134915 -0.008296162
0.087983154 -0.10359612 -0.08766389 0.11369347 -0.023729727 0.018004306 -0.11231077 0.041214786
-0.08900837 0.10737742 -0.0692191 0.007317178 0.118560754 0.028959848 0.030978613 -0.07481383
-0.039242104 0.08768157 -0.0074819177 0.078240074 0.09629697 -0.02405651 0.10498289 -0.013246253
0.09955143 0.022201277 0.013020031 0.06336679 -0.001453571 -0.06336671 0.10382832 -0.019407488
-0.060109347 0.11890509 0.059316926 0.088049434 -0.089168295 0.07220114 -0.07371326 0.0016659424
-0.11455032 0.057756357 0.042951472 0.10596817 -0.074742936 -0.0019490421 -0.06933577 -0.07136884
-0.028962076 -0.09636045 -0.034943707 -0.05525396 -0.036453865 -0.010066941 -0.0206137 0.09464907
0.09648413 0.08396525 0.106746875 -0.038434952 0.033801608 0.02207496 0.1096788 0.096902184
-0.021471493 0.027963378 0.021863647 -0.021155432 -0.09917326 0.073622935 0.081933595 -0.012850255
-0.05624588 0.118177034 -0.051544614 -0.095861375 -0.040777847 -0.014738843 0.056718923 0.10756133
-0.08523356 -0.081560895 -0.11940711 0.03590641 -0.09588518 0.1019183 0.0005712062 0.007753484
-0.10504792 -0.010366112 -0.015975296 0.109995656 0.030910663 0.028646328 0.11499175 -0.045286477
0.111536 -0.08426897 -0.041609973 -0.067482114 0.06877407 0.04185175 -0.09181998 -0.1029582
-0.012490109 0.068661 0.046502583 -0.034480043 0.03988967 -0.11327422 -0.034280032 -0.0071618855
0.065345876 -0.11815604 0.09828683 0.0318019 -0.08129053 -0.007949665 -0.06299901 0.0390976
-0.08547692 -0.08331464 0.08984787 -0.10229625 0.08263009 -0.075397626 -0.09834866 0.054073565
-0.076534994 0.07053449 -0.014761932 -0.070321426 0.032077022 -0.016774863 -0.07720281 0.041321523
-0.0051529333 -0.1147459 0.06598771 -0.026902057 0.031260766 -0.032746755 0.07633398 0.058591314
0.021022849 -0.053774126 0.096462645 0.08871325 -0.072710946 -0.0031584278 0.029656537 -0.0413156
00000000: 5ef2 493d 8053 903a ae4a 333d a5e8 dd3d
00000010: 78c1 753c cca9 9cbc c514 bc3d 3ada 0a3d
00000020: b5a3 d53d b8e4 523c f7fe 86bd 11f3 c73d
00000030: e2ed 563d efcb b63d 8ab0 4a3d d8f0 0dbc
00000040: 9324 b2bd 6ca1 14bd 9c01 bf3c e29f 693d
00000050: 156a b73d 397b 923d f55b 853d 59f9 cf3d
00000060: 258a 8fbd 77af e63d b02e c2bd 74ba 8b3c
00000070: 46fd 243d 9512 9f3d f678 6a3d c4b0 69bd
00000080: 02ab 75bd 294e 9b3d 09f8 e0bd 06bf 9fbd
00000090: 88f1 61bd 9c97 1dbd 9235 9abd 79ee dcbd
000000a0: 290d cb3d 691e f4bd b168 823d e0dd 5bbc
000000b0: bbd1 bb3d cd75 d13d 02b5 cabd aaa0 8abd
000000c0: e84b 38bc 9d37 92bd 81b1 a1bd 7e44 52bd
000000d0: f875 00bd 8440 eb3c f0fa e03b 110a 973d
000000e0: 7c60 f43c 3faa e63d bc17 d63c 50ce cbbb
000000f0: f83c 61bc 759a 9f3d 80c4 3c3b 7943 e8bd
00000100: 4949 f23d 04ea 84bd 52d2 7d3d 904d c9bd
00000110: 32ba 5a3d f04a ab3b 7569 c53d 9ca5 933c
00000120: 641c 933c aa3e 1c3d c43b c13c b462 debc
00000130: f49d a1bc 73d1 c43d 2f00 be3d b9f8 d1bd
00000140: 325c f1bd 2701 c93d 9755 873d fc4c cc3c
00000150: cd31 e13d 5d4e dcbd d969 bcbd 2ac8 cdbd
00000160: 10ab e5bd 025d 98bd ba90 85bd fbfe 8d3d
00000170: 33f0 b5bd 6143 c63d dac1 2cbd 2c2f 12bd
00000180: 5dac f33d cc09 32bd 1f50 923d 2474 ddbd
00000190: 9a72 8dbd 5253 bcbd e5a2 8fbd a0ec 07bc
000001a0: 8330 b43d 342a d4bd 2089 b3bd 1fd8 e83d
000001b0: d864 c2bc c47d 933c 3003 e6bd d6d0 283d
000001c0: 054a b6bd b1e8 db3d bec2 8dbd f0c4 ef3b
000001d0: fbcf f23d 343d ed3c dcc6 fd3c fe37 99bd
000001e0: 54bc 20bd 6592 b33d e02a f5bb 553c a03d
000001f0: 5937 c53d 2812 c5bc 4501 d73d d006 59bc
00000200: 9fe1 cb3d 74df b53c f851 553c 73c6 813d
00000210: c085 beba 68c6 81bd f1a3 d43d 74fc 9ebc
00000220: 3835 76bd 8384 f33d 4ef6 723d 4353 b43d
00000230: de9d b6bd 31de 933d faf6 96bd c05b da3a
00000240: 5c99 eabd ee91 6c3d e2ed 2f3d d705 d93d
00000250: d312 99bd 0077 ffba eaff 8dbd d429 92bd
00000260: e041 edbc a158 c5bd 2221 0fbd fa51 62bd
00000270: a650 15bd d0ef 24bc 10de a8bc 5fd7 c13d
00000280: 7999 c53d f9f5 ab3d 1b9e da3d f86d 1dbd
00000290: 8e73 0a3d 8cd6 b43c 479f e03d a774 c63d
000002a0: fce4 afbc 7413 e53c 641b b33c 284e adbc
000002b0: 5a1b cbbd 9fc7 963d cdcc a73d e089 52bc
000002c0: 1462 66bd cd06 f23d 7220 53bd f852 c4bd
000002d0: ac06 27bd 307b 71bc 1a52 683d 1d49 dc3d
000002e0: ef8e aebd 6609 a7bd b78b f4bd 9a12 133d
000002f0: 735f c4bd 8bba d03d 00bd 153a f010 fe3b
00000300: 5d23 d7bd a0d6 29bc a0de 82bc 6745 e13d
00000310: 5c38 fd3c b4ab ea3c cb80 eb3d 507e 39bd
00000320: fd6c e43d 3695 acbd 386f 2abd 1034 8abd
00000330: 6bd9 8c3d be6c 2b3d 1d0c bcbd c0db d2bd
00000340: 50a3 4cbc 239e 8c3d 7e79 3e3d f23a 0dbd
00000350: 5a63 233d 50fc e7bd 3869 0cbd 40ae eabb
00000360: 0fd4 853d cbfb f1bd 9b4a c93d b642 023d
00000370: a67b a6bd 503f 02bc a005 81bd ce24 203d
00000380: 860e afbd dea0 aabd 2902 b83d b280 d1bd
00000390: f739 a93d 126a 9abd 066b c9bd 3e7c 5d3d
000003a0: 61be 9cbd 6374 903d 08dc 71bc ae04 90bd
000003b0: 3263 033d 706b 89bc 821c 9ebd c240 293d
000003c0: f0d9 a8bb e6ff eabd 9124 873d b461 dcbc
000003d0: 4a0b 003d 7621 06bd fd54 9c3d 72fd 6f3d
000003e0: 1c38 ac3c 4242 5cbd 358e c53d 4baf b53d
000003f0: 7ae9 94bd a0fd 4ebb 44f2 f23c 8c3a 29bd
