mnist_bp1/analysis/weights/W1_111_0.npy (npy, 78628 bytes, 1 tensors)

array f4 [785, 25]
0	0xbd9a700e	-0.07540904
1	0xbd270c48	-0.040783197
2	0x3d6856d6	0.05672344
3	0xbd588278	-0.0528588
4	0x3d94f887	0.07273965
5	0xbdc295eb	-0.09501251
6	0x3dc2a3a5	0.09503869
7	0xbd0cc666	-0.034368895
8	0x3d26ad56	0.04069265
9	0x3d6eb70e	0.058280043
10	0x3df0a5ed	0.11750398
11	0x3ce7c17c	0.028290503
12	0xbde11734	-0.10990754
13	0x3d882ca9	0.06649143
14	0xbd65166e	-0.055929594
15	0xbcb99204	-0.022652633
16	0xbac74c40	-0.0015205219
17	0x3dde9b5f	0.108694784
18	0x3dab0f8d	0.083525755
19	0xbbb44650	-0.005501546
20	0xbd9c3068	-0.0762642
21	0x3d198482	0.037479885
22	0x3c9d299c	0.01918488
23	0x3cf38804	0.029727943
24	0x3ce94474	0.028475024
25	0x3dde7c17	0.10863512
26	0xbcf90f20	-0.03040272
27	0x3da8627d	0.0822191
28	0x3da0c75b	0.07850524
29	0x3d3ecc0e	0.04658132
30	0xbd8c49a5	-0.06849984
31	0x3bbbf4b0	0.005735956
32	0xbdaa4244	-0.083134204
33	0xbaf41280	-0.0018621236
34	0xbc4afd08	-0.012389429
35	0x3d9639b5	0.073352255
36	0x3dc444e9	0.09583456
37	0x3d804da7	0.06264811
38	0xbbe814b0	-0.0070825443
39	0xbd9ceef7	-0.076627664
40	0x3d90de2d	0.07073627
41	0xbdb6c8ae	-0.08924995
42	0xbdb61bca	-0.08892019
43	0xbd81b432	-0.06333198
44	0x3d848759	0.06471128
45	0xbde480a0	-0.11157346
46	0x3afa8d80	0.0019115657
47	0xbd899d82	-0.06719495
48	0x3d9458e5	0.07243518
49	0xbc087028	-0.008327521
50	0x3dbe73c9	0.09299428
51	0x3d008f3a	0.03138659
52	0x3cb4841c	0.02203565
53	0x3c978a74	0.018498637
54	0x3d379c0e	0.04482656
55	0xbb92dc40	-0.0044818223
56	0x3cd3fc7c	0.02587723
57	0xbd9b7626	-0.075908944
58	0xbd5f3004	-0.05448915
59	0x3da05779	0.07829184
60	0x3db94e9b	0.09048196
61	0xbdc6fc41	-0.09716082
62	0x3d35906a	0.044327177
63	0x3dc86f91	0.097869046
64	0xbdc329af	-0.09529435
65	0xbdaeb39c	-0.085303515
66	0x3d89092d	0.06691203
67	0xbdb6b541	-0.0892129
68	0xbdeaed7b	-0.11471077
69	0xbc1a9c30	-0.009436652
70	0x3de38419	0.1110918
71	0xbb26e7a0	-0.002546765
72	0xbd79d9d4	-0.060998753
73	0xbd85f9e8	-0.065418065
74	0xbc851498	-0.016245171
75	0xbd9f0e21	-0.07766367
76	0xbdc984a1	-0.0983975
77	0xbd55c008	-0.05218509
78	0xbddbcca5	-0.10732392
79	0xbdbc0259	-0.09180135
80	0x3debfbe9	0.115226574
81	0xbdca5b66	-0.09880714
82	0xbd58b2f2	-0.05290503
83	0xbdd48c78	-0.10378355
84	0x3dcfe3e9	0.10150892
85	0x3bc95f10	0.0061453655
86	0x3deb1be7	0.11479931
87	0x3d8effef	0.06982409
88	0xbdf14f57	-0.11782711
89	0xbda5fefc	-0.08105275
90	0x3da19621	0.07889963
91	0xbd6a8dee	-0.05726426
92	0x3d26209a	0.040558435
93	0x3dcf4e9d	0.10122416
94	0x3df324cb	0.11872252
95	0xbd828fea	-0.06375106
96	0x3d72b272	0.05925221
97	0x3df210a9	0.11819584
98	0xbdcfb7da	-0.10142489
99	0xbd666814	-0.0562516
100	0xbda267e8	-0.07929975
101	0xbdecfe2b	-0.11571916
102	0xbdcec7ee	-0.10096727
103	0xbd057b90	-0.03258854
104	0xbda6532a	-0.08121331
105	0xbd994e1a	-0.074856
106	0xbd967204	-0.073459655
107	0x3d014662	0.031561263
108	0xbda1dc92	-0.079033986
109	0x3dbbd269	0.09170992
110	0xbd0c75e8	-0.03429213
111	0x3c1fa9e8	0.009745099
112	0xbdedf54f	-0.116190545
113	0xbce45700	-0.027873516
114	0x3cb10afc	0.021611683
115	0x3d3da5e6	0.04630079
116	0xbd6b3604	-0.05742456
117	0x3db9b167	0.0906704
118	0x3de947df	0.113906614
119	0xbc3b14f8	-0.011418574
120	0xbdc6bc34	-0.09703866
121	0xbd442b48	-0.04789284
122	0xbd71c30c	-0.0590239
123	0xbdddfab8	-0.108388364
124	0x3dc26ae9	0.09493048
125	0x3db8e18f	0.09027397
126	0xbd9fe108	-0.07806593
127	0x3d9e6de3	0.07735803
128	0xbc99be90	-0.018767625
129	0xbd67c382	-0.056582935
130	0xbddbbe9e	-0.10729717
131	0x3d8dfbcb	0.06932791
132	0xbdc959a8	-0.09831554
133	0x3cb6c74c	0.022311829
134	0xbdc01bfd	-0.09380338
135	0x3de07957	0.10960644
136	0x3ca3251c	0.019915156
137	0x3d0321ba	0.032014586
138	0x3df1a607	0.11799245
139	0xbc9d18dc	-0.019176893
140	0xbdd9ff10	-0.106443524
141	0x3ceda044	0.029007085
142	0x3dcce16f	0.100039355
143	0xbc7c5ee8	-0.015403487
144	0xbc87a158	-0.016556427
145	0x3d80b643	0.06284764
146	0x3cf99bd4	0.030469812
147	0x3c7e9ea8	0.015540756
148	0x3dc166e7	0.09443455
149	0x3d04872e	0.03235548
150	0x3d5a47fa	0.0532913
151	0x3d80d511	0.06290639
152	0xbdb9e98b	-0.09077748
153	0xbd10686e	-0.035255842
154	0x3dbcc0b3	0.09216442
155	0xbde92235	-0.113834776
156	0x3dc6763b	0.096905194
157	0xbd7ae3de	-0.061252467
158	0xbc8e3dc4	-0.017363437
159	0xbbe7bc30	-0.0070719942
160	0xbd2811e8	-0.0410327
161	0xbb87d090	-0.0041447356
162	0xbd6f9912	-0.05849559
163	0xbda9d1f6	-0.08292
164	0xbd7a17c0	-0.061057806
165	0x3cfb1a74	0.030652262
166	0x3bf4f9b0	0.007476054
167	0x3c287c88	0.010283597
168	0x3d1319a6	0.035913132
169	0xbc1b8708	-0.009492643
170	0x3d2b7856	0.04186281
171	0xbdae967e	-0.08524798
172	0x3d5e66de	0.05429732
173	0x3d7ca7f6	0.061683618
174	0xbdbc4f60	-0.09194827
175	0xbd93ca28	-0.072162926
176	0x3deb3a9b	0.114857875
177	0xbc3f2970	-0.011667594
178	0xbab63580	-0.0013901442
179	0x3d610c82	0.05494357
180	0xbda343c6	-0.07971911
181	0xbde77e67	-0.11303406
182	0x3ddf145b	0.108925544
183	0xbd1d5010	-0.03840643
184	0x3d541606	0.051778816
185	0xbd9571d4	-0.072971016
186	0xbdd7d8af	-0.10539376
187	0xbd4d44b8	-0.050114363
188	0x3db0eb45	0.08638624
189	0xbde1643a	-0.11005445
190	0xbda2df61	-0.079527624
191	0x3d1c78b2	0.03820104
192	0xbddb570b	-0.107099615
193	0xbd9b0597	-0.075694256
194	0x3deaf86d	0.11473165
195	0x3da91d9d	0.082576014
196	0xbde7db26	-0.11321096
197	0xbc12d8a0	-0.00896278
198	0x3df44757	0.119276695
199	0xbd33bf3a	-0.04388354
200	0xbd6476be	-0.055777304
201	0xbd0f2362	-0.034945853
202	0x3d0cfdee	0.034421854
203	0xbd5be620	-0.05368626
204	0xbbc614e0	-0.006044969
205	0xbda1ea5e	-0.0790603
206	0xbdadd3a1	-0.08487631
207	0x3d538256	0.05163797
208	0xbd93f35c	-0.072241515
209	0x3c9b070c	0.018924259
210	0xbd8a7b60	-0.06761813
211	0x3bbf2010	0.0058326796
212	0x3dda46e9	0.10658056
213	0x3df57ba3	0.119864725
214	0xbd884261	-0.06653286
215	0x3ce81b34	0.028333284
216	0xbc51e188	-0.0128101185
217	0xbdc4c7be	-0.0960841
218	0xbd296ff2	-0.041366525
219	0x3d749922	0.05971635
220	0xbd8c194c	-0.068407625
221	0xbd0848ae	-0.033272438
222	0xbd7def7b	-0.061995964
223	0xbd60bd38	-0.054867953
224	0x3d764bf6	0.060131036
225	0xbd827cba	-0.06371446
226	0xbda2818a	-0.07934864
227	0xbd7a2575	-0.061070878
228	0x3d9874bd	0.07444141
229	0x3df06ee5	0.117399015
230	0xbdac90f3	-0.08426084
231	0xbccd31b4	-0.025048114
232	0xbd091c8a	-0.033474483
233	0x3c8bbc5c	0.01705759
234	0x3ccd9b6c	0.025098525
235	0xbdd615bd	-0.10453365
236	0x3d6b4f5e	0.057448737
237	0xbdbbbd2f	-0.09166943
238	0x3bbf61d0	0.0058405176
239	0x3d63f00a	0.05564884
240	0xbd9b6764	-0.075880796
241	0x3dd1a751	0.10236991
242	0x3d81c207	0.06335836
243	0x3c5e62c8	0.013573356
244	0x3dc15751	0.094404824
245	0x3d5b1e16	0.05349549
246	0xbdba09b0	-0.09083879
247	0xbdd37af6	-0.10326187
248	0x3dcd4029	0.10022003
249	0x3dc887b7	0.097915106
250	0x3c7709a8	0.015077986
251	0x3dc25131	0.09488142
252	0xbc925bb8	-0.017866
253	0xbd1924c0	-0.037388563
254	0x3d18fd2e	0.037350826
255	0xbd22b90a	-0.03972725
