mnist_bp1/analysis/weights/W1_162_2.npy (npy, 78628 bytes, 1 tensors)

array f4 [785, 25]
00000000: 25ec 87bd 7f1d aa3d f5ab 9e3d 8043 84bc
00000010: 306e cd3b 76f6 153d 3f85 ed3d a8c5 403c
00000020: cf4e 73bd e46b a1bd 385c 04bd 3278 543d
00000030: fa5b 5b3d bcc4 98bd e002 aebb 3401 82bd
00000040: ef77 b6bd 825f 53bd 458e 893d 5dbc 863d
00000050: a46c d1bc 4f9b 8a3d 2b11 9a3d 53ed aa3d
00000060: 9cc0 a63c b9d9 833d 303a 973b ff4f a63d
00000070: 3781 dc3d 8092 273b 9886 d9bc 56b3 07bd
00000080: d5a0 c73d 72bc 4b3d 11aa f03d 254d ba3d
00000090: f980 b43d 4659 493d ca05 1c3d 3cdf f1bd
000000a0: 4081 4e3b c88c 493c 3746 ee3d 526f 53bd
000000b0: 3434 96bc f217 013d 0f66 ab3d ba96 103d
000000c0: a645 dcbd 234f b03d 8109 80bd b5c4 bc3d
000000d0: babe 143d b310 6ebd a6da 153d e7fd eabd
000000e0: 47c8 d2bd 88cb 24bd dcc2 8f3c c078 46bd
000000f0: fc14 93bd 9ae4 6a3d 3d36 e73d 807e 8ebc
00000100: 0ce9 09bd 9830 0d3c 324c 353d 6c3d 923c
00000110: d245 39bd b8c2 afbd 3cb3 d93c 2e8b 54bd
00000120: 92af cbbd 107d b23b 5404 a93c 4839 1bbc
00000130: ff1f a93d 519b ef3d 5a71 0fbd fcec 833c
00000140: c6e5 6a3d aed7 1ebd 74bb cdbc 5f35 b83d
00000150: 0f79 b93d 9dea db3d e893 60bd fafb d1bd
00000160: 952e 833d 1680 5a3d 3e93 10bd 4ee8 473d
00000170: df46 e63d 47ca de3d a9d7 883d 7a45 c3bd
00000180: c673 753d 56a9 773d 28c4 623c 56df 2c3d
00000190: dea9 573d 1a30 89bd 6ae9 abbd cd2f 933d
000001a0: 4454 f53c cecd 4b3d 7895 f5bd ac7a af3c
000001b0: 726c 523d 60d2 39bb 3097 f0bb 9719 79bd
000001c0: 948b 3ebd 0d4a a53d 3368 c2bd d14a b03d
000001d0: 50bf a7bc 249c e2bd 4056 76bd f7e7 e8bd
000001e0: 0e5a b3bd f850 25bd 5643 173d b171 a43d
000001f0: fa99 323d 740a ab3c 7749 e13d 719c 953d
00000200: ca6a 35bd 745c 8fbd d078 5ebd 1389 82bd
00000210: 88c4 47bc 9e3b 7b3d f752 f03d e833 633c
00000220: ef94 f03d 25d0 e83d e679 f5bd 4b1b 8c3d
00000230: 2f72 883d 9e21 85bd 28ca 4d3c 4782 853d
00000240: 205a f0bc 2681 8abd 79cd c7bd 9973 b83d
00000250: 1694 7c3d a34f c03d 38a0 05bd 6e02 7f3d
00000260: c4e6 e8bd 8056 0a3a d454 d13c 703d 13bd
00000270: d004 55bc 8aed 313d aa2a 0c3d 5813 91bc
00000280: 40e5 713b e21e debd 20bb 7bbc 4003 a63a
00000290: 124e 48bd ec00 02bd e8e2 2c3c b626 89bd
000002a0: 66b1 00bd c8c3 99bc e30e 863d ba24 88bd
000002b0: a879 82bd 2c17 d23c 3a75 353d 34bc 893c
000002c0: 3875 2c3c 0c9c 81bd 4816 a0bc 0efd 073d
000002d0: 9180 cf3d acd7 07bd 8a40 723d e2c5 513d
000002e0: 0e9b 413d 24b0 95bd 26f7 2dbd 0dff ac3d
000002f0: 68a7 403c 22ea 353d 4cf6 d2bd 695f 923d
00000300: 6cd8 85bd 59a8 dfbd 705b 43bc ab2c d53d
00000310: 1a06 633d 6a03 383d 7a20 053d 6979 b7bd
00000320: 6a07 403d 74a5 ce3c 7c05 a63c f19a b03d
00000330: 559f 913d 151a c03d 2ca7 903c b8a4 563c
00000340: f55b a03d 21e5 d9bd 7f90 dc3d ea99 533d
00000350: 9cee ff3c fa06 3e3d 4c20 8bbd 73dc 78bd
00000360: c1f4 c63d 327b 7e3d e5a0 a93d 3ed5 573d
00000370: 8c8e f83c 692c 833d cc38 9e3c 4f20 c9bd
00000380: 453e a63d 8c08 07bd 2068 aabd f0e5 a53b
00000390: 7ca3 e7bd 4f7c e53d 08d9 353c 8f0e bfbd
000003a0: 6284 443d 3814 7d3c 0b20 d0bd a5a3 80bd
000003b0: 76db 5dbd ee83 3e3d cd79 cf3d e7be d5bd
000003c0: e852 0b3c 20aa 46bd 083d 12bd 3cfb b8bc
000003d0: 755c 8d3d fc6f a7bd 47de b93d 0472 e4bd
000003e0: bfd8 8f3d 68a4 6a3c a949 ed3d f39d edbd
000003f0: d028 d53b a849 343c f86e 233c 7c59 cd3c
-0.06636838 0.08306407 0.07747642 -0.016145468 0.006269239 0.036611997 0.1159768 0.011765875
-0.05940133 -0.07881907 -0.03231451 0.05187244 0.053554513 -0.07459399 -0.0053104013 -0.06347886
-0.08909594 -0.051604755 0.06716589 0.06578896 -0.0255645 0.06767904 0.07522806 0.08346047
0.020355515 0.06438012 0.004615091 0.08120727 0.10766833 0.0025569499 -0.026553437 -0.033130012
0.09747473 0.049740262 0.117511876 0.090967454 0.08813662 0.049157403 0.03809146 -0.11810157
0.0031510144 0.012301631 0.11634486 -0.051619835 -0.01833544 0.031516977 0.083690755 0.035299994
-0.10755472 0.08608844 -0.06251813 0.092172064 0.036314704 -0.058121394 0.036585473 -0.11474209
-0.10292106 -0.040233165 0.01754897 -0.048455 -0.07181737 0.057346918 0.11289642 -0.017394304
-0.033669516 0.008617543 0.04426212 0.017851554 -0.0452326 -0.085820615 0.026574723 -0.051890545
-0.09945597 0.0054470375 0.020631947 -0.009474106 0.08258056 0.11699546 -0.03502021 0.016104214
0.057348035 -0.038779907 -0.025113799 0.08994555 0.09056293 0.10738108 -0.054828554 -0.10253139
0.06405369 0.05334481 -0.03529667 0.048805527 0.11243986 0.10878425 0.06681759 -0.09534736
0.059924863 0.060464226 0.013840713 0.042205177 0.052652232 -0.06698628 -0.083941296 0.07186852
0.029947408 0.049756818 -0.119913995 0.0214208 0.051372953 -0.0028354153 -0.0073422417 -0.06081542
-0.04651983 0.08070765 -0.09492531 0.0860802 -0.020476967 -0.11064938 -0.06014085 -0.11372369
-0.08757411 -0.04036042 0.03692945 0.080294974 0.043603875 0.020879008 0.110003404 0.073052295
-0.044291295 -0.07000056 -0.054314435 -0.06373801 -0.012192853 0.061336152 0.11734574 0.013867356
0.11747157 0.113678254 -0.11986141 0.06841143 0.06662404 -0.065005526 0.012560405 0.06518989
-0.02933985 -0.06762914 -0.09755988 0.090064235 0.061664663 0.093901895 -0.0326235 0.062258177
-0.1137214 0.0005277172 0.025553145 -0.035947263 -0.013001636 0.043439426 0.034220375 -0.01770942
0.0036910325 -0.10845734 -0.015364438 0.0012665763 -0.04890258 -0.03173916 0.010552146 -0.06696837
-0.03141918 -0.018770114 0.06545808 -0.0664763 -0.0637086 0.025645815 0.04430125 0.016813375
0.010525994 -0.06328592 -0.019541875 0.033200316 0.10131944 -0.033164665 0.05914358 0.051214106
0.047267012 -0.07308987 -0.042472027 0.084470846 0.011758663 0.04441274 -0.10300884 0.07147104
-0.0653542 -0.10920782 -0.011923656 0.1040891 0.05542574 0.04492513 0.032501675 -0.08958704
0.04688207 0.025225379 0.020266287 0.08623303 0.07110468 0.09379975 0.017657839 0.013100795
0.078300394 -0.10639406 0.10769748 0.051660456 0.031241708 0.046393372 -0.067932695 -0.06075711
0.09714652 0.062129207 0.08282641 0.052693598 0.03034141 0.06404955 0.019314192 -0.098206155
0.08117346 -0.032967135 -0.083206415 0.005062811 -0.11310479 0.112053506 0.011099108 -0.09328949
0.047977813 0.015446715 -0.10162362 -0.06281213 -0.054164372 0.046512537 0.101306535 -0.10436802
0.008503653 -0.048502088 -0.035702735 -0.022580735 0.069024004 -0.08175656 0.09075599 -0.11154559
0.07023763 0.014321424 0.11586315 -0.11602392 0.0065051094 0.011003889 0.0099751875 0.025067084
