mnist_bp1/analysis/weights/W1_1972_1.npy (npy, 78628 bytes, 1 tensors)

array f4 [785, 25]
0.05636684 0.0207989 0.03166274 0.10209151 0.041176267 -0.030227192 -0.06573398 -0.116570376
0.02923917 -0.11825709 -0.054488264 -0.03386367 -0.07391518 0.030083336 0.11728243 -0.105200954
0.027313806 0.03143262 -0.02059856 0.103494294 -0.09049864 -0.045233056 -0.04397492 0.110337116
-0.03810396 0.11345077 0.011227138 0.018627353 -0.0075936094 0.08814932 0.036897205 -0.11658891
-0.03575346 0.08244235 -0.047828145 -0.050793514 -0.02319637 -0.028810933 -0.05282198 -0.016882382
0.08499809 0.08887587 -0.08016546 -0.09019518 0.0464338 0.119014494 0.038568787 0.05942885
-0.009718753 -0.013861343 0.08333496 -0.030675314 -0.10704325 0.015299834 0.0985667 -0.0058766827
-0.007317148 -0.04884401 0.07539908 -0.027549818 -0.0407959 -0.08969993 0.0964418 -0.0035250932
0.08723693 0.1153224 0.106646515 0.0794412 -0.017589599 -0.10735127 0.051649965 -0.034693338
0.09546364 -0.044297643 0.119689725 -0.036452405 0.05717302 -0.11228156 0.11995757 -0.10348752
0.057611667 -0.077874005 -0.021596886 -0.00045581907 -0.054518364 -0.05171539 -0.05213522 -0.01891806
0.097067274 0.030071445 -0.0141355395 -0.11550493 -0.08524933 -0.06338301 -0.03503929 0.020814829
0.02566401 0.056129523 -0.083932914 0.025464676 -0.0215021 0.086262785 -0.043470353 0.028575204
-0.07879251 0.0968579 0.11661487 -0.0006524846 0.048789717 0.047922336 0.045231767 0.017020054
0.08294105 -0.05298394 0.036690243 0.056869633 0.054189526 -0.09478263 -0.11899183 0.0578532
-0.039866753 0.07827658 0.06350189 -0.029805161 -0.0071371645 -0.053143844 0.028368734 0.047146223
0.017078958 0.075303786 -0.10658071 0.09314827 0.0743672 0.038991936 -0.07241927 -0.023218863
-0.07943472 -0.01628337 -0.102827825 0.040443473 -0.032064088 -0.105432644 -0.07307207 -0.023496121
0.007710196 -0.075471014 -0.06401805 0.10772226 -0.11095676 -0.07595503 0.046236075 0.099837534
-0.02985277 0.0011949912 0.018871106 -0.05483079 -0.09494382 -0.043193832 -0.008604012 -0.05464591
0.05545274 0.020494275 -0.024655297 0.014609672 0.02197621 0.11702674 0.05484218 0.102981426
0.032919623 0.060627393 0.0886332 0.048370592 0.062389232 -0.018696181 -0.09010036 0.0026658475
-0.081544966 -0.04703962 -0.028541848 -0.0013639927 -0.05803153 0.06612147 -0.012151167 -0.02210243
-0.0001701191 0.0054978803 0.01982864 -0.103047036 -0.10435017 0.037903465 0.10783968 -0.024728164
-0.031291038 -0.045314685 -0.039364383 -0.04671301 0.042481326 0.012768023 -0.0060156435 -0.030397967
0.090496905 -0.052354656 0.057995476 -0.060058963 0.07083572 0.07069985 0.008364625 0.038378455
-0.027900554 -0.10663121 0.010016091 -0.02967307 0.11781492 0.043648876 -0.070375584 0.05898168
-0.019862622 -0.04264658 0.029533766 -0.021074608 -0.08246092 0.04779104 0.116891585 0.016470887
0.032511406 0.034198947 -0.07554519 -0.057057895 -0.080801636 -0.074439555 -0.03776759 0.010946564
-0.116187714 0.077399306 0.03546507 0.023387827 0.021597065 -0.08663781 0.026921429 0.11857838
0.051341392 -0.094162814 -0.116550975 -0.10127881 0.044237368 0.05929201 -0.025210477 0.09679616
0.049643897 -0.04032082 0.0053262785 0.009893067 -0.00035579503 -0.088239126 -0.10593813 -0.07588786
00000000: eae0 663d 7462 aa3c cab0 013d 5b15 d13d
00000010: 72a8 283d 049f f7bc 899f 86bd 73bc eebd
00000020: fc86 ef3c c630 f2bd 162f 5fbd a2b4 0abd
00000030: d860 97bd 5471 f63c c531 f03d 9973 d7bd
00000040: 34c1 df3c 7ebf 003d 50be a8bc d1f4 d33d
00000050: 5a57 b9bd 4c46 39bd 0c1f 34bd 6df8 e13d
00000060: e612 1cbd e158 e83d 08f2 373c 6498 983c
00000070: d0d3 f8bb a187 b43d 8621 173d 2bc6 eebd
00000080: 3872 12bd 89d7 a83d 72e7 43bd dc0c 50bd
00000090: 5006 bebc e804 ecbc dc5b 58bd ec4c 8abc
000000a0: 7b13 ae3d 8d04 b63d ca2d a4bd 40b8 b8bd
000000b0: 5e31 3e3d dfbd f33d 4efa 1d3d aa6b 733d
000000c0: 683b 1fbc b01a 63bc 85ab aa3d cc4a fbbc
000000d0: 7e39 dbbd 28ac 7a3c 57dd c93d 3091 c0bb
000000e0: b0c4 efbb a810 48bd d56a 9a3d 28b0 e1bc
000000f0: 9a19 27bd 99b4 b7bd 4783 c53d 4005 67bb
00000100: 47a9 b23d 272e ec3d 7d69 da3d 11b2 a23d
00000110: 1018 90bc fcda dbbd ea8e 533d 9a1a 0ebd
00000120: 7182 c33d 7271 35bd e31f f53d 1e4f 15bd
00000130: 422e 6a3d e0f3 e5bd 51ac f53d 44f1 d3bd
00000140: 36fa 6b3d 687c 9fbd f4eb b0bc 00fb eeb9
00000150: a64e 5fbd 84d3 53bd be8b 55bd 0cfa 9abc
00000160: 35cb c63d 6458 f63c c098 67bc d98d ecbd
00000170: 3397 aebd f4ce 81bd 5c85 0fbd dc83 aa3c
00000180: 543d d23c 12e8 653d 05e5 abbd 4c9b d03c
00000190: 2c25 b0bc 8baa b03d f80d 32bd 8c16 ea3c
000001a0: f85d a1bd 6f5d c63d c7d3 ee3d 800b 2bba
000001b0: bad7 473d 364a 443d f244 393d a46d 8b3c
000001c0: ffdc a93d b005 59bd 8248 163d 22f0 683d
000001d0: d6f5 5d3d 651d c2bd fdb1 f3bd 7af7 6c3d
000001e0: 524b 23bd 794f a03d 470d 823d f429 f4bc
000001f0: e0de e9bb 5cad 59bd 8c65 e83c 661c 413d
00000200: 2ce9 8b3c df38 9a3d fd46 dabd 85c4 be3d
00000210: d54d 983d 02b6 1f3d 8e50 94bd 7c35 bebc
00000220: acae a2bd b464 85bc 6597 d2bd 0ea8 253d
00000230: a255 03bd 12ed d7bd cfa6 95bd f07a c0bc
00000240: d0a5 fc3b 8c90 9abd e51b 83bd 7d9d dc3d
00000250: 4c3d e3bd 508e 9bbd 0a62 3d3d 9f77 cc3d
00000260: cc8d f4bc 40a1 9c3a 9497 9a3c 4096 60bd
00000270: e871 c2bd 04ec 30bd d8f7 0cbc 64d4 5fbd
00000280: 6a22 633d 9ce3 a73c e8f9 c9bc 685d 6f3c
00000290: 7407 b43c b7ab ef3d 32a2 603d ede7 d23d
000002a0: bad6 063d 6e54 783d 5385 b53d 3e20 463d
000002b0: da8b 7f3d bc28 99bc 8a86 b8bd 80b5 2e3b
000002c0: 0c01 a7bd 9eac 40bd 98d0 e9bc 00c8 b2ba
000002d0: 78b2 6dbd b16a 873d b015 47bc 2810 b5bc
000002e0: 0062 32b9 9027 b43b ac6f a23c 530a d3bd
000002f0: 8bb5 d5bd aa40 1b3d 0ddb dc3d b892 cabc
00000300: 082b 00bd e49b 39bd 8c3c 21bd 2456 3fbd
00000310: e600 2e3d f830 513c e01e c5bb 2805 f9bc
00000320: 7156 b93d d671 56bd aa8c 6d3d 6300 76bd
00000330: 5112 913d 15cb 903d c80b 093c ba32 1d3d
00000340: b48f e4bc 7761 dabd 881a 243c f014 f3bc
00000350: f348 f13d 2ac9 323d 1321 90bd c696 713d
00000360: f0b6 a2bc 2eae 2ebd ccf0 f13c a8a4 acbc
00000370: 45e1 a8bd 8ac0 433d db64 ef3d f4ed 863c
00000380: ae2a 053d 3214 0c3d 70b7 9abd 8ab5 69bd
00000390: 547b a5bd c473 98bd 30b2 1abd 3859 333c
000003a0: d3f3 edbd 8783 9e3d d243 113d d497 bf3c
000003b0: 54ec b03c 2a6f b1bd 548a dc3c 39d9 f23d
000003c0: 5a4b 523d 6fd8 c0bd 47b2 eebd 446b cfbd
000003d0: 3e32 353d 2edc 723d 3486 cebc 113d c63d
000003e0: 6657 4b3d 7227 25bd 1088 ae3b 8816 223c
000003f0: 008a bab9 b7b6 b4bd 17f6 d8bd 186b 9bbd
