mnist_bp1/analysis/weights/W1_128_1.npy (npy, 78628 bytes, 1 tensors)

array f4 [785, 25]
0.013258003 -0.031410657 -0.00026893616 -0.0895158 0.07970741 0.011602305 0.07694303 0.090481274
-0.04180996 -0.04866869 0.03604772 -0.114338346 0.073278554 -0.0960682 -0.11828058 0.05617676
0.041849695 -0.003732808 0.05025641 -0.07087907 0.063051246 0.10579107 -0.060168456 -0.04487998
0.011239506 0.085718356 0.012410291 -0.03829691 -0.048356034 -0.10547956 0.033263333 -0.080968834
-0.035992928 0.034209676 0.027768694 0.022421978 0.010926671 0.07767745 0.0080235675 -0.093738325
0.014677189 -0.06449707 0.10947377 0.085589595 0.0011537075 0.030478992 0.086864494 -0.062651396
0.10431624 -0.026027896 -0.035669833 -0.031532332 -0.11845822 -0.016434833 0.099084 -0.045442402
-0.04437338 -0.055510193 -0.055783823 -0.10150197 -0.089112684 0.012247957 0.07092667 0.041075103
0.02537825 -0.08414036 -0.088445514 0.04602305 -0.048590325 -0.11930371 0.11428196 -0.065938085
0.042974822 0.053644635 -0.109403685 0.016800843 -0.008271843 -0.054640047 0.073600955 -0.0018416941
0.11838374 0.022222824 0.059927665 -0.013719432 0.01827424 0.07694135 -0.06669997 0.0734834
0.10309144 0.09895589 0.054152377 -0.109778106 -0.079440966 -0.014137059 0.05935859 -0.011135213
0.08854251 -0.07035187 -0.057716873 0.0073931143 -0.07155255 0.0022540018 0.08212366 -0.003323339
-0.06987019 -0.08776096 0.047885515 0.06783835 0.080596305 0.07618057 -0.006621696 -0.09620061
-0.10888447 -0.11378969 0.03496433 0.08472218 -0.018466301 -0.06842385 0.040693305 -0.08738869
0.11353608 0.07038165 -0.025727749 -0.109901935 -0.053885162 0.088881455 -0.0026207864 -0.041281156
-0.08194402 -0.011889353 0.058095135 0.04943905 -0.058194663 0.07510663 0.019299172 0.045133747
0.079858445 0.023666747 -0.06768201 -0.026633494 -0.09592183 -0.045064397 0.107592426 0.10200102
0.06743974 -0.07935596 0.015589915 -0.06602234 0.07271447 -0.10925174 -0.09038446 -0.08061421
-0.10779902 0.030475937 -0.09233843 -0.08412583 0.0010139719 0.0726077 -0.0042153746 -0.098210216
0.022381894 0.048998915 -0.105742894 0.036941923 0.024035 -0.0014209822 0.115582116 -0.038488768
0.052450366 0.09559799 0.0054794922 -0.07805611 -0.0041122884 0.065434 -0.026070267 -0.022228315
0.10375004 -0.10571405 0.03859941 -0.098413125 0.050523005 -0.086861 -0.09602708 0.009645738
0.11629517 -0.07242519 0.0048891753 -0.04320348 -0.00011764467 0.050250955 0.101604484 0.008263953
0.005683653 -0.05157703 0.040663578 0.0086958185 -0.05010707 -0.04770644 -0.10723291 0.104520895
0.03298179 -0.11838343 0.10135231 0.10289437 -0.057828654 -0.06417157 0.11380125 -0.055861957
-0.031703226 0.11871774 -0.011154696 0.10642319 0.013799451 0.027789317 0.06279617 -0.057365365
0.04827795 -0.011126831 -0.077616945 -0.000865832 -0.06338722 -0.097099625 0.07812358 -0.064674884
0.043689243 0.029039301 0.017181851 0.03135956 0.041547947 0.04336364 -0.105089635 0.09128811
-0.025779076 -0.08637789 -0.115632474 -0.040309265 0.096168704 0.07831689 -0.11666519 0.068863936
0.07598797 0.010001935 0.06311651 -0.031700335 -0.081707776 0.0077278838 0.034779646 -0.016018435
0.10094123 -0.03172365 0.043274797 -0.09563845 0.07159696 0.048802264 -0.014896631 0.0635883
00000000: 1838 593c 76a8 00bd 0000 8db9 0f54 b7bd
00000010: a33d a33d 9817 3e3c 4f94 9d3d 3f4e b93d
00000020: ec40 2bbd d258 47bd c6a6 133d 392a eabd
00000030: 1113 963d 68bf c4bd 173d f2bd 9a19 663d
00000040: 966a 2b3d 20a2 74bb aad9 4d3d 0c29 91bd
00000050: 0321 813d fda8 d83d 3373 76bd 12d4 37bd
00000060: e825 383c 1b8d af3d 8854 4b3c 38dd 1cbd
00000070: fa10 46bd ab05 d8bd 223f 083d fdd2 a5bd
00000080: 526d 13bd 721f 0c3d 2c7b e33c 4cae b73c
00000090: c805 333c 5b15 9f3d 4875 033c e1f9 bfbd
000000a0: 9878 703c 0a17 84bd c933 e03d 9949 af3d
000000b0: 0038 973a 14af f93c 03e6 b13d 604f 80bd
000000c0: c1a3 d53d 7438 d5bc 881a 12bd 0c28 01bd
000000d0: 399a f2bd 58a2 86bc 8dec ca3d d021 3abd
000000e0: dcc0 35bd a85e 63bd 947d 64bd 44e0 cfbd
000000f0: b680 b6bd a8ab 483c 0142 913d 5e3e 283d
00000100: 0ce6 cf3c c851 acbd ec22 b5bd aa82 3c3d
00000110: a606 47bd 8155 f4bd a90c ea3d 8c0a 87bd
00000120: 5e06 303d 7aba 5b3d 0a0f e0bd eca1 893c
00000130: a086 07bc 3ece 5fbd 19bc 963d 0065 f1ba
00000140: 2d73 f23d a40c b63c b676 753d 78c7 60bc
00000150: dcb3 953c 6d93 9d3d fe99 88bd 777e 963d
00000160: 9b21 d33d 63a9 ca3d e2ce 5d3d 58d3 e0bd
00000170: f2b1 a2bd 209f 67bc fe21 733d 7870 36bc
00000180: c755 b53d a414 90bd 8768 6cbd f041 f23b
00000190: 258a 92bd e0b7 133b 7330 a83d 60cc 59bb
000001a0: 1a18 8fbd 05bc b3bd 9a23 443d d5ee 8a3d
000001b0: ad0f a53d 8f04 9c3d d0fa d8bb d304 c5bd
000001c0: d2fe debd 920a e9bd c236 0f3d d382 ad3d
000001d0: a446 97bc ce21 8cbd 06ae 263d d7f8 b2bd
000001e0: 9b85 e83d 4124 903d 00c3 d2bc 4414 e1bd
000001f0: b0b6 5cbd 7b07 b63d 80c1 2bbb 6e16 29bd
00000200: 44d2 a7bd 90cb 42bc 2af5 6d3d 9a80 4a3d
00000210: 875d 6ebd 81d1 993d 4c19 9e3c 2ade 383d
00000220: d38c a33d c4e0 c13c de9c 8abd 7c2e dabc
00000230: aa72 c4bd 7295 38bd 6b59 dc3d e9e5 d03d
00000240: d91d 8a3d 6185 a2bd d86c 7f3c b836 87bd
00000250: 53eb 943d 60bf dfbd 7d1b b9bd 1019 a5bd
00000260: bcc5 dcbd aca8 f93c ee1b bdbd 2a4a acbd
00000270: 40e7 843a 59b3 943d 2021 8abb 7022 c9bd
00000280: 3c5a b73c 16b3 483d bb8f d8bd 6a50 173d
00000290: 0ce5 c43c 4040 baba 51b6 ec3d 66a6 1dbd
000002a0: 32d6 563d e1c8 c33d 508d b33b e2db 9fbd
000002b0: 60c0 86bb 4302 863d 5091 d5bc 2818 b6bc
000002c0: e77a d43d 9c80 d8bd 6a1a 1e3d d28c c9bd
000002d0: 36f1 4e3d 2ee4 b1bd d9a9 c4bd 2809 1e3c
000002e0: 292c ee3d a853 94bd 6035 a03b 22f6 30bd
000002f0: 00b8 f6b8 f2d3 4d3d 0316 d03d 8865 073c
00000300: f03d ba3b 7042 53bd da8e 263d e878 0e3c
00000310: 123d 4dbd d467 43bd ee9c dbbd 0d0f d63d
00000320: ea17 073d 0373 f2bd cd91 cf3d 49ba d23d
00000330: bddd 6cbd 626c 83bd a110 e93d 82cf 64bd
00000340: 3edb 01bd 4922 f33d 30c2 36bc 67f4 d93d
00000350: 1817 623c 6ca6 e33c 479b 803d f2f7 6abd
00000360: 1abf 453d 504d 36bc a2f5 9ebd 00f9 62ba
00000370: 29d1 81bd 2bdc c6bd 41ff 9f3d 4474 84bd
00000380: 7ef3 323d d4e3 ed3c f4c0 8c3c e272 003d
00000390: 2e2e 2a3d 129e 313d 3c39 d7bd 43f5 ba3d
000003a0: a42e d3bc e4e6 b0bd b8d0 ecbd 541b 25bd
000003b0: 19f4 c43d 9b64 a03d 29ee eebd 8908 8d3d
000003c0: 959f 9b3d 28df 233c 3b43 813d 36d8 01bd
000003d0: 6856 a7bd 303a fd3b 1a75 0e3d 1839 83bc
000003e0: 47ba ce3d a8f0 01bd ea40 313d 17de c3bd
000003f0: 6da1 923d e2e4 473d 0011 74bc 953a 823d
