mnist_bp1/analysis/weights/W1_1110_1.npy (npy, 78628 bytes, 1 tensors)

array f4 [785, 25]
-0.025831774 0.10811148 0.053912915 -0.114562 -0.093594044 0.024307571 -0.050412714 -0.039255984
0.082652666 -0.06552438 0.053908594 -0.106975846 -0.08469389 0.025074892 0.109737165 -0.11471208
0.08721357 -0.011903971 -0.0865967 0.07786917 -0.070991814 -0.07138661 0.064935066 0.03258259
-0.093619995 0.10553066 -0.114327304 0.059993617 0.0055816546 -0.030860625 0.060954086 -0.062050294
-0.037882 -0.09744447 0.027606644 -0.02233895 -0.012766629 0.010977171 -0.08508848 -0.08457109
0.018499456 -0.09117339 0.10832948 0.050865494 -0.051779762 0.058510013 -0.013698146 -0.017245501
-0.0022043884 0.04704646 -0.068556026 0.112254955 0.11086068 0.07895551 -0.073749155 -0.081867225
0.0068629608 0.026706077 0.068108045 0.07122665 -0.0931824 0.045733936 -0.06492202 -0.012534343
-0.07731336 -0.06943056 0.08807222 0.06328786 0.027700849 -0.022555992 0.048772372 -0.034918785
0.0065370724 -0.056059256 -0.004922278 0.0795447 -0.004162304 -0.11458122 0.08892683 -0.10303216
-0.09534473 -0.050331227 0.10587441 0.084627025 0.108508416 0.0629682 -0.08622305 -0.07595003
0.09839203 0.020722501 -0.072863504 -0.04789278 -0.029069655 0.049475186 0.04958885 0.029713415
-0.0043102726 -0.06333789 0.011991583 -0.06779735 0.06412525 0.060105108 0.03736759 0.10258693
0.04778663 -0.07984266 -0.077983275 -0.022613242 -0.11767905 -0.03027878 0.05011121 0.038734995
-0.03729718 0.020286597 0.101031534 -0.053123847 0.07658958 0.06638477 -0.06742052 0.023972116
0.07894123 0.054172523 0.102503754 0.015990965 -0.0740241 -0.01002837 0.016060837 0.053727888
0.026868008 0.00032601506 0.09048282 0.098923676 -0.05654706 -0.033194758 -0.03380339 -0.039333947
-0.05039555 -0.093346536 0.06359842 0.041018777 -0.011158533 -0.061256476 0.06250317 -0.072290406
0.09579363 0.035040863 0.024328284 -0.110769704 0.010056786 0.11387289 -0.07225853 0.024626337
-0.0014584363 -0.07207334 -0.035512276 0.05241642 -0.023991078 -0.06811638 -0.113294736 -0.03805601
-0.005785249 -0.011645049 -0.09789118 -0.016549587 0.045716368 0.05216966 -0.023867197 0.107480474
0.08681642 -0.027518548 -0.034776337 0.019278087 0.06879363 0.02824413 -0.103031926 -0.023921095
-0.06502227 0.102322884 0.09264476 -0.11381798 0.07458075 -0.10698526 0.11603018 -0.08120387
-0.074066475 -0.013867095 -0.003482297 0.09613686 -0.016793862 0.101409934 -0.0025016218 -0.03204809
-0.09014651 0.079709984 -0.019029863 0.0020320415 0.016274191 -0.08733027 -0.07140801 0.09762517
-0.11778577 0.09961107 0.03354057 -0.016682826 -0.021577433 -0.04416249 -0.11746319 0.10079049
-0.097347274 -0.10156262 -0.031813085 -0.03896533 -0.10004405 -0.11864991 0.011378892 0.11504496
0.050562374 -0.020226203 0.07551522 0.008860849 0.06286406 -0.005908273 0.0228891 -0.11146474
-0.08616537 -0.013118021 0.0944492 0.060238145 -0.09165493 -0.008585446 -0.09925 0.0719678
-0.03853117 0.054815255 0.026702471 0.11448569 0.05782733 -0.10041441 0.08601219 -0.07081446
-0.039959617 -0.039659783 -0.0687612 0.115980856 0.055060096 0.0030592605 0.11140709 -0.07792545
0.09033059 -0.10659256 0.042991795 -0.008135945 0.09173123 -0.07625284 0.07423299 0.08574142
00000000: 289d d3bc 8d69 dd3d cad3 5c3d 7b9f eabd
00000010: 3cae bfbd ac20 c73c 907d 4ebd e2ca 20bd
00000020: cd45 a93d a531 86bd 42cf 5c3d 2716 dbbd
00000030: fd73 adbd dc69 cd3c e1bd e03d 2bee eabd
00000040: 079d b23d e008 43bc 9c59 b1bd df79 9f3d
00000050: 2864 91bd 2533 92bd adfc 843d 5275 053d
00000060: d7bb bfbd 7520 d83d 6f24 eabd debb 753d
00000070: 50e6 b63b 6ccf fcbc feaa 793d 7328 7ebd
00000080: 282a 1bbd f790 c7bd 5427 e23c 2c00 b7bc
00000090: 202b 51bc 98d9 333c de42 aebd 9c33 adbd
000000a0: 2c8c 973c 1db9 babd d9db dd3d 5658 503d
000000b0: 0417 54bd 32a8 6f3d 306e 60bc 7046 8dbc
000000c0: 8077 10bb cab3 403d 1a67 8cbd ede5 e53d
000000d0: ed0a e33d 6db3 a13d cc09 97bd 01aa a7bd
000000e0: b0e2 e03b b4c6 da3c 3b7c 8b3d 47df 913d
000000f0: 6ad6 bebd 8253 3b3d d6f5 84bd d85c 4dbc
00000100: 7856 9ebd 9c31 8ebd 355f b43d 119d 813d
00000110: e4ec e23c 58c7 b8bc 8ac5 473d 0007 0fbd
00000120: f034 d63b 649e 65bd 104b a1bb 55e8 a23d
00000130: f063 88bb 8fa9 eabd 451f b63d 8602 d3bd
00000140: 1944 c3bd 1e28 4ebd afd4 d83d ef50 ad3d
00000150: a939 de3d 79f5 803d b695 b0bd b08b 9bbd
00000160: c381 c93d 3cc2 a93c 7639 95bd 382b 44bd
00000170: 7c23 eebc 7ea6 4a3d ae1d 4b3d 8c69 f33c
00000180: 303d 8dbb 4cb7 81bd 5878 443c 56d9 8abd
00000190: 1954 833d c630 763d c20e 193d 1919 d23d
000001a0: eabb 433d 8c84 a3bd b2b5 9fbd 683f b9bc
000001b0: b701 f1bd 340b f8bc 6a41 4d3d 96a8 1e3d
000001c0: eec4 18bd 1430 a63c 9fe9 ce3d 6498 59bd
000001d0: ffda 9c3d bdf4 873d c513 8abd 2c61 c43c
000001e0: f1ab a13d 02e4 5d3d 7ded d13d 7cff 823c
000001f0: f399 97bd 084e 24bc 0492 833c c611 5c3d
00000200: 4c1a dc3c 00ed aa39 0f4f b93d 7f98 ca3d
00000210: e49d 67bd 3af7 07bd 6c75 0abd a21c 21bd
00000220: 906b 4ebd 782c bfbd e33f 823d 4e03 283d
00000230: 48d2 36bc 12e8 7abd a901 803d fe0c 94bd
00000240: 732f c43d 0287 0f3d 1c4c c73c 3adb e2bd
00000250: 38c5 243c 3136 e93d 48fc 93bd 2cbd c93c
00000260: 0029 bfba 309b 93bd 5275 11bd 9ab2 563d
00000270: f088 c4bc 9a80 8bbd 1207 e8bd 9ee0 1bbd
00000280: 3092 bdbb e0ca 3ebc 2c7b c8bd 0093 87bc
00000290: 1641 3b3d daaf 553d 2485 c3bc b91e dc3d
000002a0: cfcc b13d 946e e1bc a271 0ebd 14ed 9d3c
000002b0: ade3 8c3d 3c60 e73c 6702 d3bd 2cf6 c3bc
000002c0: 652a 85bd a98e d13d 89bc bd3d 6719 e9bd
000002d0: cbbd 983d 171b dbbd 3ba1 ed3d 374e a6bd
000002e0: 2ab0 97bd d032 63bc 4037 64bb 67e3 c43d
000002f0: 4893 89bc 03b0 cf3d 40f2 23bb dc44 03bd
00000300: bc9e b8bd fd3e a33d 84e4 9bbc 002c 053b
00000310: 7451 853c 36da b2bd 5d3e 92bd b5ef c73d
00000320: aa39 f1bd e300 cc3d d661 093d 6caa 88bc
00000330: 28c3 b0bc bae3 34bd 8a90 f0bd 3f6b ce3d
00000340: 025e c7bd 1000 d0bd 704e 02bd 1c9a 1fbd
00000350: e5e3 ccbd b9fe f2bd 886e 3a3c b19c eb3d
00000360: 7e1a 4f3d 6cb1 a5bc b9a7 9a3d 182d 113c
00000370: dfbe 803d 309a c1bb ec81 bb3c a047 e4bd
00000380: 7877 b0bd f8ec 56bc 956e c13d 46bc 763d
00000390: 94b5 bbbd f8a9 0cbc 9643 cbbd db63 933d
000003a0: dcd2 1dbd f685 603d 24bf da3c 7977 ea3d
000003b0: 5adc 6c3d 12a6 cdbd 2927 b03d 2c07 91bd
000003c0: b2ac 23bd 4c72 22bd acd2 8cbd 5f87 ed3d
000003d0: b286 613d e07d 483b 6729 e43d 6197 9fbd
000003e0: 3fff b83d 334d dabd 2a18 303d a04c 05bc
000003f0: 95dd bb3d 732a 9cbd 7707 983d 3399 af3d
