mnist_bp1/analysis/weights/W1_2410_0.npy (npy, 78628 bytes, 1 tensors)

array f4 [785, 25]
0	0x3d652036	0.055938922
1	0x3d968f3f	0.07351541
2	0xbd11d628	-0.035604626
3	0xbdbb6e49	-0.091518946
4	0xbd12138a	-0.035663165
5	0xbdbc5273	-0.091954134
6	0x3dcf801d	0.101318575
7	0x3df2fd0f	0.11864673
8	0x3dc6109f	0.09671139
9	0xbd83e42c	-0.06440005
10	0x3dc0600b	0.09393319
11	0x3cf7dad4	0.030255713
12	0x3d74147a	0.05958984
13	0x3b806720	0.0039185435
14	0x3def7a09	0.11693198
15	0x3da52509	0.080637045
16	0x3de57ab7	0.112050466
17	0x3dd55bb1	0.104178794
18	0x3c4ca818	0.012491249
19	0x3d30ab12	0.043131895
20	0xbd6c33f8	-0.05766675
21	0xbd1d6738	-0.038428515
22	0xbdd982d2	-0.10620655
23	0xbd82f84c	-0.06395015
24	0xbd7409d4	-0.059579685
25	0xbd1455ba	-0.036214568
26	0xbd389826	-0.045066975
27	0x3db0521f	0.08609413
28	0x3bf922d0	0.007603027
29	0xbcd75fcc	-0.026290797
30	0xbd5f166e	-0.05446475
31	0xbdad2112	-0.08453573
32	0x3c9914fc	0.018686764
33	0xbd43193a	-0.04763148
34	0x3d1ed6d6	0.038779102
35	0x3d446e0e	0.04795652
36	0x3c181c98	0.009284161
37	0x3d983cbb	0.074334584
38	0x3d323fe2	0.043517955
39	0x3da1bd47	0.0789743
40	0xbd32c09e	-0.043640725
41	0xbdc0ceb7	-0.09414428
42	0x3ddca01d	0.10772727
43	0x3de97fb7	0.11401313
44	0x3c02f988	0.007994063
45	0xbd20357a	-0.0391135
46	0x3d379b46	0.044825815
47	0xbdb83652	-0.08994736
48	0xbda2bdfd	-0.07946394
49	0x3d898e91	0.067166455
50	0xbbc82ff0	-0.00610923
51	0x3d08b296	0.033373438
52	0x3d989533	0.074503325
53	0x3d8c3031	0.06845129
54	0xbd310f7a	-0.04322765
55	0x3cdf9914	0.027294673
56	0x3d6853f6	0.056720696
57	0xbc77ef00	-0.015132666
58	0xbd759d54	-0.059964493
59	0x3d80b7b3	0.06285038
60	0x3d8df031	0.069305785
61	0xbc3cf720	-0.011533529
62	0x3de8dca3	0.11370208
63	0x3dcd8f7b	0.10037132
64	0x3df0edb5	0.11764089
65	0xbc1abc00	-0.009444237
66	0xbd87118c	-0.06595144
67	0x3dc1abcd	0.094565965
68	0x3dcd2f83	0.10018828
69	0x3b623fa0	0.0034522787
70	0x3c84b59c	0.01619988
71	0x3d9d9059	0.07693548
72	0x3cf3247c	0.029680483
73	0xbdeed2e4	-0.11661318
74	0xbd858b48	-0.065207064
75	0x3cfcfb84	0.03088165
76	0xbd4bf21c	-0.04979144
77	0xbcd96f44	-0.026542313
78	0x3d62a1ce	0.05533009
79	0x3b68d9c0	0.003553018
80	0xbd2d01f6	-0.0422382
81	0x3df50fff	0.11965942
82	0xbce452ec	-0.027871571
83	0xbdc332c2	-0.09531166
84	0x3d95c3bb	0.07312723
85	0xbdd2da4b	-0.10295542
86	0xbddc9c74	-0.107720286
87	0xbdecfd9d	-0.115718104
88	0x3caa1244	0.020760663
89	0xbd512536	-0.051060878
90	0xbc9f5958	-0.019451782
91	0x3dd3bd2b	0.10338815
92	0xbcc33998	-0.023831174
93	0x3d6dc072	0.05804486
94	0x3d18eada	0.037333347
95	0xbd8f574c	-0.069990724
96	0xbdbe8c6f	-0.09304129
97	0x3dee7d6b	0.11645015
98	0xbd585dde	-0.052823894
99	0xbd1c3fb8	-0.038146704
100	0x3d870b25	0.065939225
101	0xbcb6bbe8	-0.022306398
102	0x3cde6854	0.027149357
103	0x3d02f00e	0.031967215
104	0xbc5db500	-0.013531923
105	0x3d26c292	0.0407129
106	0xbdf2386c	-0.11827168
107	0xbdb8c57a	-0.09022041
108	0x3d8b7aeb	0.06810554
109	0x3d3a95ea	0.045553125
110	0xbcc764a4	-0.024339981
111	0x3da9e4e7	0.08295613
112	0x3d675012	0.056472845
113	0xbdcf691a	-0.101274684
114	0xbbd94da0	-0.006631568
115	0x3d912003	0.07086184
116	0x3de63a13	0.112415455
117	0x3c98c964	0.018650718
118	0xbc9ddeac	-0.019271217
119	0xbd98da74	-0.074635416
120	0x3da74d0d	0.08168993
121	0x3dc67033	0.09689369
122	0x3db6bd35	0.08922807
123	0x3de67f41	0.112547405
124	0xbdae3538	-0.085062444
125	0xbcb434bc	-0.021997802
126	0xbdb0fe1c	-0.086422175
127	0x3dde9e2d	0.108700134
128	0xbd212b54	-0.03934796
129	0x3bee6a70	0.007275872
130	0xbce5f9dc	-0.028073244
131	0xbd0aa78c	-0.03385119
132	0x3d9a02c7	0.07520061
133	0xbd5150ec	-0.051102564
134	0x3d232846	0.03983333
135	0xbd38f9cc	-0.0451601
136	0xbdede0b7	-0.116151266
137	0x3dd4206d	0.10357747
138	0xbdcf45e6	-0.10120754
139	0x3d135b06	0.03597548
140	0x3d03c65e	0.0321716
141	0x3d711cf2	0.058865495
142	0xbc9c4bd8	-0.019079134
143	0x3d0387fa	0.0321121
144	0xbdd23534	-0.10264054
145	0xbc255290	-0.010090485
146	0xbc445cd8	-0.011985026
147	0xbdd5deea	-0.10442908
148	0xbc8a2e80	-0.016867876
149	0x3c4830a8	0.012218632
150	0xbd57d4cc	-0.052693173
151	0xbdddff02	-0.108396545
152	0xbdb7381d	-0.0894625
153	0xbd7a15cc	-0.061055943
154	0xbd88ca8c	-0.06679258
155	0xbcee09bc	-0.029057376
156	0xbd87b86c	-0.066269726
157	0x3cad75d4	0.021174349
158	0xbd6cbad2	-0.057795353
159	0x3cf52604	0.029925354
160	0xbceade6c	-0.028670512
161	0xbd7fb1c7	-0.0624254
162	0x3dc4eaf7	0.096151285
163	0x3de7eed7	0.11324852
164	0x3de8cc8f	0.113671415
165	0xbd45359e	-0.048146836
166	0x3dc2a747	0.09504562
167	0x3db1795d	0.08665726
168	0x3d3711d2	0.04469473
169	0xbc821918	-0.015881106
170	0xbc6dac90	-0.014506474
171	0xbce361e8	-0.027756646
172	0xbd8cea72	-0.068806544
173	0xbc1dfc50	-0.0096426755
174	0x3d9ce0c3	0.076600574
175	0xbd993ea4	-0.07482651
176	0x3b8a1ec0	0.0042150915
177	0xbc63d770	-0.013906345
178	0x3dbed9b7	0.093188696
179	0x3ceb63cc	0.02873411
180	0xbdda7124	-0.10666111
181	0xbdabc853	-0.08387818
182	0xbcbeeb74	-0.023305632
183	0x3da78eb9	0.08181519
184	0x3cecd32c	0.028909288
185	0x3c905804	0.017620094
186	0x3d55e7c6	0.05222299
187	0xbdd69956	-0.10478465
188	0xbd5b7816	-0.05358132
189	0xbde77ec0	-0.113034725
190	0xba557e80	-0.0008144155
191	0x3caaeb3c	0.020864122
192	0x3db0e421	0.08637262
193	0xbd9aa874	-0.07551661
194	0xbcff41e0	-0.031159341
195	0x3da92d83	0.08260634
196	0x3d883415	0.06650559
197	0x3de95043	0.11392262
198	0xbd076ca2	-0.033062585
199	0x3d26ecbe	0.04075312
200	0xbd19c6e6	-0.0375432
201	0x3de0d2ab	0.10977682
202	0x3de2fc1f	0.110832445
203	0x3dd0e077	0.10199063
204	0xbb0f0860	-0.002182506
205	0x3df2ad0d	0.11849413
206	0xbdac4afa	-0.08412738
207	0xbd6549ba	-0.055978514
208	0x3da3c535	0.07996599
209	0xbc99b1f4	-0.018761612
210	0x3d967979	0.07347388
211	0x3d9e343d	0.077248074
212	0x3cce377c	0.025172941
213	0xbcfc5cc4	-0.030805953
214	0xbd1c7b4c	-0.038203523
215	0x3de652c3	0.11246254
216	0xbca6c748	-0.020358697
217	0xbdcf2199	-0.1011383
218	0xbdc99fc4	-0.09844926
219	0x3ca9581c	0.020671897
220	0xbd6033ac	-0.05473678
221	0x3c719b18	0.01474645
222	0xbc572558	-0.013131462
223	0xbd8df917	-0.06932276
224	0x3ba0c430	0.0049062
225	0xbdd77d8b	-0.10521992
226	0xbb788060	-0.0037918314
227	0x3dcd39cd	0.1002079
228	0x3dead8cf	0.11467134
229	0x3d43611a	0.047700025
230	0xbc9a640c	-0.018846534
231	0x3d8032d5	0.062596954
232	0xbddb7c74	-0.10717097
233	0x3d6919a2	0.05690921
234	0x3bbf20d0	0.005832769
235	0x3d0b34da	0.03398595
236	0xbd059024	-0.032608166
237	0xbc86646c	-0.016405307
238	0x3d8491f3	0.0647315
239	0x3df303c7	0.11865955
240	0x3dc82b13	0.09773841
241	0xbdb24d77	-0.087061815
242	0x3d022196	0.03177031
243	0xbdc5c1fd	-0.09656141
244	0xbd873b40	-0.06603098
245	0xbdbc4dfe	-0.09194563
246	0x3d3a55fa	0.04549215
247	0xbbfeeae0	-0.007779464
248	0x3dccb3bf	0.09995221
249	0xbd73a678	-0.05948493
250	0x3d068806	0.032844566
251	0xbdd48c33	-0.103783034
252	0xbdca6c24	-0.098839074
253	0xbb8ca260	-0.0042918175
254	0xbd47f8d0	-0.04882127
255	0x3d918d4b	0.071070276
