mnist_bp1/analysis/weights/W1_2439_1.npy (npy, 78628 bytes, 1 tensors)

array f4 [785, 25]
000000 da c7 59 bd 8e e1 62 3d cf ef b8 bd 49 4a c8 3d
       -0.05316911 0.055390887 -0.09030115 0.09779794
000010 9a ad 79 3d 4f 37 ee bd f8 e7 b3 bd 74 0b a8 3c
       0.060956575 -0.11631643 -0.08784479 0.020513274
000020 75 16 f4 3d 50 87 b8 bc aa 18 75 3d f0 39 09 bd
       0.11918346 -0.02252546 0.059837975 -0.03350252
000030 e0 80 10 bc 80 b9 0b 3a a3 ad c0 3d 3c 62 db bd
       -0.008819789 0.0005330071 0.094081186 -0.10712096
000040 09 b5 d2 3d 78 68 6c 3c a1 38 eb bd 40 0f 98 bd
       0.10288436 0.014429204 -0.114854105 -0.07424784
000050 b7 82 b8 bd b9 48 df bd 60 30 96 bd 62 ac 5d 3d
       -0.09009307 -0.109025426 -0.073334455 0.054119475
000060 5b 10 88 3d 8c 2f 89 3c 68 6a b8 bc 11 4f c1 3d
       0.066437446 0.016746305 -0.022511676 0.09438909
000070 98 51 2b bc 47 14 9b 3d 46 a1 19 3d 48 e1 b0 bc
       -0.010456465 0.07572227 0.037507318 -0.021591797
000080 56 84 09 3d 4a 70 76 bd 24 bd 5f bd 74 67 c6 3c
       0.03357347 -0.06016568 -0.054623738 0.024219252
000090 0a 4b e6 bd cf b9 91 bd 3e 54 37 bd d2 ec 73 bd
       -0.11244781 -0.07115518 -0.044758074 -0.05955202
0000a0 50 e6 10 bd 68 23 37 bc 2a 21 3e 3d 4c 66 e7 bd
       -0.035375893 -0.011177875 0.046418346 -0.112988085
0000b0 6a 21 6b 3d 66 47 3a bd e0 26 70 bb a4 5a ec 3c
       0.057404913 -0.045478247 -0.0036644265 0.028851815
0000c0 20 30 8d bc 2f 76 c3 bd 78 22 24 bc e0 1c b8 bc
       -0.017234862 -0.09544026 -0.010017984 -0.022474706
0000d0 1e ca 72 bd 5a d1 95 bd a0 1a 9b bc 1d 1c af bd
       -0.059274785 -0.07315321 -0.018933594 -0.08550284
0000e0 4a 17 15 bd f5 09 9e 3d a3 f9 bf 3d be f0 a4 bd
       -0.036399163 0.07716743 0.09373786 -0.080537304
0000f0 e4 13 da 3c 00 90 2e ba a7 34 d9 bd 0d 04 91 3d
       0.026620813 -0.0006659031 -0.10605746 0.07080851
000100 4a 6d 04 bd bf 5f b8 3d 49 f8 e3 3d 3e cd 27 3d
       -0.03233079 0.09002637 0.11131341 0.04096722
000110 12 14 0d bd 8a 5c 3e 3d 40 3f 77 bb 60 9f 96 3b
       -0.03444297 0.04647497 -0.003772691 0.0045966357
000120 50 5e 8a bb 16 4e 6d 3d 6f 30 84 bd 9a 74 59 bd
       -0.0042226687 0.057935797 -0.064545505 -0.053089716
000130 31 3b e8 3d 8f f0 d9 bd 42 e5 10 bd ca 57 e9 bd
       0.11339415 -0.10641586 -0.035374887 -0.113936976
000140 90 88 b4 bb f0 e8 ee 3b 83 17 97 3d 0b 5b ef bd
       -0.0055094436 0.007290952 0.073775314 -0.11687287
000150 e8 72 74 bc 60 1d 8f bc 88 19 6b bc a8 21 b3 bd
       -0.014919974 -0.017470062 -0.014349349 -0.08746654
000160 2c d6 3d bd 34 08 cb bc fe 5e 72 3d 38 90 e6 bc
       -0.04634683 -0.024784185 0.059172623 -0.02814494
000170 71 29 cc 3d 45 b5 b6 3d 60 1e 89 3b c2 e1 57 bd
       0.09968842 0.08921293 0.004184529 -0.052705534
000180 69 9f be 3d 17 51 99 bd 5b 0e 8a 3d d8 d7 b2 bc
       0.09307749 -0.0748617 0.06741019 -0.021831438
000190 50 26 16 bd 80 06 b0 ba 24 1f 81 bc dc d8 9d bd
       -0.03665763 -0.0013429672 -0.01576192 -0.07707378
0001a0 24 44 ad bc 07 c2 84 3d 06 c7 33 3d 2b 91 c0 bd
       -0.021150656 0.0648232 0.043890975 -0.094026886
0001b0 46 ae 06 3d 7c bf b2 bc 70 a5 be bb f7 14 f0 3d
       0.032881044 -0.021819822 -0.0058180615 0.11722749
0001c0 4e 5c b9 bd a0 32 b0 bc 0c 80 d6 3c 53 99 98 3d
       -0.09050809 -0.021508515 0.026184104 0.07451119
0001d0 15 cd ae 3d d7 79 d1 3d a0 7b 14 bb 3a 0f 26 bd
       0.0853521 0.10228317 -0.0022656694 -0.040541865
0001e0 0e a4 ba bd fa 6d 9c bd a9 05 b9 3d 84 76 be 3c
       -0.09113322 -0.07638164 0.09034283 0.023249872
0001f0 7b ad a1 3d c4 d1 3f bd 5a 9f 62 3d 70 a5 97 bb
       0.07894417 -0.046830907 0.05532775 -0.004627876
000200 d4 c3 cb 3c c3 9c 98 3d 45 71 c1 3d c4 b9 bd 3c
       0.024873652 0.07451775 0.094454326 0.023159869
000210 ef 9d ed bd a8 ab 2f 3c 1f 73 99 3d 69 ff 94 3d
       -0.11602389 0.010722078 0.07492661 0.07275278
000220 c2 4d 31 3d c0 b1 00 bb ee fa 54 3d 02 c3 0c bd
       0.043287046 -0.0019637197 0.051997118 -0.03436566
000230 d2 4f 11 3d 9e ce 27 3d f2 a3 25 3d e9 01 71 bd
       0.035476513 0.04096853 0.040439554 -0.058839712
000240 9f 91 a5 3d d0 db 41 bc 36 98 85 bd 50 eb ad bd
       0.08084416 -0.011832193 -0.065231726 -0.08492148
000250 46 98 59 3d 41 15 a2 bd 08 46 5f 3c 83 db 84 3d
       0.053123735 -0.0791421 0.013627537 0.06487181
000260 88 9c 42 bc d9 6d a3 3d 25 8b f4 bd 38 f4 85 bc
       -0.01187814 0.07979936 -0.11940602 -0.016351804
000270 92 80 be bd 40 d2 96 3b 45 45 8d 3d 66 72 0f bd
       -0.093018666 0.0046027005 0.06897978 -0.03502121
000280 a1 93 84 3d 3a d3 0a bd 5a a9 d0 bd 5a 82 49 bd
       0.064734705 -0.033892848 -0.10188551 -0.04919658
000290 49 63 bd 3d f4 83 b7 3c 90 98 b4 bd 60 14 a2 3b
       0.09247453 0.022401787 -0.088181615 0.0049462765
0002a0 60 d3 e9 bb b0 ed 9d 3b 10 83 9b bd a8 66 59 3c
       -0.0071357936 0.0048195943 -0.075933576 0.013269104
0002b0 b0 e0 14 bd b5 9b e6 bd 20 68 73 bb 4a 8a 91 bd
       -0.03634709 -0.112601675 -0.003714092 -0.07106455
0002c0 d6 0f 52 3d 4c 07 8e bd 92 05 0e 3d 82 f7 80 bd
       0.051284634 -0.069349855 0.03467328 -0.06297208
0002d0 0a d9 1a 3d 8f 8f a4 bd c0 57 1e bc dc d2 6b bd
       0.03780464 -0.08035194 -0.009664476 -0.057574138
0002e0 62 4d 11 3d 7d f3 aa bd 45 46 aa bd 88 7d 69 bd
       0.03547419 -0.08347223 -0.08314184 -0.05700448
0002f0 e9 85 e8 bd 19 26 8d 3d 1e b8 57 3d ac 22 96 bc
       -0.11353666 0.06892032 0.052665822 -0.01832708
000300 90 27 53 bd ca ff e0 bd 5c 53 85 bd 60 4e fe bb
       -0.0515514 -0.10986288 -0.0651004 -0.007760808
000310 68 9c c2 bc 90 5b e6 3b 65 e6 c2 bd 8d c4 a9 3d
       -0.023756221 0.007029958 -0.095166005 0.08289442
000320 74 24 f5 3c 57 06 8c 3d 50 93 d4 3b 0f 41 c4 bd
       0.029924609 0.06837147 0.0064872876 -0.095827214
000330 6a 77 87 bd 5e 41 64 3d dc 8c c5 bc 1c cd cb 3c
       -0.06614573 0.0557264 -0.024115019 0.024878077
000340 dc 4e ee 3c 68 f0 69 bc cc cb c5 3c 82 5a 5b 3d
       0.029090337 -0.014278509 0.02414503 0.05355311
000350 3a 92 36 bd b0 d5 4a bc 69 4d bc 3d 2c 00 ce bd
       -0.044573046 -0.012380049 0.09194452 -0.100586265
000360 7a 30 55 bd 0c 68 a4 bd ec 5c 51 bd eb 17 94 3d
       -0.052048184 -0.08027658 -0.051114008 0.072311245
000370 1f 59 f1 3d 86 79 ef bd a4 15 12 bd 0e bc 56 3d
       0.117845766 -0.11693101 -0.03566517 0.052425437
000380 61 39 8e bd 18 55 c9 bd 30 93 12 bd 80 60 1b 3a
       -0.06944538 -0.098306835 -0.0357849 0.00059271604
000390 b1 e0 b2 3d 40 8c ea ba 84 dc e4 bd e7 cf d2 3d
       0.08734263 -0.0017894581 -0.111748725 0.102935605
0003a0 f0 f5 bc 3b 48 b1 60 3c db 82 92 3d 0c 25 fb 3c
       0.0057666227 0.013714142 0.07153865 0.030657314
0003b0 4d 72 f1 3d 44 29 99 bd 68 e6 9e bd d6 b3 30 3d
       0.11789379 -0.07478574 -0.0775879 0.043140255
0003c0 02 35 db bd be ea d7 bd bf 59 d8 3d ea fa 9b bd
       -0.1070347 -0.105428204 0.10563993 -0.076162174
0003d0 c8 6f 23 3c df bc a0 3d 3b 6b e0 3d 32 00 6b 3d
       0.009975381 0.07848524 0.109579526 0.057373233
0003e0 5c 6c 04 bd 40 53 7a bc d0 34 bd bb 06 31 bb bd
       -0.032329902 -0.015278637 -0.005774118 -0.0914021
0003f0 10 ad ff bb f6 46 54 bd 08 fb 3a bc 94 a2 bf bc
       -0.007802613 -0.051825486 -0.01141239 -0.023392953
