mnist_bp1/analysis/weights/W1_391_2.npy (npy, 78628 bytes, 1 tensors)

array f4 [785, 25]
000000 f8 0f 16 3c 7a 71 50 bd a4 57 80 bd 7c bf 8b bc
       0.009159081 -0.05088947 -0.06266716 -0.01705908
000010 52 e2 6d 3d f8 55 0e 3c f2 d4 46 3d ad a6 89 3d
       0.058077164 0.008687489 0.048542924 0.06721244
000020 bc 37 c3 3c 7f 91 e1 3d 55 9f 8a 3d 86 0b d3 bd
       0.023830287 0.11014079 0.067686714 -0.10304932
000030 68 b4 09 bc fd 8a 73 bd e4 6d e2 3c 7a e5 07 3d
       -0.008404829 -0.05945872 0.02764029 0.03317783
000040 cf 85 7e bd 9f 7a 95 3d 13 35 d6 3d 32 6b 60 bd
       -0.06213933 0.07298779 0.10459342 -0.05478973
000050 2a 1c 62 3d d3 70 e3 bd 68 0a bc bd fe bd 73 3d
       0.05520264 -0.11105504 -0.09181672 0.059507363
000060 38 1c 57 3c b7 83 93 3d 1e 1f 0f 3d e0 87 d9 bd
       0.0131292865 0.07202857 0.034941785 -0.10621619
000070 9b ec d8 3d 1d ca 94 3d bc 4e ab bd 54 ca 75 bd
       0.10592004 0.072651125 -0.08364627 -0.06000741
000080 5c 1c ef bc da 7b 7a 3d 2c f0 26 bd 35 ff ed bd
       -0.029188327 0.06115327 -0.04075639 -0.116209425
000090 c1 8b 90 3d f0 34 ca bc 33 9b 8f 3d 4c 0a bf bd
       0.07057906 -0.024683446 0.07012024 -0.09328136
0000a0 f4 31 8c 3c a8 a3 06 bd 7e 83 31 bd 1e 71 08 3d
       0.017113663 -0.03287092 -0.04333829 0.033311002
0000b0 ff ec 95 3d 54 83 bb bd a0 1b f5 bd a8 76 98 bd
       0.07320594 -0.09155908 -0.1196816 -0.07444507
0000c0 92 3d 7e bd 40 2a 92 bd 78 84 3d 3c d5 46 c9 3d
       -0.062070437 -0.07136965 0.011567228 0.09827963
0000d0 53 b6 d2 3d ac af f0 3c f4 d6 f4 bd 8e 75 69 3d
       0.10288682 0.029380642 -0.119550616 0.056996875
0000e0 ab 2a 8f 3d f4 7c f8 3c ab 69 f5 3d 24 17 2d bd
       0.0699056 0.03033302 0.11983045 -0.042258397
0000f0 50 90 1d bc 00 74 26 bb 2b ea ac 3d ff 33 94 3d
       -0.009616926 -0.0025398731 0.084431015 0.0723648
000100 c3 5c c4 3d e4 26 1e bd e3 03 d0 3d 13 54 cf bd
       0.095880054 -0.038611308 0.10156991 -0.10123458
000110 d0 38 99 bc 84 7d 90 bc 64 a2 2e bd 8e b6 45 3d
       -0.018703848 -0.017637976 -0.042635337 0.0482698
000120 70 7d f8 bc dd f1 d6 3d 03 14 a8 3d a4 66 89 bc
       -0.03033325 0.104953505 0.08206942 -0.016772576
000130 23 60 af 3d 5e 43 91 bd 57 8d f3 3d b9 be b1 3d
       0.085632585 -0.070929274 0.11892193 0.086789556
000140 5a 46 0c 3d 17 12 76 bd 6c 85 5d bd e1 45 cb 3d
       0.03424678 -0.060075846 -0.05408232 0.09925438
000150 ff d5 af 3d 60 47 14 bb da fd 70 3d a3 9a 7a bd
       0.085857384 -0.002262555 0.05883584 -0.06118263
000160 0d e8 94 3d 28 2b 47 3c ee 61 21 3d e5 6e 90 bd
       0.07270823 0.012156285 0.039400034 -0.070524015
000170 ec 61 d0 bd a8 14 30 3c 7e cc cf bd 4c 82 9d bd
       -0.10174927 0.010747112 -0.10146426 -0.07690868
000180 5c f6 ab bc 14 9e b0 bc 54 57 0d bd 10 1e eb 3b
       -0.020991497 -0.021559753 -0.03450711 0.0071752146
000190 ca 79 38 3d 90 93 0b bc b7 f2 c0 bd 54 8e 57 bd
       0.045038022 -0.008519068 -0.09421294 -0.05262597
0001a0 80 ba 74 bd 9f 4c df 3d 00 24 6e 39 91 3a a6 3d
       -0.059748173 0.10903286 0.0002271086 0.081166394
0001b0 8c f7 aa 3c 76 89 79 3d 60 d8 c2 bb cc 6f b4 bd
       0.020869993 0.06092211 -0.005946204 -0.08810386
0001c0 57 fd 82 bd 09 0b e6 3d 08 11 25 bc 4a 17 a1 bd
       -0.06395977 0.112325735 -0.010074861 -0.0786577
0001d0 0b 26 9c 3d f2 72 14 3d 14 d7 bf 3c 28 f1 56 bd
       0.076244436 0.036242433 0.023417987 -0.05247608
0001e0 86 0d 56 3d 65 b4 b8 3d d0 4c 87 3b a7 73 ae 3d
       0.05225899 0.090187825 0.00412903 0.08518153
0001f0 46 95 32 3d 6f 5d de bd 6c 62 d4 bd f2 5c a0 bd
       0.04359939 -0.10857665 -0.10370335 -0.07830228
000200 8b 47 dd bd c8 5b 89 bc 09 cc d9 bd ec 62 e3 bc
       -0.10804661 -0.016767398 -0.1063462 -0.02775713
000210 01 8b 8d bd 4a f8 15 bd c0 96 00 bc 22 4c dd bd
       -0.069112785 -0.03661374 -0.007848442 -0.10805537
000220 4a 0e 5d bd 41 75 e7 bd 98 54 76 bc 1e 45 c6 bd
       -0.053968705 -0.11301661 -0.015034817 -0.09681152
000230 ba d5 9d bd fb 38 b1 3d 71 37 8d 3d 9d 84 87 3d
       -0.07706781 0.08653446 0.0689534 0.06617091
000240 f5 37 a9 3d 43 05 aa 3d ee 19 1b bd 38 a8 59 3c
       0.08262626 0.08301785 -0.037866525 0.013284735
000250 2f 86 c2 3d 28 8a a7 bc 39 64 d1 3d ba 27 55 3d
       0.0949825 -0.02045162 0.10224194 0.05203984
000260 88 5d 23 3c ba 60 3a 3d 5b 56 cf 3d 70 f6 91 bc
       0.00997103 0.045502402 0.10123893 -0.017817706
000270 a6 5c 75 3d 00 10 0c bd 60 4a 2b bb b7 96 b3 3d
       0.05990281 -0.034194946 -0.002613686 0.08768981
000280 08 2a c3 bd 00 48 3a bb f8 c2 3a bd 2d 36 c5 3d
       -0.09529501 -0.0028424263 -0.045596093 0.09629474
000290 b5 9d 6d bd a3 1d c8 3d cb ad a6 3d 00 d6 95 3b
       -0.05801173 0.09771278 0.08138617 0.00457263
0002a0 74 b5 d9 3c 32 74 18 3d f8 de 2d 3c 2c 23 90 bd
       0.026575781 0.037220187 0.010612242 -0.070379585
0002b0 00 93 75 bb 69 1e 71 bd 62 b3 51 3d 10 e1 cf bc
       -0.0037471652 -0.058866892 0.051196463 -0.025375873
0002c0 16 fc 0a 3d 2e fc 37 bd 1a 37 4d bd d3 58 92 3d
       0.033931814 -0.04491823 -0.050101377 0.07145848
0002d0 37 36 e8 3d 44 c5 b3 3c 70 7d 9e 3b ea 82 6e 3d
       0.11338466 0.02194465 0.0048367307 0.058230318
0002e0 62 6b 42 3d 28 58 7a bc 4f 6f b3 bd 62 63 14 bd
       0.04746569 -0.015279807 -0.08761465 -0.03622759
0002f0 18 63 fe bc b5 2c e3 3d 7b 58 81 3d b2 9b 2b 3d
       -0.031053111 0.110925116 0.063157044 0.04189653
000300 f5 ff e1 3d 9b 7a 93 3d 8e b9 ac bd da 72 5a bd
       0.11035148 0.072011195 -0.08433829 -0.053332187
000310 a8 02 16 3c a6 a9 40 3d 13 6f c0 3d 4d e7 b8 3d
       0.009155907 0.04703679 0.09396186 0.09028492
000320 84 55 fd 3c 26 09 87 bd d5 60 8c 3d 9f da c6 3d
       0.030924566 -0.06593542 0.06854407 0.097096674
000330 1a b8 20 bd 6f fa c8 bd 06 29 ab bd 98 5a b9 bd
       -0.039238073 -0.098133914 -0.08357434 -0.090504825
000340 ed a7 f1 3d 0f 2c dc 3d 7d 40 91 bd 19 e7 b6 bd
       0.117996074 0.10750591 -0.07092378 -0.08930797
000350 9a a9 6b 3d c0 4b cf ba 8a 54 52 bd bc ae 8d 3c
       0.05753479 -0.0015815422 -0.051350154 0.017295234
000360 4a ba c7 bd 41 b9 c4 bd 4f 07 b5 3d 1b ca 92 3d
       -0.09752329 -0.09605647 0.08839285 0.07167455
000370 80 d9 55 3b ee ca 75 bd 28 a9 fd bc 64 38 ee bd
       0.003263086 -0.060007982 -0.030964449 -0.116318494
000380 b0 22 c1 3b 80 12 ed bb a6 be 28 3d f0 f8 ab bd
       0.0058940277 -0.0072348714 0.04119744 -0.083970904
000390 a8 fd 48 bd 56 b4 04 3d 00 cf d7 ba 77 2c ec 3d
       -0.04907003 0.032398544 -0.0016464889 0.115319185
0003a0 c9 96 cd bd 6d 3b e7 3d 8a ef bb bd a7 96 8e 3d
       -0.100385256 0.112906314 -0.09176548 0.069623284
0003b0 90 b0 f3 bd 00 64 66 bc b1 9a a1 3d 9e 0e c8 bd
       -0.11898911 -0.014061928 0.07890833 -0.09768413
0003c0 b4 1a d5 bc 0c d0 b7 bd 74 7f ff 3c 6f 71 ac 3d
       -0.02601371 -0.08975229 0.031188704 0.08420073
0003d0 fb 6a 88 3d a8 9a 00 bd 24 30 df bc f3 00 a0 bd
       0.0666103 -0.03139749 -0.027244635 -0.07812681
0003e0 b8 1d 6e bd 0e 08 75 3d a8 ac 7d 3c 04 5d 94 3c
       -0.05813381 0.059822135 0.015483059 0.01811076
0003f0 18 dd 24 3c 44 e4 37 bd 9c b6 98 3c 4c 9e 44 bd
       0.0100624785 -0.044895425 0.018641762 -0.048002526
