mnist_bp1/analysis/weights/W2_1599_3.npy (npy, 1168 bytes, 1 tensors)

array f4 [26, 10]
0	0xbffe4864	-1.9865842
1	0xbf122054	-0.5708058
2	0x3f5430ad	0.82886773
3	0xbe1e679e	-0.15469214
4	0xc08735e2	-4.2253275
5	0x3f938028	1.1523485
6	0x3fc9c8a7	1.5764359
7	0xc073c401	-3.8088381
8	0xbeb4b3f1	-0.35293534
9	0x40bc3a86	5.882144
10	0x4030e84f	2.764179
11	0x3f3269da	0.69692767
12	0xc0840576	-4.1256666
13	0x3f969c28	1.1766405
14	0xc087202f	-4.2226787
15	0x3f8ae4dc	1.0851092
16	0x4054141d	3.3137276
17	0x3e9780d4	0.29590476
18	0xc068504b	-3.6299007
19	0xbff23b61	-1.8924371
20	0xc02325ea	-2.549189
21	0x3fa4fc4b	1.2889494
22	0xbfd6c67c	-1.6779323
23	0x400dee6c	2.217677
24	0x4044b13b	3.0733173
25	0xc08ef017	-4.466808
26	0xbdf9f955	-0.122057594
27	0x4009a73c	2.1508322
28	0xbf6cd7b0	-0.92516613
29	0xc029197f	-2.6421812
30	0xbf052c1a	-0.5202042
31	0x4003ab48	2.0573292
32	0xc0b16928	-5.5440865
33	0x4029a4c3	2.6506813
34	0xbfb55702	-1.4167178
35	0x3e9b3fb0	0.30322027
36	0xbfb06f7e	-1.3784025
37	0x405aa020	3.4160233
38	0xbf884de9	-1.0648776
39	0xc00662e1	-2.099785
40	0x401bfaa9	2.437174
41	0x3fe053af	1.7525538
42	0xbea33bc6	-0.3188154
43	0xbffc4d94	-1.9711175
44	0xc071440b	-3.769778
45	0x3f26d4dd	0.65168554
46	0xc00b6c30	-2.1784782
47	0xbe19d965	-0.15024336
48	0xbf4af857	-0.79285187
49	0x401d9ff3	2.4628875
50	0xbf566c38	-0.8375888
51	0x3ff87dc9	1.9413387
52	0x4036870e	2.851993
53	0xbf5ea58a	-0.8697134
54	0x404e0fbe	3.2197108
55	0x3f623a3f	0.88370126
56	0x3f553b33	0.83293456
57	0xc0000e3e	-2.0008693
58	0xc0859e0d	-4.1755433
59	0xc0b80efe	-5.75183
60	0xbed124af	-0.408483
61	0xc004bd65	-2.0740597
62	0x3f425f0f	0.759263
63	0x40373d76	2.8631263
64	0xc0922649	-4.5671735
65	0xc028afff	-2.635742
66	0xbfe82bf3	-1.8138412
67	0x40298ff5	2.6494114
68	0xc043a7d9	-3.0571196
69	0x4022916a	2.5401254
70	0x3eb85fc6	0.3601057
71	0xbbd50f30	-0.0065020546
72	0xc03ffede	-2.9999309
73	0xbfa4c2da	-1.2871964
74	0x3fb9a824	1.4504437
75	0xc0859f7e	-4.1757193
76	0x3d50d2d0	0.050982296
77	0xbfb6f33f	-1.4292983
78	0x403a0898	2.9067745
79	0x3f7b9318	0.9827132
80	0xbf793420	-0.9734516
81	0xc08aa1ea	-4.332265
82	0x4077d884	3.87259
83	0x407673c6	3.8508162
84	0xbe142db6	-0.14470562
85	0xc0bed107	-5.963016
86	0xbf88349d	-1.0641056
87	0x3c520cb4	0.0128204115
88	0x40688506	3.633119
89	0xc02f2c16	-2.7370658
90	0xbef1a504	-0.4719621
91	0xc0191e30	-2.3924675
92	0xbf34048f	-0.70319456
93	0xc09d67c6	-4.9189177
94	0xbfdba3bd	-1.7159344
95	0x40ee948b	7.4556327
96	0xbf584716	-0.8448347
97	0xc00ff510	-2.2493324
98	0xbea0ad0f	-0.31382033
99	0x3fb711ae	1.430227
100	0xbf7aa1cb	-0.97903126
101	0xc082b4ea	-4.084584
102	0xc05f8aaa	-3.4928384
103	0xc086e529	-4.2154737
104	0x3fc3537b	1.5259851
105	0xc09dace0	-4.927353
106	0x3f9b61cc	1.213922
107	0x3f3a1c60	0.72699547
108	0x405fcdbf	3.4969327
109	0xc01370f5	-2.3037694
110	0xbc1881db	-0.009308304
111	0xc037a3f7	-2.8693826
112	0x406e0dae	3.719585
113	0xc02bf2d8	-2.686697
114	0xbf687145	-0.90797836
115	0x3f195eac	0.5991008
116	0xbfddf90b	-1.7341627
117	0x3f0eb01a	0.5573746
118	0xc0219075	-2.524442
119	0xbf6f2904	-0.9342196
120	0xbee24729	-0.44194916
121	0xbf4a48eb	-0.79017514
122	0xbef0ce33	-0.47032318
123	0xc02a1002	-2.657227
124	0x3f58ba6f	0.84659475
125	0x40b41740	5.627838
126	0x3f84bfdc	1.0371051
127	0x3fc1e2ef	1.514738
128	0xc070e0f0	-3.763729
129	0xc00303a3	-2.047097
130	0xc0ac9732	-5.3934565
131	0x400c69ab	2.1939495
132	0x3fba03da	1.4532425
133	0xbf6497ee	-0.89294326
134	0xbcc5e133	-0.024155235
135	0x4078bbaa	3.886454
136	0xc0ee0bd4	-7.438944
137	0xc04cfff9	-3.2031233
138	0xbf285212	-0.6575023
139	0x3f9aca26	1.2092941
140	0x4035d8e6	2.8413634
141	0xc08312fd	-4.096068
142	0xbf9ef5c4	-1.2418752
143	0x40088710	2.1332436
144	0x407b3a25	3.9254239
145	0x3f528731	0.82237536
146	0xc0484f32	-3.1298337
147	0xc08e8cba	-4.4546785
148	0x3e054113	0.13013105
149	0x3f8d45a5	1.1036879
150	0x3fc59f36	1.5439212
151	0xbf8f0da0	-1.1176033
152	0xc09c7bf8	-4.890133
153	0xbffb7154	-1.964396
154	0x400dac8d	2.2136567
155	0xc0866d57	-4.200847
156	0x3ff2bbf3	1.8963608
157	0x3f12d76e	0.5735997
158	0xbfe78b17	-1.8089322
159	0x3f866a7a	1.0501244
160	0x406e00f8	3.7188091
161	0x402d05ba	2.7034745
162	0x4042a2bc	3.0411825
163	0x3ff8e100	1.9443665
164	0xc00d8c84	-2.2117014
165	0xc0b857e4	-5.760729
166	0xc09358e2	-4.6046
167	0xbe814b10	-0.2525258
168	0xbfff413e	-1.9941785
169	0x3f828873	1.0197891
170	0xc034eaed	-2.8268387
171	0x40566b2b	3.350291
172	0x40828057	4.0781665
173	0xc04f7cdf	-3.2419965
174	0xc001ece2	-2.0300832
175	0xbf38c4ce	-0.721753
176	0xbff6c257	-1.9278058
177	0x408b4b39	4.3529325
178	0xc001f16e	-2.0303607
179	0xc0b5abfd	-5.6772447
180	0xc0044a47	-2.0670335
181	0xbfc1a6d3	-1.5129036
182	0xbf0d2daa	-0.551478
183	0x3fad1f82	1.352524
184	0x3f94beaa	1.1620686
185	0x402b7684	2.6791086
186	0xc02b9f23	-2.681588
187	0xbfc9c444	-1.576302
188	0xc1060968	-8.377296
189	0x3f3b36dc	0.73130584
190	0xc0b6a0ae	-5.707114
191	0x3e47121c	0.19440502
192	0xc0692600	-3.6429443
193	0x3fcb4dd7	1.588313
194	0x3fc632de	1.5484273
195	0x3f311875	0.69177943
196	0xc03c30a4	-2.9404688
197	0x408ae277	4.3401446
198	0x3f5b931d	0.8577135
199	0xbffb5c8f	-1.9637622
200	0xc0443a03	-3.0660408
201	0x4020f446	2.5149093
202	0x3f73d6c1	0.95249563
203	0xc00b48cd	-2.1763184
204	0x3f852a7f	1.0403594
205	0xbfd3eae5	-1.6556059
206	0x3df8d9fe	0.12150954
207	0xc034d628	-2.825571
208	0xc082f747	-4.092685
209	0x3faae766	1.3351867
210	0xbff46b9e	-1.9095342
211	0xbff77d92	-1.9335196
212	0x3fd49fbb	1.6611246
213	0xc0966600	-4.699951
214	0x3f4761a2	0.7788335
215	0xbfdc4a7b	-1.721023
216	0x3ed34472	0.41263157
217	0x3fa06b37	1.2532719
218	0x3fac4849	1.345956
219	0xc0a2b92d	-5.0851045
220	0x3f43c464	0.76471543
221	0x4016da2b	2.357066
222	0xbeb6ef51	-0.3572946
223	0x40580beb	3.3757274
224	0xc0650e40	-3.5789948
225	0x3fa5b5be	1.2946088
226	0xbf1678d4	-0.5877812
227	0xc092cff7	-4.5878863
228	0x40718c02	3.7741704
229	0xc0ac3ba7	-5.382282
230	0xc00282ea	-2.0392404
231	0x3f41004d	0.75391084
232	0x3e8ba9e3	0.2727805
233	0x3fed230f	1.8526324
234	0xc089762c	-4.2956753
235	0xbeb03426	-0.34414786
236	0x4082c158	4.0861015
237	0xc06c47ef	-3.6918905
238	0xc07e4f52	-3.9735913
239	0xbf16bbd0	-0.5888033
240	0x3fc0c3eb	1.505979
241	0xc02de6a9	-2.7172034
242	0x4045a96e	3.0884662
243	0x407af96d	3.9214737
244	0x3ea44d99	0.32090452
245	0xbf8f377a	-1.1188805
246	0xc09f8d1b	-4.985975
247	0x3fc7a2b5	1.5596529
248	0xc0798ba1	-3.8991473
249	0xc03797c3	-2.8686378
250	0xc0655539	-3.5833266
251	0xbf65b84b	-0.89734334
252	0xbfc69868	-1.5515261
253	0xc01c1747	-2.4389207
254	0xbfc74dfa	-1.5570672
255	0xbfead9cd	-1.8347718
