mnist_bp1/analysis/weights/W2_1142_1.npy (npy, 1168 bytes, 1 tensors)

array f4 [26, 10]
000000 84 8c 8b c0 69 d9 2e bd 60 f0 c2 40 c0 d7 86 bf
       -4.360903 -0.042687807 6.0918427 -1.0534592
000010 e0 14 05 c0 3f b7 39 40 7a 35 30 c0 15 7f 2f 40
       -2.079399 2.9018095 -2.753264 2.7421315
000020 86 26 35 c0 87 bb 9a c0 38 40 7e bf 14 7d cf bf
       -2.8304763 -4.8353915 -0.9931674 -1.6210046
000030 b4 07 a3 3e a4 5e 84 3f eb e7 8a bf 72 a5 5e c0
       0.31841815 1.0341382 -1.0852026 -3.478848
000040 6d bb b5 bf 2e ca 9e c0 52 90 96 3f d2 e4 91 40
       -1.4197823 -4.96218 1.1762793 4.559182
000050 9f fb 0f 40 26 af 73 3f f2 cb 3b 40 d7 7b 6e c0
       2.2497327 0.9518913 2.9343228 -3.7263086
000060 28 a7 26 40 2e b1 46 c0 36 74 4a be 88 5a 53 c0
       2.6039524 -3.1045642 -0.19770893 -3.3024006
000070 a3 a6 2a c0 37 9f 61 bf b9 25 4c c0 b9 42 4a bf
       -2.6664207 -0.8813357 -3.1898024 -0.7900806
000080 c1 05 70 c0 36 b9 f4 3f ed 5e b5 3e 8a 47 3f 40
       -3.7503512 1.9119022 0.35423985 2.9887414
000090 5c 14 45 40 cb 70 2b c0 ef 30 be 3f 42 fd 98 bf
       3.0793676 -2.6787593 1.4858683 -1.1952288
0000a0 66 fa 23 3d d5 22 07 3e c9 7e 19 3f 58 c2 a4 c0
       0.04003372 0.13196881 0.59959084 -5.1487236
0000b0 d3 a4 c8 be 22 d1 a2 40 42 07 39 c0 62 86 41 c0
       -0.3918825 5.088029 -2.891068 -3.023827
0000c0 c0 be 05 3f 34 dc 46 40 33 37 78 be df 3e a9 3f
       0.52244186 3.1071901 -0.24239807 1.3222312
0000d0 a5 36 5f c0 fc 81 c0 3f dd ea 44 40 db 79 62 c0
       -3.4877102 1.5039668 3.076835 -3.5386875
0000e0 e7 f2 72 3f c1 67 cb 3f 1c 7c 43 c0 74 70 10 c0
       0.9490189 1.5891038 -3.05445 -2.2568636
0000f0 91 f7 33 40 ff 8e 00 40 5f e5 94 c0 0f e7 d6 bf
       2.8119853 2.0087278 -4.6529994 -1.6789263
000100 47 7d a0 c0 65 ae 48 3f 42 07 ac be 47 a1 17 40
       -5.0152926 0.78391105 -0.33599287 2.3692186
000110 0d 1a 21 bf 61 1c 5a bf 4f 35 cb 3f 63 e0 67 3e
       -0.62930375 -0.8519955 1.5875643 0.2264419
000120 c9 a2 73 c0 f2 25 d1 bf 80 c8 b4 bf e1 85 40 40
       -3.8068106 -1.6339705 -1.4123688 3.0081713
000130 88 4e 5c be c6 e4 d6 bf 6f be 97 c0 15 d7 d9 3f
       -0.21514332 -1.6788566 -4.7419963 1.7018763
000140 69 2f 12 c0 99 ed dd c0 14 3d 71 bf 75 4e 87 3f
       -2.2841437 -6.9352536 -0.9423382 1.0570818
000150 50 6b d9 bf d6 f2 38 c0 9d 20 01 c0 d6 ce 0b bf
       -1.6985874 -2.8898215 -2.0176156 -0.5461248
000160 fc ab 99 3f 64 30 6c 3f 8f 76 25 c0 4f da 5c c0
       1.200561 0.9226134 -2.5853612 -3.4508245
000170 4b d3 c8 be 01 8d 58 c0 01 fb fd 3f 89 44 17 c0
       -0.39223704 -3.3836062 1.9842225 -2.363558
000180 f3 8b 23 c0 d7 9b 83 40 63 ce e5 c0 a8 4f ef 3f
       -2.5554168 4.1127734 -7.1814437 1.8696184
000190 ce 6b 31 40 f7 8b 8a 3e 1e 1c 6a 40 fb d1 89 c0
       2.7722049 0.2705991 3.6579661 -4.3068824
0001a0 d0 5b 13 bf 31 92 86 c0 c4 0f b6 3f c6 3b 31 3e
       -0.5756197 -4.2053456 1.4223561 0.17307958
0001b0 2a 34 1c bf d0 6e 41 c0 f2 09 81 bf 68 8b ff bf
       -0.61017096 -3.0223885 -1.008116 -1.9964418
0001c0 25 04 c5 3f 67 51 57 3f 6e 55 b1 40 60 4c 6c 3f
       1.539189 0.84108585 5.5416784 0.9230404
0001d0 d3 19 91 bd 76 79 1c bf b2 fc f8 bf 43 f1 de c0
       -0.07085004 -0.61122835 -1.9452116 -6.966951
0001e0 10 f2 59 c0 6d 90 c0 3f 91 dc a8 3e 32 da 48 40
       -3.4053993 1.5044075 0.3298078 3.1383176
0001f0 39 c8 90 bf a3 3e a5 3f fd b5 59 bf 7a 51 12 c0
       -1.1311103 1.290974 -0.8504332 -2.286223
000200 48 09 11 bf 78 8a 6f c0 f7 9d 6a c0 c8 59 d7 3f
       -0.5665479 -3.7428265 -3.6658914 1.6824274
000210 3e 80 74 40 89 d7 49 40 5b 6b 3c c0 ae 66 64 bf
       3.8203273 3.1537802 -2.9440525 -0.89219177
000220 f5 cf aa c0 a2 c0 9b 40 8d 50 87 c0 b5 6a bf c0
       -5.3378854 4.8672647 -4.228583 -5.9817758
000230 95 95 0c 40 03 70 f2 bf 1d 42 75 be a8 b1 e6 3f
       2.1966298 -1.8940433 -0.23951001 1.8022966
000240 ec 2c 0d c0 9e 2f d5 be 46 bc 0a 40 42 81 15 c0
       -2.2058668 -0.41637892 2.1677413 -2.3360143
000250 af e3 92 c0 7f 1f 54 3f 3b 2a ca bf 9b 09 f9 bd
       -4.5902934 0.8286056 -1.5794138 -0.12160035
000260 d4 b2 2f bf cf 0c fe bf 61 52 a2 c0 87 fe e3 be
       -0.68632245 -1.9847659 -5.072556 -0.44530126
000270 d5 af 67 40 a2 b9 0a 3f c6 87 13 c0 54 e3 1c 40
       3.620107 0.54189503 -2.305162 2.451375
000280 a0 23 85 c0 d0 3a d6 3f 96 73 9b c0 23 af 4b 40
       -4.1605988 1.6736698 -4.8578596 3.1825645
000290 b0 d1 d4 be cf 53 86 40 e1 29 93 c0 be 9a 57 c0
       -0.4156623 4.1977305 -4.598862 -3.3688197
0002a0 98 b5 d4 c0 be 8c 33 40 f4 8b 52 c0 c1 15 71 40
       -6.647167 2.8054652 -3.289792 3.7669528
0002b0 48 6b ff 3f f3 2b 23 c0 bb b9 4c c0 88 fa 04 bf
       1.9954615 -2.5495574 -3.198836 -0.5194478
0002c0 03 22 45 40 39 07 38 c0 c3 a1 31 c0 ec 95 f7 bf
       3.080201 -2.8754408 -2.7754982 -1.9342628
0002d0 48 ac b1 3f 6c f5 a0 be 3e 64 8e be 0c 82 2e c0
       1.3880701 -0.31437242 -0.27810854 -2.7266874
0002e0 99 41 65 c0 8e 03 87 c0 86 de 68 40 d2 ef 55 c0
       -3.5821288 -4.219184 3.6385818 -3.3427625
0002f0 7a e2 be 3f 19 b4 e2 bf 21 e7 31 c0 5a d9 46 40
       1.4912865 -1.7711211 -2.779732 3.107016
000300 ef 19 81 bf 7c 72 94 c0 3e 82 0e 40 0b d5 a6 3f
       -1.0086039 -4.638975 2.2266994 1.3033766
000310 f5 0d a8 3f da 7b 65 3e 68 23 01 bf 30 55 35 c0
       1.3129259 0.22410527 -0.5044465 -2.8333244
000320 6c a9 0e 40 4e 6b 79 c0 d8 6b 80 3f 63 3e c1 bf
       2.2290907 -3.8971744 1.0032911 -1.5097164
000330 54 d0 89 3e dc f2 96 40 87 d7 28 c0 e2 bb 3c c0
       0.26916754 4.717146 -2.6381547 -2.9489675
000340 7c 9b 4c bf d5 d2 8a be d8 7b 95 bf 49 94 69 40
       -0.7992475 -0.27113977 -1.1678419 3.6496756
000350 48 97 6b 3f bd cf 07 40 91 0f 08 40 a1 b4 dc c0
       0.9202771 2.1220543 2.12595 -6.8970494
000360 84 42 85 c0 3f a8 d4 3e 84 82 02 bf 14 24 51 be
       -4.1643696 0.41534612 -0.509804 -0.20423919
000370 14 40 c3 bf 6d 1f e6 3e 4c 58 81 c0 b1 6b 9e bf
       -1.525393 0.4494585 -4.0420284 -1.2376615
000380 49 6e d1 3f ef 68 1e c0 2b ac e0 3f e1 25 aa 3f
       1.6361781 -2.4751546 1.7552541 1.329281
000390 78 3c 2e 40 28 7e 30 3f d0 33 c0 3f 91 5e 22 40
       2.7224407 0.689425 1.5015812 2.5370219
0003a0 39 65 7c c0 35 ae 83 3f eb c9 e9 bf ba e9 8f be
       -3.9436781 1.0287539 -1.8264745 -0.28108007
0003b0 6d 17 2c c0 0e 86 6e 40 40 50 77 bd ba 9c 3c c0
       -2.6889298 3.726932 -0.060379267 -2.9470658
0003c0 cc ce 8f bf 5e 3e 9a c0 1f 7b 51 3f 32 54 94 40
       -1.1234984 -4.820113 0.8182849 4.6352777
0003d0 ae e0 af be 92 58 91 c0 42 d7 cd bf 5b 68 ca 3f
       -0.34351104 -4.542062 -1.6081316 1.5813097
0003e0 5a c9 2d 40 50 cc 29 c0 ad 7e 4a c0 95 ce 36 bf
       2.7154145 -2.6530952 -3.1639817 -0.7140897
0003f0 c4 7d 30 c0 07 e4 b6 bf ce a4 78 bf d4 24 c4 be
       -2.7576761 -1.4288338 -0.9712647 -0.38309348
