mnist_bp1/analysis/weights/W2_629_2.npy (npy, 1168 bytes, 1 tensors)

array f4 [26, 10]
0	0x3fcae8cd	1.5852295
1	0x40182e84	2.377839
2	0xbff1c617	-1.8888577
3	0x3fff3ff9	1.9941398
4	0x3eb9ccf3	0.36289176
5	0xc0966b63	-4.7006087
6	0x401cae93	2.4481552
7	0xbf1194ab	-0.56867474
8	0xc07338ae	-3.8003345
9	0xc02891a2	-2.6338887
10	0xc09400ad	-4.6250825
11	0x3ebbbfdf	0.36669824
12	0xc0865ce7	-4.1988406
13	0xc0d09af3	-6.5189147
14	0xc057a722	-3.369576
15	0x40da45d5	6.8210244
16	0x405a7db8	3.4139233
17	0x3d365640	0.04451585
18	0xc05b7539	-3.4290297
19	0xbf12df32	-0.5737182
20	0xc09f2df2	-4.9743586
21	0xc015d8e3	-2.3413627
22	0x40823c40	4.0698547
23	0x402dd2b4	2.7159853
24	0xc018a6ee	-2.3851886
25	0x40a77de2	5.2341166
26	0xbf881e8a	-1.063432
27	0xc043edb8	-3.0613842
28	0x3fc1170c	1.5085158
29	0x3fe9e0c3	1.8271717
30	0xbfcf2745	-1.6183859
31	0x3fc247d8	1.5178175
32	0xc055f1e8	-3.3428898
33	0x3f212147	0.629414
34	0xc059dbcf	-3.404041
35	0xbec7d804	-0.39031994
36	0xc01a0be8	-2.4069767
37	0x3ec7d23d	0.39027587
38	0x3fe1ab01	1.7630311
39	0x405b8633	3.4300659
40	0xbf1cc273	-0.61234206
41	0xc084fe01	-4.1560063
42	0xbfc84690	-1.5646534
43	0xbdd182a6	-0.10229997
44	0x40a26d3c	5.0758343
45	0xbfc020bd	-1.5009991
46	0xc0316eee	-2.7723956
47	0x4059e5ce	3.4046512
48	0x4056fa2e	3.3590198
49	0xbe118dc8	-0.14214242
50	0xc08ae93a	-4.34097
51	0x402fbb86	2.7458205
52	0x40380d81	2.8758242
53	0xc08f188a	-4.4717455
54	0x3fecf91b	1.8513521
55	0xc0850923	-4.1573653
56	0xbd664985	-0.056222457
57	0x3f2c9c8c	0.6742637
58	0xbff14891	-1.885027
59	0xbfb0b8a8	-1.3806353
60	0x3fdd337f	1.728134
61	0xc0734fdf	-3.80175
62	0x400f56fe	2.2396846
63	0xbb5a8dd0	-0.0033348687
64	0xbf33a6b3	-0.7017624
65	0x3e268a8e	0.16263792
66	0xc0918c41	-4.548371
67	0x3fc9d175	1.5767046
68	0xbf172eac	-0.5905559
69	0xc08cc3fa	-4.398923
70	0xbf88e505	-1.0694891
71	0x3ff071dd	1.8784748
72	0xc02ac77e	-2.668426
73	0x3fc630b7	1.5483617
74	0x401e3b8b	2.4723842
75	0xc034455f	-2.816734
76	0x3eeae321	0.4587641
77	0xbf07795f	-0.5291957
78	0xc0b34e52	-5.6033106
79	0x3ff601e4	1.9219327
80	0x3edab4e9	0.42716148
81	0xc0090993	-2.1412094
82	0xc033cd91	-2.8094218
83	0x40156749	2.334429
84	0xbf24f69c	-0.64438796
85	0x3fae3c01	1.3612062
86	0xbf37c4ea	-0.7178484
87	0xc074b4fa	-3.823546
88	0xc072a79c	-3.79148
89	0x40957704	4.6707783
90	0xc00f8efa	-2.2431016
91	0x3f1a1ab6	0.6019701
92	0xbfc90034	-1.5703187
93	0x3ffd4d09	1.9789134
94	0xc085db92	-4.183053
95	0xbfa33a7e	-1.2752225
96	0xbfa0fd14	-1.2577233
97	0x40952558	4.6608086
98	0xbf9c7a4d	-1.2224823
99	0x3fa115ca	1.2584774
100	0x401cfaec	2.452815
101	0x3ea48d4c	0.3213905
102	0xc0880144	-4.2501545
103	0xc0521bfd	-3.2829583
104	0x3fe7ec96	1.8119075
105	0x3fa2f206	1.273011
106	0x4082006a	4.0625505
107	0xc098e194	-4.7775364
108	0x40966d57	4.700847
109	0x409cd3cd	4.9008546
110	0xc03f46b4	-2.9886904
111	0x40318346	2.7736373
112	0x3f90fbf9	1.1326896
113	0x3ee55cfb	0.447975
114	0x40170368	2.359583
115	0xbe1e1c0c	-0.15440387
116	0xbfb87f6c	-1.4413886
117	0x3fcb2630	1.5871029
118	0xc0bdf6ea	-5.936391
119	0xc09d0f4b	-4.908117
120	0xbf8070cb	-1.0034422
121	0x4028210d	2.6270173
122	0xbe088e6f	-0.13335584
123	0x3fefb8cc	1.872827
124	0xc037fab2	-2.8746762
125	0xc08333e9	-4.1000867
126	0x407d56b0	3.958416
127	0xc064260d	-3.5648224
128	0x4018ca73	2.3873565
129	0xbfb468b7	-1.4094456
130	0xbfab9e86	-1.3407753
131	0x4044cdf9	3.0750716
132	0xbf8710ee	-1.0552042
133	0xc0c1914e	-6.0489874
134	0x3fdbf86e	1.718519
135	0x3fae0009	1.3593761
136	0xc070dcda	-3.7634797
137	0x3f9ac184	1.2090306
138	0xc0781f2e	-3.876903
139	0xbfc0d2f2	-1.5064375
140	0xc01b93e9	-2.4309027
141	0x3f224a92	0.63395035
142	0x3fdcbb1b	1.72446
143	0xc0695f58	-3.6464443
144	0xbe5b6797	-0.21426235
145	0xc09b8327	-4.85976
146	0x3fc4844c	1.5352874
147	0x4099e94a	4.8097277
148	0x3fc8b4da	1.5680192
149	0xc0a91ee5	-5.2850213
150	0x3e056a04	0.13028723
151	0xc0ac9763	-5.39348
152	0xc08fc7bc	-4.4931316
153	0x405841db	3.3790195
154	0xbe90c0de	-0.28272146
155	0xbfb26eff	-1.3940123
156	0x3fd7d815	1.6862818
157	0x3f83864e	1.0275362
158	0x3fc256fd	1.5182797
159	0xc080be83	-4.023256
160	0x4003d770	2.0600243
161	0x3f069b3f	0.52580637
162	0xbf2326f8	-0.63731337
163	0xc0958bcd	-4.6733155
164	0x3fb5e6e6	1.421109
165	0x3f82532f	1.0181636
166	0xbf00dba7	-0.5033516
167	0x3fcff884	1.6247716
168	0x3fb2d8c2	1.3972399
169	0xc0355048	-2.833025
170	0xc0270aa6	-2.610025
171	0xc02da324	-2.7130823
172	0xbfc77b64	-1.5584531
173	0x3f46596a	0.77480185
174	0x40284480	2.629181
175	0xbec33291	-0.38124517
176	0x3f1b4d38	0.606647
177	0x3f8ef87d	1.1169583
178	0xbf8b252e	-1.0870721
179	0xc0ac6b1d	-5.3880754
180	0x3eb15c67	0.3464081
181	0xc0174fb3	-2.3642395
182	0xc066b2bd	-3.6046593
183	0xbf45bd75	-0.77242213
184	0xc04ca793	-3.197728
185	0xbfcf6547	-1.6202782
186	0x40475c01	3.1149905
187	0x3edd700c	0.43249547
188	0xbfff56ad	-1.9948326
189	0x3f8cc142	1.0996478
190	0x3ee35312	0.44399315
191	0x40338ef3	2.8056
192	0x3efc5a5e	0.49287695
193	0x3f9a8cbb	1.2074198
194	0xbff8c799	-1.9435912
195	0x40847756	4.1395674
196	0xc055a9e2	-3.3384938
197	0x3ff4aa34	1.9114442
198	0xc0f201bd	-7.562712
199	0xbfa8a17a	-1.3174279
200	0x3f0fc27d	0.5615614
201	0xc095fb05	-4.686892
202	0x40b90368	5.781666
203	0xc06fda73	-3.747708
204	0xbfc82021	-1.5634805
205	0x3e5a5678	0.21322048
206	0xbf425fe1	-0.7592755
207	0x3f3b0a64	0.7306273
208	0xbdddfd56	-0.108393356
209	0xbf5f2ffa	-0.8718258
210	0x3fbe1b35	1.4852053
211	0x3b8170b4	0.003950203
212	0x3fbdee92	1.4838431
213	0xbf8d5b3e	-1.104347
214	0x4064424a	3.566546
215	0xc08da49b	-4.4263434
216	0xc0115624	-2.2708826
217	0xc051ff66	-3.2812133
218	0xc0359fa2	-2.8378682
219	0xbe368544	-0.17824274
220	0x403b6120	2.927803
221	0xbf4b46ce	-0.79404914
222	0x404af770	3.1713524
223	0xbfc1723d	-1.5112988
224	0xc0626047	-3.5371263
225	0xc0344957	-2.8169763
226	0xc06b80b7	-3.6797311
227	0xbdd241a3	-0.102664255
228	0xc008d834	-2.138196
229	0x40153ef8	2.3319683
230	0xc0803b84	-4.007265
231	0x3f3c17aa	0.7347361
232	0xc05ab336	-3.4171882
233	0x4007aee0	2.1200485
234	0xbd278f88	-0.040908366
235	0xc035e374	-2.8420076
236	0xc043a44f	-3.0569036
237	0x3f5e2945	0.8678172
238	0x40589136	3.383863
239	0xbf9c9b00	-1.2234802
240	0x3febd164	1.8423276
241	0x4017bf8d	2.3710663
242	0x3f5c21af	0.859889
243	0xbfe9abe1	-1.8255578
244	0xc075a895	-3.8384144
245	0x4005c1c9	2.0899527
246	0xbeb41fec	-0.35180604
247	0xc094e710	-4.653206
248	0xbf4a7731	-0.7908812
249	0xc0877116	-4.2325544
250	0xc0346f82	-2.819306
251	0xc00c9353	-2.196492
252	0xbfa8be75	-1.3183123
253	0xc06a6e69	-3.662989
254	0xc0071504	-2.1106577
255	0xc03951e6	-2.8956237
