NN/analysis/results/dfa/W1_107_0.npy (npy, 314128 bytes, 1 tensors)

array f4 [785, 100]
00000000: a46d 0b3c 1cf9 51bc 905f 783b f8ac 68bc
00000010: 4084 bcbc a024 e2bc f276 cd3c e0c5 d23b
00000020: 5829 d53c 486d 3d3c f6aa dc3c e54e 86bc
00000030: 2019 99bc c736 10bd 70c0 0fbd c5b4 9fbc
00000040: dcd9 3f3c b893 443c 26ce a73c a052 c5bc
00000050: 5c02 c5bc 7caa aabc 4028 8a3c 032f 0b3d
00000060: 6ae3 863c 3cad cf3c e03a c73a c8af ef3b
00000070: caf8 02bd 5200 bb3c 0583 bfbc 261f f23c
00000080: 5c1e 523c 00f2 45bc 7635 e13c 86ac f93c
00000090: c0f3 f33a c057 893c c066 3c3c 8acd e8bc
000000a0: 531e c6bc e0c8 803c c01e 383a 8068 93bc
000000b0: 40ca 0fba b861 a53c 2aaa e2bc f84c 913c
000000c0: 78f9 c93c 5007 1ebb a882 b63b 00e7 3d39
000000d0: 5c27 58bc 00da 89ba a250 ec3c d39f 04bd
000000e0: c0a3 cb3c 2e32 a83c 0077 033b 00f1 a839
000000f0: 5e18 f93c a04b 07bd 60f1 e9ba 50ef 1a3b
00000100: ca9a 8b3c 7030 68bb d5e9 02bd 24d1 f7bb
00000110: dc63 d5bb ee31 d6bc fca8 a9bc 0e88 e0bc
00000120: ca1b d0bc f051 223c ae1f fcbc b8af f03b
00000130: f081 023c 8a9f 8ebc 1cd4 983c b092 303c
00000140: 5c1a 0bbc 6041 893c 604a b9bc 94e8 393c
00000150: 5268 983c 1e3b f43c 1eb1 09bd 435d 07bd
00000160: a537 cebc 5cbe d5bb 9542 00bd 930a babc
00000170: 103a bc3b eaa6 d4bc 5279 1fbc 6075 f9ba
00000180: b378 f0bc 20df d5bc 0c66 06bd 0bfe 103d
00000190: 7332 ebbc cfa4 0e3d 5399 bfbc 3b0c 083d
000001a0: 98ba a23c 4ac3 6bbc f310 08bd 20b1 953a
000001b0: 54e4 263c 00ef cfbb 3c23 e7bc eee2 76bc
000001c0: 10aa 0dbd 20e6 02bb 0a0a d13c 2726 04bd
000001d0: c841 a13b 6ebc febc efcb 003d ee61 ddbc
000001e0: 785b 08bc 00c9 bbb9 dcc0 95bb 127c 5fbc
000001f0: 6134 063d 6917 073d 5457 373c a4f5 0f3c
00000200: 8345 00bd 00df 1bbc 5cb8 dbbc a801 a33b
00000210: 56aa ee3c 663c 3fbc 177e 81bc 0e46 fa3c
00000220: fcdc c43c ca43 aebc d863 b83c 2a6a d3bc
00000230: a6c6 cb3c e569 a2bc 1c6b 5e3c 005b debc
00000240: bc18 ecbc e402 033c f8e9 06bc 2a68 f83c
00000250: 3751 0dbd 38e8 733c b8a4 56bc 4030 1a3c
00000260: 269a be3c 93a6 023d ce2c 9d3c 463d b53c
00000270: 4a08 efbc 0092 a03c 62ca db3c 5caa ce3c
00000280: 78f1 c43c 45d2 bcbc dc5d 483c 4633 b93c
00000290: b5d8 05bd 80cc 6bbc 0049 243c 468f fd3c
000002a0: e6f7 36bc 1016 85bb e0d8 ec3b 9c67 c4bc
000002b0: 06fb f33c 2670 77bc 20a5 0dbb 2af5 f03c
000002c0: cf0b 023d a1a8 0c3d dc00 b3bc aea6 67bc
000002d0: 30d9 01bd 405a b7bc 1091 833b 6e7a 6cbc
000002e0: ab6e 113d de63 f53c 8036 03bc a5d5 a1bc
000002f0: 6e4f 37bc d689 f93c 8abd 973c bce1 c7bc
00000300: 242b 343c 8e4b cd3c 377e 0fbd 70c2 e8bb
00000310: 6094 00bd c876 c8bb 5c9f 013c f008 f73b
00000320: 20be 46bb b8e5 9a3b fc9b dbbc e540 f3bc
00000330: 52ac 9c3c c05f cf3c 0a83 17bc 481d fbbb
00000340: 8e94 eabc b8dc c03c 5cc7 49bc 40ff bd3c
00000350: 7050 503c b830 d23c 10e4 e73b f33d 0cbd
00000360: 3892 be3c b628 f93c 0ad4 6dbc e0cf 35bb
00000370: 1c1f 51bc a2a7 dc3c 401f 7fbc 8070 c53c
00000380: 4852 2a3c 1c21 debc 7061 06bd febc ef3c
00000390: e067 5ebb b8c9 bfbc 05f9 e4bc e085 99bc
000003a0: 93cc 11bd a65b 5abc 14cb 193c df53 093d
000003b0: 00f6 dcbb d329 febc 3c7b 9f3c 9cff 5e3c
000003c0: 7204 e33c c87e b1bb 70f9 2b3c 48cf 86bb
000003d0: a80d da3b 1446 bbbb 26e2 2dbc aaf3 ae3c
000003e0: 1c38 353c 80a5 a8b9 252c eebc 9888 b0bc
000003f0: 402e a73a 00f9 f33b d215 73bc 6443 0dbc
0.008510027 -0.01281574 0.0037898757 -0.014201395 -0.02301228 -0.027605355 0.025081132 0.00643228
0.02602069 0.011561699 0.02693699 -0.016395042 -0.018688738 -0.03520849 -0.035095632 -0.019495377
0.011709657 0.0119981095 0.020484041 -0.02408725 -0.024048977 -0.020833246 0.016864896 0.03398038
0.016465861 0.02535116 0.0015200041 0.007314656 -0.031975545 0.022827301 -0.023377905 0.029555868
0.012824621 -0.012081623 0.027491312 0.030477773 0.0018612072 0.016765475 0.011499107 -0.028418321
-0.024184382 0.015720785 0.0007023625 -0.017994165 -0.00054851547 0.020188197 -0.027669031 0.017736897
0.024655089 -0.0024113245 0.0055697747 0.00018110499 -0.013192978 -0.001051724 0.028847042 -0.032378983
0.024858356 0.02053174 0.0020059943 0.00032223016 0.030407127 -0.033031106 -0.0017848425 0.0023641177
0.017041583 -0.0035429262 -0.03196128 -0.0075627733 -0.0065121483 -0.026146855 -0.02071046 -0.027408626
-0.025403876 0.009907231 -0.030776825 0.007345166 0.00796555 -0.017410059 0.01865583 0.0107771605
-0.008490171 0.016754806 -0.022618473 0.011346955 0.018604431 0.029813346 -0.033616178 -0.033047926
-0.025173018 -0.0065229367 -0.031313498 -0.02271012 0.0057442263 -0.025958497 -0.009733515 -0.0019032173
-0.029354429 -0.02610737 -0.032812163 0.035398524 -0.02871058 0.034825142 -0.02338854 0.03321479
0.019864365 -0.014389822 -0.03321929 0.0011420585 0.010186274 -0.0063456297 -0.028215043 -0.015068753
-0.034586012 -0.001997359 0.025517482 -0.032262947 0.004921172 -0.03109571 0.031444486 -0.027024236
-0.008322589 -0.00035817176 -0.00457011 -0.0136404205 0.032764796 0.03298131 0.011190254 0.008786593
-0.03131629 -0.009513617 -0.026821308 0.0049745627 0.029133957 -0.011672115 -0.015807195 0.030550983
0.024031155 -0.021272559 0.022508547 -0.025807459 0.024874996 -0.019825885 0.013575342 -0.027143002
-0.028820388 0.007996295 -0.008234493 0.030323107 -0.03450128 0.014886908 -0.013100795 0.009410918
0.023266863 0.03189714 0.019186404 0.022123944 -0.029178757 0.019600868 0.026829902 0.025227718
0.024040923 -0.023049483 0.012229409 0.022607457 -0.03267737 -0.014392018 0.01002717 0.030952107
-0.011167502 -0.004061468 0.007228002 -0.023975186 0.029782783 -0.015102422 -0.0021613315 0.029413778
0.031749543 0.034340505 -0.021850996 -0.014138861 -0.031701267 -0.022381902 0.0040150955 -0.014433486
0.03550593 0.029954847 -0.008008599 -0.019755194 -0.011188371 0.030461233 0.018522996 -0.02439963
0.010996614 0.025060441 -0.035032477 -0.007103257 -0.0313915 -0.0061176755 0.007911529 0.007538907
-0.0030325726 0.0047270916 -0.026807778 -0.02969403 0.019125137 0.025314212 -0.009247551 -0.0076634027
-0.02863529 0.023542747 -0.012315597 0.023193002 0.01271449 0.025657997 0.0070767477 -0.034238767
0.023263082 0.03041492 -0.014515886 -0.0027742311 -0.012763765 0.026935402 -0.015571415 0.024101496
0.010395594 -0.027115397 -0.032807767 0.029264923 -0.0033936426 -0.023411617 -0.027950773 -0.018740594
-0.035595488 -0.013327515 0.0093867965 0.03352725 -0.0067431927 -0.031025803 0.019467942 0.013610747
0.02771208 -0.005416725 0.010496482 -0.0041140653 0.00665446 -0.005715141 -0.010613 0.021356422
0.011060741 -0.00032166764 -0.029073784 -0.021549508 0.0012754872 0.0074454546 -0.014836745 -0.008622024
