mnist_bp1/analysis/dfa/W2_51_3.npy (npy, 1168 bytes, 1 tensors)

array f4 [26, 10]
1.2638006 3.4154997 0.24367079 -6.1149592 3.6640868 -6.509832 -1.903999 4.108043
3.4248955 2.271769 3.3938305 -3.9381316 -3.672469 -6.7901964 2.2419555 -10.58227
-2.9353204 0.6565805 -0.04007557 1.1935347 1.6333922 0.90561724 2.733209 -6.1557345
0.12190395 5.1869946 0.09008683 -1.2297218 -7.9548383 4.475428 5.245105 3.1087866
1.7704885 -5.377276 -4.630405 -3.869092 -1.2882704 0.16022909 3.61913 -0.24028888
0.82098985 -2.740549 -2.405304 6.7614164 8.233636 -2.1073828 -4.599682 2.2908137
6.1552367 -1.0749855 -2.0909238 -3.8713841 2.8838298 -0.6471129 -3.2362144 3.8977466
-2.9855433 -0.72883105 -4.6903205 6.5983086 4.3796 4.419201 -2.3240237 -1.9503593
2.4968374 0.28180677 -0.07914024 -6.2414484 -5.879902 2.363898 -0.5001411 -4.4199204
-3.182649 2.041767 -7.7770605 -0.9938477 -1.7564062 0.6128011 7.236373 1.7946329
-4.4743023 1.4975674 -2.4492075 -5.9150825 0.105928086 4.469381 0.6570314 -1.6872338
4.828989 -3.0181825 -3.6204717 5.3602004 -0.7776049 -0.6650803 -1.6500655 2.8959136
-6.868972 -1.1727327 3.2264974 0.9659448 -0.1820016 0.05516568 -0.5952606 -0.9058566
-6.948541 2.5322764 -3.6025445 4.7879553 -6.3142467 -7.9095287 0.5983469 -6.973771
-4.886141 -1.7942148 0.0089181885 0.5035854 2.511583 -6.1217413 5.312214 9.217925
-1.4434899 2.1677005 10.157015 -1.3012922 2.3133194 6.958503 0.3773484 -2.2265172
0.73070765 -1.5435921 1.714843 -0.0801214 0.026028816 -6.363879 -4.280519 -7.5107956
3.9090574 -0.0054262085 0.41091442 -8.324475 -2.1473489 -4.677378 3.758039 -4.0844336
5.529063 -2.5666592 -3.8615472 -2.307231 -2.1300492 -6.780428 -0.89315474 3.690302
-11.832663 5.311312 4.036655 4.194341 4.1027813 -3.5303192 -0.93069685 2.0678809
5.606071 -0.68801904 -0.54272825 1.054139 0.037304122 3.9235988 3.2251263 0.38007498
4.8672523 3.3703928 -1.8365417 -6.088543 2.3825035 3.2842603 3.430798 2.561249
1.5538299 1.5917537 -5.7964373 -6.629512 -4.8442082 2.8298533 -0.69765776 -0.5511025
0.13243695 5.4457636 -5.936329 6.076134 -7.2513213 1.4001678 -0.98600215 3.9164739
1.0506955 0.6102113 -0.9964122 -8.259251 3.8220198 4.4736204 -8.673496 -2.45952
-3.14791 -5.9250894 -4.2279077 4.598453 -0.28743294 -3.3207564 2.3112206 8.592944
-0.61363953 0.9845477 -1.1558335 -1.6144749 -4.9665947 -5.3259397 -2.6751509 10.06761
1.6990169 5.616797 0.43918112 -2.5928664 -2.3615465 2.778858 3.543285 5.5387673
2.2599812 -4.9487996 -1.6473423 2.261655 -4.5093746 -9.324647 3.577153 1.0189217
4.899353 -1.8764672 -4.938876 2.2418573 -7.442858 0.7283107 -1.8948065 -2.2663922
-0.17255868 -1.5009254 4.305348 1.5470283 -7.7889915 -4.1485386 0.48058802 -5.166047
3.0606205 8.502221 -7.3473573 0.90774155 -4.928061 1.2197626 -5.290812 -0.25204554
00000000: 38c4 a13f 8c97 5a40 d684 793e bfad c3c0
00000010: 6680 6a40 8b50 d0c0 3db6 f3bf 1775 8340
00000020: 7d31 5b40 aa64 1140 8534 5940 590a 7cc0
00000030: bb09 6bc0 4a49 d9c0 337c 0f40 fa50 29c1
00000040: 4adc 3bc0 a915 283f 4826 24bd bfc5 983f
00000050: ff12 d13f 88d6 673f e5ec 2e40 c7fb c4c0
00000060: c7a8 f93d dcfb a540 727f b83d 8667 9dbf
00000070: 098e fec0 b536 8f40 e6d7 a740 5cf6 4640
00000080: 5e9f e23f a512 acc0 472c 94c0 349f 77c0
00000090: 0be6 a4bf 1813 243e d39f 6740 4a0e 76be
000000a0: 642c 523f 2865 2fc0 80f0 19c0 865d d840
000000b0: f9bc 0341 5cdf 06c0 9830 93c0 b19c 1240
000000c0: b3f7 c440 2099 89bf b2d1 05c0 c2c4 77c0
000000d0: ab90 3840 31a9 25bf 231e 4fc0 ae74 7940
000000e0: 2413 3fc0 ac94 3abf 1b17 96c0 5825 d340
000000f0: af25 8c40 186a 8d40 cebc 14c0 60a5 f9bf
00000100: 2fcc 1f40 fa48 903e 4714 a2bd f2b9 c7c0
00000110: 2828 bcc0 1b4a 1740 3f09 00bf fd6f 8dc0
00000120: 85b0 4bc0 4fac 0240 aedd f8c0 ce6c 7ebf
00000130: ebd1 e0bf 88e0 1c3f 5e90 e740 88b6 e53f
00000140: 7c2d 8fc0 4ab0 bf3f d1bf 1cc0 5b48 bdc0
00000150: d3f0 d83d 2b05 8f40 3633 283f 47f7 d7bf
00000160: 1487 9a40 e729 41c0 cfb5 67c0 c386 ab40
00000170: 1d11 47bf b442 2abf 5935 d3bf a656 3940
00000180: 9ece dbc0 1b1c 96bf ef7e 4e40 2948 773f
00000190: a15e 3abe 68f5 613d 0063 18bf 38e6 67bf
000001a0: 735a dec0 d110 2240 1790 66c0 ee36 9940
000001b0: 4f0e cac0 dc1a fdc0 432d 193f 2229 dfc0
000001c0: 445b 9cc0 d5a8 e5bf 981d 123c f9ea 003f
000001d0: c7bd 2040 4ee5 c3c0 a8fd a940 9f7c 1341
000001e0: 47c4 b8bf 9bbb 0a40 2283 2241 be90 a6bf
000001f0: 6d0d 1440 0eac de40 cf33 c13e 427f 0ec0
00000200: a80f 3b3f 6d94 c5bf fa7f db3f b016 a4bd
00000210: 623a d53c e6a4 cbc0 03fa 88c0 7058 f0c0
00000220: ff2d 7a40 56ce b1bb 6063 d23e 0d31 05c1
00000230: 2a6e 09c0 15ad 95c0 b683 7040 aeb3 82c0
00000240: 16ee b040 2544 24c0 9723 77c0 aca9 13c0
00000250: ba52 08c0 44f9 d8c0 caa5 64bf e82d 6c40
00000260: 9652 3dc1 45f6 a940 472c 8140 0b38 8640
00000270: fc49 8340 c0f0 61c0 2642 6ebf 2958 0440
00000280: ef64 b340 0422 30bf 3df0 0abf 07ee 863f
00000290: 35cc 183d 3e1c 7b40 7868 4e40 3099 c23e
000002a0: 88c0 9b40 84b4 5740 cc13 ebbf 58d5 c2c0
000002b0: f07a 1840 5231 5240 3292 5b40 81eb 2340
000002c0: e6e3 c63f 96be cb3f 6a7c b9c0 f624 d4c0
000002d0: c103 9bc0 511c 3540 b399 32bf 0e15 0dbf
000002e0: 8d9d 073e b243 ae40 68f6 bdc0 b16f c240
000002f0: d30a e8c0 b338 b33f a36a 7cbf 82a7 7a40
00000300: 317d 863f cf36 1c3f df14 7fbf e425 04c1
00000310: f99b 7440 e627 8f40 a4c6 0ac1 c768 1dc0
00000320: 5c77 49c0 559a bdc0 054b 87c0 8726 9340
00000330: 692a 93be 4687 54c0 0aeb 1340 b37c 0941
00000340: 7b17 1dbf 510b 7c3f 5af2 93bf 1da7 cebf
00000350: 58ee 9ec0 196e aac0 ac35 2bc0 ee14 2141
00000360: 6379 d93f cdbc b340 59dc e03e 86f1 25c0
00000370: 9423 17c0 cfd8 3140 2ec5 6240 953d b140
00000380: 88a3 1040 915c 9ec0 1ddc d2bf f5be 1040
00000390: cc4c 90c0 c131 15c1 13f0 6440 076c 823f
000003a0: 80c7 9c40 1430 f0bf 460b 9ec0 977a 0f40
000003b0: e52b eec0 9272 3a3f 0589 f2bf 920c 11c0
000003c0: 39b3 30be 531e c0bf 69c5 8940 0605 c63f
000003d0: 6b3f f9c0 d4c0 84c0 a20f f63e 4250 a5c0
000003e0: 35e1 4340 1909 0841 8d1d ebc0 c061 683f
000003f0: adb2 9dc0 2e21 9c3f 554e a9c0 1d0c 81be
